rl_games/envs/poker/deepcfr/policy.pth (torch, 279270 bytes, 27 tensors)

card_model.cards_embeddings.rank_embedding.weight f4 [14, 64]
00000000: 447d 8bbf 5141 1c3f 5b44 703e 3f9e 31bf
00000010: b381 21bf 26e0 cf3f 6997 28bd 5f07 bdbd
00000020: 5553 c43e 0bd5 b53f 6978 2abf 6468 8f3b
00000030: 8927 28bf b161 6d3f 4da9 bc3e 0a7c 913f
00000040: b38c 303f 5ad2 263f b44b fc3e 34da a13e
00000050: 068b 23bd 7a1f d7bf a4e3 523e d149 cf3e
00000060: b22e c6bf 2996 4940 ea5b 0e3f a993 b4be
00000070: 67b3 7e3e e481 6c3f 22c1 9f3e 5847 5dbf
00000080: 57ce 7abf 6689 e43e 54f3 96bf aa55 a23f
00000090: 2fed c83e aa2f 0dbd cdcd a9bf 2771 4a3f
000000a0: 101f 363f dcd4 ed3d 10d3 babe bc71 5f3e
000000b0: cee6 d33e d102 95bf 4e2c 8a3f b4fa 6b3f
000000c0: d13a 0d40 08e3 b73e 5d4f 0c3f 5803 b73f
000000d0: cb57 bb3c 0c31 16be 994a d5be 639f dabd
000000e0: e3c9 04be cf0f 4abf 4ef4 473f 5697 92bf
000000f0: 576a 4abf 6d94 e2bd acda 97bf ed1d 0cc0
00000100: 3f84 a13f 080b 313f a148 713f 28cb 5a3f
00000110: 288b b3be 3a63 f03e 2bad 8b3f 763c 1fc0
00000120: 1381 dd3e bf77 d23f 50a7 73be 8cdf d73e
00000130: ab47 423f 437c c7bf c653 c7bf b71a 143f
00000140: f07b ac3d 2311 8bbc cb8f 143f 4c4b 89be
00000150: 9095 e2bf 11f6 6e3d e95a 163e 0a60 eabe
00000160: 2cbe 213f 6b58 46be 469c fdbf ae0c cf3f
00000170: f2a8 0740 9310 03bf f68c 913e 963f a8bd
00000180: 777a e33f 85c5 0fbd 4d3c 3f40 f005 6b3f
00000190: a25d 4f3f 07b1 df3e d96b 33be f741 bbbf
000001a0: fc84 d9bd 8ec3 1cbe dbba dc3d ff13 743d
000001b0: 6ca2 0040 1f9e 25bf 703e a1be e452 0cc0
000001c0: 7318 1f3f 1e11 d63f 8d24 533f f158 acbd
000001d0: d776 0d40 deee 6e3e 9c91 e13f e733 603e
000001e0: 657a 833f 20da d53e 2a9d 48bf d67e 913f
000001f0: e729 6abd ad03 c4bf 5824 94bf 8389 d7bc
00000200: a793 a13e 8a52 763f 9d4a d83f eee7 b9bf
00000210: 8279 52bf 3d4d 3e3f 16d7 aabf f0d6 f43f
00000220: 6cc4 8a3f d4f1 0cbf f775 d7bf bd26 66bf
00000230: 6da2 583f 77f8 623e f678 123e 2bae febf
00000240: b132 3abf b241 b33e da6d a4be f50a f8bf
00000250: 0c6f c33f ce13 a23f ef29 49be 9fb3 18bf
00000260: 0d72 9bbf 70fc 843f 6cfe 8f3f f77f 6abe
00000270: d6fa 43be 1793 bebf 3ab7 8abe 2213 393d
00000280: eb28 d1be 7d4f 333f a654 d13e 66cd 313e
00000290: 6501 773f 17e0 babd 0658 85bd 1b74 c4be
000002a0: 5a92 373e 169c a1bf 8c69 1f3c cca7 edbf
000002b0: 6c32 663f cd15 80bf 6284 e1be 90a9 a73e
000002c0: 9168 203f 5a7f 1abf b0b8 bc3f d61a 3fbf
000002d0: d406 d9bc 620d 5ebe 5941 05bf e95e 5d3f
000002e0: 1eb8 38bf 5624 8c3f 0e71 903f 7466 b13f
000002f0: 4494 7fbf 0f1e bfbe d429 9d3f 6e3b 233f
00000300: 1cb5 d1bf 0564 83bf 8d25 283c 37aa 86bf
00000310: e8a8 17c0 1e53 87be fb29 993f a808 4540
00000320: e654 0440 891a 8ebf a9e3 a13d e9e2 0340
00000330: 9cc3 77bf dfa0 403f e2d1 05bf 2973 0cbf
00000340: 6807 f53e bb12 0b3f c45a 3a3f 426e 5f3e
00000350: 5650 eabf f0f2 2dbf 7286 8f3f 4f3b 603f
00000360: b2bc 053f ce91 9abf ed9f e93e 9856 f43f
00000370: 5511 08bf 58ec a8bf 0200 04bf 2c3c bcbf
00000380: 8dfc b7be dd8e 0cc0 1530 f43e 24fb d23e
00000390: 00de 8bbf f561 84be f668 1d3e 1162 0040
000003a0: 28be 473f 2052 ad3f 3dc6 8e3f 2d3b a1bf
000003b0: b137 913f af3e 0b3f e77e b23f ab65 b2be
000003c0: 0df2 a6bf d2ab 913e 98dd 86bf 5ff1 b2be
000003d0: 0946 413f d9bd 913e cfd8 353e cdb4 c4be
000003e0: f246 dabf 0b4b ccbe bbdc 48bf 488b 513f
000003f0: 8798 913f ec61 1a40 6cff 563f 29a9 9a3e
-1.0897603 0.61037165 0.23463576 -0.6938209 -0.6308853 1.624028 -0.04116002 -0.092299215
0.38344827 1.420564 -0.6658998 0.004376458 -0.65685326 0.9272719 0.36847916 1.1365979
0.6896469 0.6516472 0.49276507 0.31611788 -0.039927505 -1.6806481 0.2059465 0.40486005
-1.5483 3.14979 0.55609 -0.35268906 0.24873124 0.923857 0.31202036 -0.86436987
-0.979711 0.44636077 -1.1793008 1.2682393 0.39243457 -0.034469284 -1.326593 0.79078907
0.7114115 0.11612865 -0.36489153 0.2182073 0.41387028 -1.1641484 1.0794771 0.9217942
2.2067149 0.359154 0.548086 1.4297895 0.022869011 -0.14667147 -0.41658476 -0.10674932
-0.12967639 -0.7893037 0.78107154 -1.1452434 -0.7906851 -0.11063466 -1.1863608 -2.1893265
1.2618483 0.6915746 0.9425145 0.8546624 -0.35067105 0.46950704 1.0912222 -2.4880652
0.43262538 1.6442794 -0.23794293 0.4216274 0.75890607 -1.5584797 -1.5572441 0.57853264
0.08422077 -0.016975945 0.5803191 -0.2681526 -1.7701893 0.058340136 0.14683117 -0.45776397
0.63180804 -0.19369666 -1.9813316 1.6175745 2.1196866 -0.51197165 0.28427857 -0.08215253
1.7771748 -0.03510048 2.9880555 0.91805935 0.8100225 0.4368975 -0.1752161 -1.4629506
-0.10621068 -0.15308973 0.10777827 0.059589382 2.0099134 -0.646944 -0.3149295 -2.1925592
0.6214668 1.6723974 0.8247765 -0.08415402 2.2103784 0.23333308 1.7622561 0.21894799
1.0271727 0.4176798 -0.78364813 1.1366832 -0.057168867 -1.5313622 -1.1573591 -0.026310688
0.31557962 0.96219695 1.689777 -1.4523904 -0.82216656 0.74336606 -1.3346889 1.9128094
1.0841193 -0.550565 -1.6832875 -0.8990286 0.8462284 0.22165094 0.14303955 -1.9896902
-0.727336 0.3501106 -0.3211506 -1.9378344 1.5268264 1.2662294 -0.19644903 -0.5964908
-1.214418 1.0389538 1.1249518 -0.22900377 -0.19138655 -1.4888638 -0.27092916 0.045184262
-0.4085153 0.70043164 0.40884894 0.1736351 0.964865 -0.09124773 -0.0651093 -0.3836983
0.17926922 -1.2625759 0.009729754 -1.8566833 0.8992069 -1.0006653 -0.44046313 0.32746553
0.62659556 -0.60350573 1.4743862 -0.74650323 -0.026492514 -0.21684793 -0.5205284 0.86472946
-0.7215594 1.0948589 1.1284502 1.3859391 -0.9983561 -0.3732762 1.227839 0.6376256
-1.6383395 -1.0264899 0.010262859 -1.0520695 -2.3696842 -0.264306 1.1965936 3.0786533
2.0676818 -1.1101848 0.07904751 2.0607245 -0.9678285 0.7524547 -0.5227338 -0.5486322
0.47857213 0.54325455 0.7279475 0.21819404 -1.8305767 -0.6794882 1.1212904 0.875905
0.5224105 -1.2075746 0.45629826 1.9088926 -0.53151447 -1.3197126 -0.5156251 -1.4705863
-0.35934868 -2.1962197 0.47692934 0.4120723 -1.0927124 -0.25855985 0.1537207 2.0059855
0.7802453 1.3540688 1.1154248 -1.2596184 1.1345121 0.5439252 1.3944978 -0.34843192
-1.3042618 0.284514 -1.0536375 -0.34949777 0.7549749 0.28465155 0.17758487 -0.3841919
-1.7052901 -0.39901003 -0.7846181 0.8185315 1.1374673 2.4122267 0.8398349 0.30207184

card_model.cards_embeddings.suit_embedding.weight f4 [5, 64]
00000000: 9801 b53f 0903 07bf 2f4a 71bf d0a2 40bf
00000010: 94bf f23d d40c 9b3e ea5c 0640 0068 6ebe
00000020: 3714 21bf 8298 a5be c05d 543f 69de 813e
00000030: 995f c2bf a9be 3fbc cb22 343c 14c3 8ebd
00000040: 1a7a c4bf 6ff4 adbf ac65 f0bd d4a0 92bf
00000050: 4817 863e e8a2 973d 42fb e6bd 177d 233f
00000060: 80f9 cabe 6570 4b3e 286d dc3d 13f1 afbf
00000070: 153d 8b3f 3144 08be 7df3 a13e 2a63 eb3f
00000080: 6d2f 923f 03e4 43bf f68a 6e3e 883b 66bf
00000090: 2be9 c2be 2e9c a63f 753f ee3f 0633 e53e
000000a0: 6f19 383e 825e a1bd 27ca a63e 655a a53d
000000b0: 4cde 1c3e b1ec 703f b2ec 69be 5301 16bf
000000c0: 2119 1c3f c11f f03d 3af0 8dbe 1713 6fbe
000000d0: 3af9 86bf e91e c2bb b833 16c0 15fa 9a3f
000000e0: 88d5 aabf 5ed6 be3f fbc6 3d3f e82b a4bf
000000f0: c6bf 0c40 6142 333f fb26 cd3d 9531 2840
00000100: e617 8c3e 0405 163e 7c00 91bf bd34 8ebe
00000110: 8b57 8f3e 566f c83e d6ec b03e 8d33 4bbf
00000120: 2351 d2be 540c 9abe 9162 9cbf c501 aa3e
00000130: ab9c 8dbe 8dd3 903f b9ce 80bd ffc7 bdbe
00000140: 363b 79bf 1ba0 b9bf 3dfc 103f fd72 113f
00000150: 260b cabe 9ff0 9a3d cd9a 0d3f aeef d23e
00000160: 88b0 15c0 9e1a 80be dc26 5f3f b1b5 d83e
00000170: d5e9 07bf b111 cd3f 3798 423f 0881 11be
00000180: 4d90 d1be 743a 963f 34a8 7d3e 2a15 6fbf
00000190: 6941 af3e 224c a73e cac0 203f a933 00bf
000001a0: e6e1 31bf 84ba 9e3f 01b3 3a3e e35f b9bf
000001b0: 8214 9bbf 3724 01bf 4123 aabe e36e 703e
000001c0: 0102 b6bf d931 cdbe b62e bd3f 41ce 2abf
000001d0: c99a 603e 52e1 58be 34ae c8be 0ea3 21be
000001e0: e90e 7fbd 2940 01c0 a783 a93f aed1 c13e
000001f0: 6dec 0bc0 0e24 2cbf 68cc 22bf aa44 b8be
00000200: 4a9b de3e 96f9 f6be 85e9 9c3f 952b fbbf
00000210: e1b5 bb3e 0243 afbf 6634 1a3f 3abe a43f
00000220: 0bd4 babf 7b77 cc3f c692 0840 17eb b9bd
00000230: 956e bebe d099 14bf 6aab ba3e 251f 49bf
00000240: 974f d73d 3b63 533f 3d27 10bf abd7 a93f
00000250: 9643 1cbe e21e 9dbd 9afa 803e faf1 fa3e
00000260: eabc 183f 893a a23e f321 413f d903 4a3f
00000270: f3ff f6be fa44 9a3f 44e0 443f d39e df3f
00000280: 2bff f8be 136b 773e 9be2 12bf 969d ec3e
00000290: 9dbc 89bd bb44 613f f28a 84bf 0f27 a4be
000002a0: 4d0a 883f 8770 fdbe 3156 913e 0948 62bf
000002b0: a6fd 373d c443 29bf abe4 913e 1de9 133f
000002c0: df8f 2dbf 3092 0c40 b3b4 e63e d817 51bf
000002d0: b504 a0bf 882a cebd b24f afbd df99 b8be
000002e0: 0de6 5dbf 671a 29bf 3968 2fbf 494c 0bbf
000002f0: f6d5 1dbe 009b 5fbf 59db c93f c439 11c0
00000300: c09b 8abf a765 6d3f cbea e3be a5a0 283f
00000310: 0eb5 7a3f 8ace b73d 0df0 063f b164 f63e
00000320: 79a0 153f 9ce7 cb3f bc16 1dbf 9c87 58bf
00000330: e99e bebf 4b65 e43d c1f0 583e 7b93 a7bf
00000340: c60c 55bf 9c04 1ebe d83c 08bf 1c2c 3f3d
00000350: 4824 adbf 027b 18bf 453d 12be 906a a7bf
00000360: 9187 5d3f d47f 643f 57a2 7ebe ed56 fabd
00000370: 3400 45bf 4c14 a4bf 8d67 4cbf e073 19bc
00000380: 75ed 3b3d 1986 893e b932 c03f 4564 383d
00000390: 0c56 13bf f403 82bf e204 183f d837 0b40
000003a0: 0c59 b3bf 7f9c 0dbd 7b71 913f 659e 693f
000003b0: afec d4bc 3dfb 1c3f 0a9e 41bf fed8 36be
000003c0: 64c7 bdbf e356 8e3d fe45 d03e 4884 a1bf
000003d0: 2696 f43f a7b5 1b3f f9c2 20bf a849 e1bf
000003e0: 2284 2bbe 7bd0 1b3f ad5a 103e 70b0 a9be
000003f0: 0394 e8bd 44cd 5a3f ff93 8abe 380b 143f
1.4141111 -0.52739006 -0.9425382 -0.7524843 0.11852947 0.30283225 2.099421 -0.2328186
-0.6292147 -0.32342917 0.8295555 0.25364998 -1.5185424 -0.011703172 0.010994623 -0.06970802
-1.5349762 -1.359022 -0.11738142 -1.1455331 0.26189637 0.07404119 -0.112783924 0.63862747
-0.39643478 0.19867094 0.107630074 -1.3745445 1.0878016 -0.13307263 0.3163108 1.8389637
1.1420723 -0.76519793 0.23295197 -0.8993459 -0.38068518 1.3016412 1.8613116 0.4476549
0.17978452 -0.07879354 0.32576105 0.08073882 0.15319175 0.9411116 -0.22844198 -0.5859577
0.60975844 0.117248066 -0.2772234 -0.23347126 -1.0544808 -0.005924095 -2.3469067 1.2107569
-1.3346415 1.490917 0.74131745 -1.2825899 2.199205 0.7002316 0.100172006 2.6280262
0.27361983 0.14650351 -1.1328273 -0.2777461 0.27996477 0.39147443 0.3455569 -0.79375535
-0.41077527 -0.3008753 -1.221758 0.33204475 -0.2765859 1.131456 -0.06289429 -0.37066647
-0.97355974 -1.4501985 0.56634885 0.56816083 -0.3946163 0.07565426 0.5531433 0.41198486
-2.3388996 -0.25020307 0.8716867 0.4232612 -0.53091174 1.6021024 0.7601351 -0.14209378
-0.40930405 1.1736588 0.24771196 -0.9339167 0.3422959 0.32675272 0.6279417 -0.5007883
-0.6948532 1.240067 0.18232347 -1.4482387 -1.2115633 -0.50445884 -0.33230022 0.234798
-1.4219362 -0.40077093 1.477988 -0.6672097 0.21934046 -0.21179703 -0.39195406 -0.15784857
-0.06227008 -2.019541 1.3243302 0.37855285 -2.1863053 -0.67242515 -0.6359315 -0.35989887
0.4347785 -0.48237294 1.2258765 -1.9622675 0.366622 -1.3692324 0.60236204 1.2870553
-1.459596 1.5973963 2.1339583 -0.09078043 -0.37193742 -0.580472 0.36458904 -0.7856315
0.105132274 0.8257329 -0.5630987 1.3268942 -0.15260157 -0.07671906 0.25191194 0.49012738
0.5966326 0.31685284 0.7544243 0.7891212 -0.4824215 1.20523 0.769047 1.7470344
-0.48632178 0.2416194 -0.5737702 0.4621398 -0.06725428 0.879955 -1.0354903 -0.3206105
1.0628144 -0.49499914 0.2838607 -0.88391167 0.044919632 -0.6611903 0.28494772 0.5777758
-0.67797655 2.1964226 0.45059738 -0.8167701 -1.2501436 -0.10066706 -0.085601225 -0.36054894
-0.86679155 -0.6605591 -0.68518406 -0.54413277 -0.15413651 -0.87345886 1.5770065 -2.2691507
-1.0828781 0.92733234 -0.4451507 0.65870124 0.9793252 0.08974941 0.5271004 0.48123696
0.58447987 1.5930057 -0.61362815 -0.84581923 -1.4892246 0.111521326 0.2118559 -1.3091882
-0.83222616 -0.15431446 -0.5321784 0.046672925 -1.3526697 -0.59562695 -0.14281185 -1.3079395
0.8653498 0.8925755 -0.24866615 -0.12223611 -0.76953435 -1.2818694 -0.79845506 -0.009366006
0.045880754 0.2686012 1.5015479 0.0450175 -0.5755317 -1.0157456 0.5938245 2.1752834
-1.401155 -0.034573074 1.1362756 0.91257316 -0.025991766 0.6132086 -0.75631773 -0.17856213
-1.4826474 0.06950166 0.406784 -1.2618494 1.9108322 0.60824054 -0.62797505 -1.7600603
-0.16749623 0.6086499 0.1409709 -0.33142424 -0.11356356 0.8546946 -0.27066037 0.5782962

card_model.cards_embeddings.card_embedding.weight f4 [53, 64]
00000000: 84ba 883f be8e 8f3e 23c6 86bf e942 abbd
00000010: b1d4 85bd cbea 7ebf 2969 bfbe fe96 d0bf
00000020: e4e3 ccbe 3f09 853f c174 803e 0d32 a93f
00000030: 711a bd3f 7328 babf 131d 0abf d131 23bf
00000040: a022 283f afda 573e 2e43 663f a9cd 3c3f
00000050: 60e5 863f 5fe2 e43e 2794 e83e 02c3 a3bf
00000060: 5faa 493f a7e0 613e 2ce5 6dbf d94d 243f
00000070: 05fc efbd f2ec 9a3d 0107 97be 4075 01bf
00000080: 0cab 423f 67fc 87bf 3739 733f 180e 073f
00000090: a92a 863b 9d87 64bf 755c d43e 0d30 cd3f
000000a0: 5abe ba3e 8ca2 403e 751c fa3e 9a9f a3bf
000000b0: eb35 0bbf d1ec c6bd 73ad d5bd 9896 10bf
000000c0: bf33 b2bf c76d 583f 4d6c d8bf f48e c33d
000000d0: 5b40 08bf 5070 d9bd b32e c43e 8248 4ebf
000000e0: 5660 543f 04ea c83f 58e4 3b3e e19c d33f
000000f0: 879a 59bf 8e34 723f 370b bbbd 30ee 023f
00000100: 3e24 a9be 5b04 973e 6aff 6d3e 4efd 2a3e
00000110: 12e0 5a3f 2156 1cbf 6a69 173f 5fa2 003f
00000120: d1c6 9fbe 4816 b23f e0cd 9abe 35fb 8ebf
00000130: 21f7 033f c479 3ac0 19ce acbd 6213 473f
00000140: eb2a 82bf 901d 443e 061b 0b40 fada 093e
00000150: c6b6 e83f 68c6 463f 51fc 983f 12b6 d53d
00000160: 63e0 013f b612 713c e0be c2bb 7e0f 0c3e
00000170: f88f b0bf 055e 9bbf 50d0 36bf 3417 b7bf
00000180: 6b84 cbbf eee7 8abf e270 e6bd 2e1c 993f
00000190: 9f7b bb3f eaec 323f dd4d 2cbf 86ea 333e
000001a0: 0823 853f c89a 7cbf 4774 1a3f 9ab8 f7bf
000001b0: 25aa dabe 33b7 1a40 104f 8e3f 8b23 53c0
000001c0: 54ba 81bf d66f 91bf dac7 983e f848 d6be
000001d0: bcda e9bd b389 903f dbda 9dbf 89dd e8bf
000001e0: 2148 1a3f dc13 1dbf b0f5 81bf c767 ec3e
000001f0: 80a8 2b3f 08d7 d43d 0c56 823e a393 24be
00000200: 341a 3dbf eb8a 933f 7d6b f23f 5451 483e
00000210: 74fd dcbd a44a 78bf 13f4 873e 58fc 2a3f
00000220: 3e0f d23e 9b58 8fbf da04 99be 1bcf 743f
00000230: 840e 19bf 153a 79be fb13 bcbf bc7c b4bf
00000240: 9425 5a3d 8040 c13e d70a 783f f475 86be
00000250: 3c86 ab3e f4a3 a9bf 2471 d3be ac69 87bf
00000260: 7b13 9e3f 442c 7abf bbe9 853f 2fef 783f
00000270: 77f0 103f 389a c73f 7617 283e 0993 89bf
00000280: 587e 263f b4e2 b7bf d1cf 9fbe ceff 933f
00000290: fbe2 883f a0a0 2e3f ce5f 8d3e 9d7a 53bf
000002a0: 2028 25bf 05e3 16c0 e172 c13f c6d8 c4bf
000002b0: 45e7 6dbc 0106 813f 89d5 e03d 4e2b d3bf
000002c0: 5f95 bfbe f80b b3bf 6220 b5bf a325 19bf
000002d0: 2659 99bf 8432 01bf c46d c7bf f62b 5bbd
000002e0: 85f8 843f 3e64 683f edc5 773f 6a1e ef3e
000002f0: 03e3 8ebe befd 613f ef85 3fbf 7cd0 cc3e
00000300: 4d98 5d3f bcce 93bf 5d6a 00bf fd31 243f
00000310: 1160 263f 710a 17c0 dcf7 ff3f 2b41 39bf
00000320: 9bef a23f 6241 df3e 3518 33be 75a6 4ebe
00000330: e74f d83d 2764 86be d4d5 e4bd 2c12 ddbe
00000340: fb0c e7bf b13d 8cbe 23df 44bf a7b0 3ebf
00000350: 3364 5b3f ee1d 1e3f 6298 e13e 0c6b 243e
00000360: 173c 9ebf f43f 1b3e fce5 e4be 8766 ab3e
00000370: c6d9 c7bf d82c b6bf 11bc b73e 796d b9be
00000380: a8f3 fc3f c06b 853f 082d 9cbf fe81 efbe
00000390: e71e 493e d5c1 bebd 8c42 9a3e 1931 f7bf
000003a0: ac09 d3bf 049c 083f 42c2 ffbe c6dd b4bf
000003b0: ff9d d53f 5f78 92bf a5f2 04c0 6c2e 22bf
000003c0: 62e0 42bf 5715 293c 54c2 a6bf e329 80be
000003d0: 7d47 a73f 8dbc c8bf 4b8f 5ebf f358 983f
000003e0: c85e 46be 1a13 473c c781 863e 2c77 b3bc
000003f0: 3908 423f 50b4 6d3f 4d21 303f 86e3 a7bc
1.068192 0.2803859 -1.0529217 -0.083623715 -0.06534708 -0.99577016 -0.37384918 -1.6296079
-0.40017617 1.0393447 0.25089076 1.3218399 1.4773694 -1.4543594 -0.53950614 -0.6374789
0.65677834 0.21079515 0.8994626 0.7375131 1.053875 0.44703957 0.4542553 -1.2793887
0.7877559 0.22058354 -0.92927814 0.64181286 -0.11717991 0.07564725 -0.2949753 -0.50569534
0.76042247 -1.0623902 0.9500918 0.5275588 0.004094441 -0.8926943 0.4147679 1.6030289
0.36473352 0.18812007 0.48849836 -1.2783082 -0.5437915 -0.09713138 -0.104334734 -0.5647979
-1.3922042 0.84542507 -1.6908051 0.095487505 -0.532232 -0.10617125 0.3831688 -0.8057939
0.82959497 1.5696416 0.18348825 1.6532251 -0.85001415 0.9461144 -0.091329984 0.51144695
-0.33035463 0.2949551 0.23241964 0.1669819 0.85498154 -0.6106892 0.59145224 0.5024776
-0.31206372 1.391305 -0.30235195 -1.1170412 0.51548964 -2.913682 -0.084377475 0.7776395
-1.0169348 0.19151902 2.1735244 0.13462439 1.8180778 0.77646494 1.1952001 0.10435118
0.5073301 0.014713934 -0.005943164 0.13677785 -1.3793936 -1.2138067 -0.7141161 -1.4303956
-1.5899786 -1.0852029 -0.112519994 1.1961725 1.4647101 0.6989275 -0.6730631 0.17569932
1.0401316 -0.9867368 0.60333675 -1.9353211 -0.42707935 2.4174316 1.1117878 -3.2990444
-1.0134988 -1.1362255 0.29839975 -0.41852546 -0.114186734 1.1292022 -1.2332414 -1.8192607
0.6026631 -0.6135843 -1.0153103 0.46172926 0.67053986 0.103925765 0.25456274 -0.16071944
-0.7386811 1.1526769 1.8939053 0.19562274 -0.1079053 -0.9698889 0.265534 0.66791296
0.41027254 -1.1198915 -0.29886514 0.9562852 -0.59787774 -0.24338563 -1.4693598 -1.4100566
0.053258494 0.37744522 0.9689154 -0.26261866 0.3350085 -1.325316 -0.41297257 -1.0579123
1.2349695 -0.97723794 1.0461954 0.97239965 0.5661692 1.5593939 0.164152 -1.0747997
0.65036535 -1.4366059 -0.3121324 1.156244 1.0694269 0.68213844 0.27612156 -0.8260897
-0.6451435 -2.3576062 1.5113183 -1.5378654 -0.014520471 1.0079957 0.109782286 -1.649759
-0.3741865 -1.3988028 -1.4150507 -0.59823054 -1.1980331 -0.50467706 -1.5580373 -0.05350872
1.0388342 0.9077796 0.96786386 0.46702892 -0.2790757 0.88277805 -0.7481374 0.4000281
0.8656052 -1.1547465 -0.501623 0.64138776 0.64990336 -2.3600123 1.9997516 -0.72365063
1.2729372 0.4360457 -0.17489703 -0.20180686 0.10562115 -0.26248285 -0.11173597 -0.43177927
-1.8050836 -0.27390817 -0.7690298 -0.744883 0.85699767 0.6176442 0.4406157 0.1605646
-1.2362088 0.15161115 -0.44706714 0.3347666 -1.5613334 -1.4232435 0.3588567 -0.36216334
1.9761858 1.0423508 -1.2201242 -0.46778864 0.19640695 -0.09314314 0.30128896 -1.9311858
-1.6487327 0.5336306 -0.49952894 -1.413018 1.6688842 -1.1442984 -2.0773098 -0.63352084
-0.7612363 0.010320029 -1.3028054 -0.25031957 1.3068691 -1.5682541 -0.869374 1.1902145
-0.19372094 0.01215055 0.26270887 -0.021907412 0.75793797 0.9285326 0.6880081 -0.020494234

card_model.fc1.weight f4 [64, 256]
00000000: 07ea c9bd c3c0 4bbd 46db 7cbe bdca 8b3c
00000010: e012 d5bd efc7 3dbd 89a4 353e 0e55 b0bd
00000020: 9c97 5dbe cfd9 88bb f7fa fc3d 5634 afbd
00000030: aa8f 9abc 4b34 c73c e12a 3d3e 982e 623e
00000040: 3a66 0e3e 78ee 0f3e 0677 82bd d2b5 0ebd
00000050: 3bb0 06be d18b 09bb 3d4d 963d 8470 e9bd
00000060: f7f2 99bd e17c 17bc 5ed8 44be c848 153d
00000070: 48b1 44be 7aa6 973d 76f8 1dbe 1d9b 92bd
00000080: 2f51 283c 8f52 6bbd e8d6 cdbd 0cd5 ccbd
00000090: 740e 8abd 5962 d5bb 767a ca3d 7b54 283e
000000a0: 557b e63c b05e aebd 373c a2bd 005c 9d3c
000000b0: 2ac2 173e 414f 0c3e 16ea 953d 3195 033e
000000c0: 9ce1 c2bd 9533 c6bb ab9b 41be 98ea 04bd
000000d0: 8830 91bc 91a7 6d3d 1e98 e3bc 28a4 3f3d
000000e0: cbd6 f3ba 7e18 b3bd ddd9 403c 3674 b83d
000000f0: 9ac6 203e 86cd 34bd e031 0abe 2bf5 0bbc
00000100: f494 073d 88f7 463e 7fd3 0f3d 2ad5 dbba
00000110: dfed 8d3d a3cc 053c 32ca 7abd 8439 8b3d
00000120: 8cff ff3d 8b47 0bbd b75f 97bd bb73 aa3c
00000130: bd0d b8bd 75b2 99bd a3a1 bebd 55b8 dcbd
00000140: 8e2a 093e 658a 1dbe f22e 3bbe d50c be3b
00000150: 53bd 883d 3e92 fe3d 6484 00be 9877 0c3c
00000160: 81db d73d 2721 673c 00ce 0b3e 7315 68bd
00000170: 4605 f03d 4310 853c 63cd 72bc ce0d e03a
00000180: 90dd 113c e2cb f93d be1b 833d 6f60 53bd
00000190: 24ac 63bd 423b 49bd 936d 25bd fa3a eabd
000001a0: 5c66 ea3c d181 4cbd d36d 093e 062d a53d
000001b0: d67d 833d a40b b0bc 55e8 ccbd 4959 6dbc
000001c0: fba5 473d 5f57 70bd 77b7 f33d b8bd 78bc
000001d0: 3b61 a6bd 02fc 09be 1583 043e 572d 1d3d
000001e0: 019d dd3d ec4d fdbc e294 863d 5f1e 183c
000001f0: 9eab 11be 6020 acbd bc7e 4a3d a362 eebc
00000200: d95c 4a3e f0a0 483e c35f 1b3d 8fe1 d9bd
00000210: 7982 2d3e 6ead 07bd 8fbb 7cbd 91b1 eb3d
00000220: 7ee8 db3d 26f1 f73c 235f ba3c beb1 f33d
00000230: 9ae1 133e 67ea 223e da54 59be 0212 8bbd
00000240: fff4 0cbe b0b5 5ebe 83ff 343e c6f6 a53d
00000250: a470 e7bc e8f3 93bd 605c 3b3d f518 80bc
00000260: 238c 5f3d f6aa 053d 5ec8 613d 19d3 b53d
00000270: 05b0 203e 1056 44bd f8e5 0b3e 5bb9 2bbe
00000280: e040 8f3d 9a00 153e bb2a c3bb f900 683d
00000290: c464 98bc 1628 553d 949e 9bbd 9fb4 5a3b
000002a0: efae a7bd 9fcf 82bc a20d da3d d858 053e
000002b0: efa6 0f3e 79fd 3f3d 13da b6bc 372d a83d
000002c0: c396 183e e139 75bd 3a8d 8ebc 50a0 eb3c
000002d0: d195 33bd d4f9 92bd c640 513c 309e 093e
000002e0: dd9c 943d 424e d53d fa3d b0bd 97e2 923d
000002f0: dbd3 51bd 9bda 8c3d 3f4e b93c a1d6 8cbd
00000300: 4851 483d 3545 7a3e 69de ea3d b866 19bd
00000310: 36fd e83d c448 153e 928c 5b3d f1ba 1abc
00000320: 568b 323e b3a1 6cbd 9ced 1fbd 67ad 863d
00000330: ee09 8c3d 9a03 95bd f0e8 12be e3e3 babd
00000340: ee31 873d 1db2 08be 21cb afbd f8b3 a73c
00000350: b388 a83d e565 9c3d 6865 30be 9873 d93d
00000360: d909 923d 21ad fb3d 62f1 d23d 5433 0cbe
00000370: af10 833d 0388 b5bd 77e5 f43d bc40 5c3d
00000380: 2a2d 7dbd dfdd 233c a910 efbb dd4e 68bd
00000390: 8cb8 8abd 8969 ba3d 1e20 6fbc 3a0a 9bbd
000003a0: 8a20 413d b640 cb3d d8a1 153e 6660 093d
000003b0: b667 973d f26d 533c 3833 aabc 19ad f03d
000003c0: 7298 053e 694d 7abc e78d 923d 5e37 dbbd
000003d0: 1712 a1bd e30b 09be 78ac af3b 93fb a6bd
000003e0: feda 9d3d fb64 5b3d b386 033d e564 b73d
000003f0: e41b a2bd d31f 23bd b2e7 be3d 4a2b 923d
-0.0985909 -0.04974438 -0.24693021 0.017064447 -0.10403991 -0.04633325 0.17738546 -0.08609973
-0.21639866 -0.0041763554 0.12352555 -0.08554904 -0.018867332 0.024316927 0.18473388 0.22088087
0.13906184 0.14055812 -0.06370358 -0.034841366 -0.13153164 -0.0020987878 0.07338951 -0.11398414
-0.07517045 -0.009246082 -0.19223163 0.036446363 -0.19208252 0.074048 -0.15426812 -0.07158492
0.010273262 -0.05745178 -0.10050756 -0.10001573 -0.06741038 -0.006511968 0.09886639 0.16438477
0.028134981 -0.08514154 -0.07921641 0.019208908 0.14820161 0.13702108 0.07320039 0.12849881
-0.09515688 -0.0060486295 -0.18907039 -0.03245029 -0.017723337 0.058021132 -0.027782496 0.04678741
-0.0018603442 -0.08744906 0.011770693 0.090065405 0.1570076 -0.044141315 -0.13495588 -0.008542339
0.033101037 0.19430363 0.035113808 -0.0016771902 0.06930136 0.008166465 -0.061227985 0.067980796
0.124999136 -0.034003776 -0.07391303 0.020807138 -0.08986995 -0.07504741 -0.093081735 -0.10777346
0.1339514 -0.15384825 -0.18279627 0.0057998695 0.06676736 0.12430237 -0.12550503 0.008573435
0.10539914 0.014107025 0.13652802 -0.05666108 0.11719756 0.016243106 -0.014819476 0.0017093958
0.008902922 0.12197091 0.06401776 -0.051605638 -0.055584088 -0.04912878 -0.0403877 -0.1143703
0.028613262 -0.04992849 0.13420801 0.08065228 0.06420486 -0.021489926 -0.10005251 -0.014486619
0.048742276 -0.058677074 0.119002275 -0.015181951 -0.08124014 -0.1347504 0.12940629 0.038373318
0.10820962 -0.030920945 0.06571366 0.009284585 -0.14225623 -0.084046125 0.04943727 -0.029099768
0.19761981 0.19592643 0.037933122 -0.10638725 0.16944303 -0.03312438 -0.061702307 0.115084775
0.10737704 0.030266356 0.022750443 0.11899136 0.14441529 0.1590973 -0.21223775 -0.06790544
-0.13765334 -0.21748996 0.17675595 0.08103709 -0.028251953 -0.07224256 0.045742393 -0.0156369
0.054577004 0.032633744 0.055122726 0.08878154 0.15692146 -0.047933638 0.13661945 -0.16769926
0.06994796 0.1455101 -0.0059560216 0.056641553 -0.018602736 0.052040182 -0.07598606 0.0033371819
-0.08187663 -0.015968142 0.106471315 0.13022172 0.14028524 0.04687259 -0.022320783 0.08211749
0.14901261 -0.05986965 -0.017401326 0.028762966 -0.043844048 -0.07176557 0.012771791 0.1343925
0.07256482 0.10415317 -0.08605571 0.07172125 -0.05122743 0.06877633 0.022620318 -0.06876875
0.04890564 0.24440463 0.114682026 -0.037451476 0.11376421 0.14578539 0.053600855 -0.009443984
0.17435965 -0.057771396 -0.03904496 0.065760426 0.068378314 -0.072760776 -0.14346671 -0.09125497
0.0660132 -0.13349195 -0.08583666 0.020471558 0.08229198 0.07636622 -0.17226183 0.10617751
0.071307845 0.12288881 0.10299946 -0.13691455 0.063996665 -0.08863833 0.119578294 0.053772673
-0.06181065 0.010001629 -0.007295687 -0.056715835 -0.06773481 0.091021605 -0.01459506 -0.0757031
0.047150172 0.09924452 0.1461252 0.0335392 0.07392828 0.012904631 -0.020776376 0.11751766
0.13046435 -0.015277245 0.07155972 -0.1070392 -0.078647785 -0.1338344 0.005361136 -0.08153453
0.07707785 0.0535631 0.03211088 0.08954791 -0.07915476 -0.03982527 0.09321536 0.07137163

card_model.fc1.bias f4 [64]
00000000: eadd 20bd 648e c6bc d63c 79bd 9baf 60bd
00000010: 066b 82bd bf0f 91bd 0d72 57bd 51be bc3d
00000020: 96fc 6dbc 3bc9 5e3d 64b5 37bd ed89 503d
00000030: 0cdd d8bd aedb bdbb 9368 c43c f7cd 0f3d
00000040: ec38 323d 9d0a a2bd 6441 bc3b d64f a1bd
00000050: 6d94 28be b2ad 3bbe 4cfb 59be 2763 02be
00000060: b22f 50bd 5821 1fbd a94a 883d 013f f53c
00000070: 44b8 c6bd 22f1 57bd c686 2b3d 1b31 ccbd
00000080: e6c2 49bd 8f32 4b3d 26fa e6bd 2a23 ac3d
00000090: 3559 353b 1778 adbc a4e2 4a3d b602 18bd
000000a0: 19bf 2cbd bd41 0dbd 726f 27be 3f2f eebd
000000b0: 0bc1 543c 78a8 083c fb34 61bd 10a1 34bd
000000c0: 290c 0e3c 2cb4 ba3c 7b3f 8cbc 4586 31bc
000000d0: c442 943d 6869 bc3c c74d 4abd 67a4 173d
000000e0: 3c43 b2bd 0427 e9bc 2536 26be f093 723c
000000f0: 60f0 f4bd d1ca 8a3c 1c1d e73d 649a 11bd
-0.039274134 -0.024237819 -0.060849033 -0.05485497 -0.06368069 -0.070830815 -0.052599 0.092159875
-0.014525553 0.054391127 -0.044850722 0.050912786 -0.10589036 -0.00579401 0.023975646 0.035108533
0.043511316 -0.079121806 0.0057451 -0.078765556 -0.1646287 -0.18327978 -0.21287268 -0.12733136
-0.050826736 -0.03885016 0.06654865 0.02993727 -0.09703115 -0.052720197 0.041876577 -0.099703036
-0.049258135 0.049608763 -0.11278181 0.084051445 0.002767158 -0.021175427 0.049532548 -0.03711196
-0.042174432 -0.03448652 -0.16351107 -0.11630105 0.012985478 0.008340947 -0.054982167 -0.044098914
0.008669891 0.02279099 -0.017120114 -0.010835235 0.07239297 0.02299948 -0.04939058 0.03702202
-0.0870423 -0.028460987 -0.16231592 0.014805779 -0.119599104 0.016942414 0.11284849 -0.03554763

card_model.fc2.weight f4 [64, 64]
00000000: 5f5f c73d 3c3f aa3e fb33 a33d e1aa 1fbc
00000010: e4dc 9b3d f644 46bd eaa3 9abd 8057 57bd
00000020: 6f59 1d3b 68e4 ec3c 39b7 16be 3e9c 6c3e
00000030: 4866 053e 31b7 953d 2083 4a3d ae41 3f3e
00000040: 4a98 fa3c 2d24 91be 6883 803e 9800 5e39
00000050: e470 18be e34c a33e b685 113e 8851 bcbe
00000060: 9beb 8d3c 15a4 b63d 3571 cc3c 5cb7 283d
00000070: c2c3 5bbe 24e6 be3c 2278 d0bc fa8b 213d
00000080: a9fa 323d 8b30 94bc 0b29 4cbe 9698 183e
00000090: 5c34 813d b86b 1cbe 06bd a33c 9390 1d3e
000000a0: 1c25 d53c 7418 363d 113a 2f3d 877d 383d
000000b0: 33b0 b23c e6e1 773d 4e49 453d 8124 033e
000000c0: 5d9e 7b3b 2265 00be 4886 9f3c c295 5cbd
000000d0: 05a3 b83c 1ea2 a2bd 453b d9bd 2761 4c3c
000000e0: e378 313e 23be 0a3d 5099 aebe 3dab 803e
000000f0: e830 b7be b442 2c3d d479 31be cf8f 073b
00000100: f97e a23d 607a 813d 64b1 5f3e 14f1 053e
00000110: 64b7 58bc 31b5 883c 31bf 0ebe 10f5 a43d
00000120: 0caf 25bd 5b54 7a3d 1303 7c3d 8506 6b3d
00000130: 4c81 483e 67fd b9bc 0f8e 0e3e 629f a43c
00000140: 82e3 8abc 3ad0 9fbc 9137 93bd 62e8 fa3b
00000150: 16e4 45bd 9053 65bd e83f 3b3e 0624 3bbe
00000160: 2734 d43c b938 6e3e 8078 7b3d c4b2 33bb
00000170: 19ff c8bd 833b 5fbc 2b42 b33a 6be7 893e
00000180: ba5b 4fbd 1799 a7bc 2c44 2f3c 60ff b73c
00000190: 19fb dfbd dba9 823b 2106 c63d ed3d dfbd
000001a0: c790 813b c6ee 0f3e acb4 88be dc8e e6bc
000001b0: 7dbc b8bd eb20 b43e 0063 9e3d 0311 d23d
000001c0: 6fcf 603d 01b0 a1bd 310a 74ba c86a 67bc
000001d0: a3db 82bd aee3 543c 5b75 c63d cf44 133e
000001e0: 310a f03c 2e1a 2a3e efd3 3ebe 8bac 583e
000001f0: 6646 0ebe 34ca 75bd 39e5 e4bb 51ab ef3d
00000200: cbcf 833d 25fe 53bd bdb5 9f3d fb8a 903e
00000210: 4d37 203b 2939 813d e200 3ebd dbde 3b3d
00000220: 6b6a 6c3d b7ff 44bd 4b13 a43d 38b4 24bd
00000230: 870c 13bd fe20 febc 2c41 10be a2f3 bfbd
00000240: 9f6d d8bd 367a 8abc 7c5d 553e 6203 483e
00000250: 8829 dcbd b8d9 9e3e 4b46 763e 9e57 bf3e
00000260: 2fd4 a5bd 2d1b 92bd 75a0 fd3b 7506 393c
00000270: dca0 a3bb c815 b3bc 6be2 af3c 5a76 3c3e
00000280: 6d82 b0ba 30e5 abbc 7659 9d38 f57c 333d
00000290: 5006 ee3c 3476 933d 03b3 7a3d 4a69 333d
000002a0: fe17 c13c 0268 8bbb 8f75 cb3c b2cb a93e
000002b0: d44c 143e 9680 94be e366 d53b 8456 9d3c
000002c0: f700 a8bd 9817 26be 9daf b2ba d435 c8bd
000002d0: d1bb bfbb a739 ffbc b5a3 58be ea9f c53b
000002e0: dde6 723c 1f66 5ebe b987 41bd f2c4 1ebf
000002f0: 2543 3abe b8da c63d 35b1 813d c258 debc
00000300: f818 2f3d dc84 2d3c 5c05 13be a22f e53b
00000310: 3134 9bbd d633 88be 1d7b 133c 97d2 443e
00000320: dbac 1fbc d036 2f3d 8880 723d 4ab5 a93d
00000330: 03f9 533e 8e49 573d 66b7 97bd 269e 273c
00000340: 5028 8a3a 7ce8 57bc 1969 10be abdb a1bd
00000350: 502a dbbb 3bed 50be ba82 45bd bbf7 db3d
00000360: 3097 373c cd2c 81bc b7f9 163d 94af 58bb
00000370: d861 46be d48b fdbd b17f e8bc 5232 1bbe
00000380: 1f13 a7bb 5bd9 953d f65f 36be e033 a43d
00000390: b62e b03d 8350 84bf 08a3 4e3c 172b 4fbd
000003a0: e401 663d 48d8 c4bd 246d 8a3d 30f0 a23c
000003b0: 166f 883c 026a 7fbc 8feb e3bd 9df5 4ebd
000003c0: 221f 98be eac8 563c ef71 e3bd 3f15 193d
000003d0: 84a5 29be dbac 21bc 230f a33b ac6c e8bd
000003e0: 2612 db3c dc4d 25bd 988b 113d 18d3 8abd
000003f0: 1593 8c3b 535a 10bd fa39 063e a6c9 3d3c
0.097349875 0.3325137 0.07968899 -0.009745331 0.07610491 -0.04840561 -0.075507954 -0.05257368
0.0024009605 0.028917506 -0.14718331 0.23106477 0.13027298 0.073103316 0.049441457 0.18677399
0.030590195 -0.28347912 0.25100255 0.00021171791 -0.14886814 0.31894597 0.14211163 -0.36780953
0.01732426 0.08918015 0.024956325 0.04119049 -0.21461394 0.023303099 -0.025447909 0.039440133
0.04369608 -0.018089553 -0.19937532 0.14901957 0.06308815 -0.15275466 0.019987594 0.15387182
0.026018672 0.044456914 0.042779986 0.045041587 0.021812534 0.060518168 0.048165612 0.12806894
0.0038393952 -0.12538579 0.01947321 -0.053853758 0.022538671 -0.07941078 -0.10607008 0.012474335
0.17331271 0.033872735 -0.34101343 0.25130644 -0.357795 0.0420558 -0.1733163 0.0020685082
0.07934374 0.06322169 0.21845013 0.13080245 -0.0132273175 0.016687961 -0.13940121 0.080545545
-0.04045014 0.061115604 0.06152637 0.057379264 0.19580573 -0.02270384 0.13921379 0.02009553
-0.016954187 -0.01950847 -0.07188333 0.0076570967 -0.048313223 -0.055987895 0.18286097 -0.1827546
0.025903774 0.23263825 0.061394215 -0.0027419785 -0.09814281 -0.013625029 0.0013676336 0.2693437
-0.050624587 -0.020458741 0.010697406 0.02246064 -0.10936565 0.0039875335 0.09669138 -0.10900483
0.0039540264 0.14055929 -0.26700342 -0.028144293 -0.09020326 0.35181364 0.077337265 0.10257151
0.054885324 -0.07894898 -0.000930938 -0.01412458 -0.06389549 0.012993736 0.096903525 0.14381717
0.029301735 0.1661155 -0.18635534 0.2115957 -0.13894042 -0.06000729 -0.0069853333 0.11702598
0.06436118 -0.051756043 0.07798336 0.28231034 0.0024447024 0.063097306 -0.04638756 0.04586683
0.057718676 -0.04809543 0.08011492 -0.040210932 -0.03590062 -0.031021591 -0.14087361 -0.09372641
-0.105677836 -0.016903978 0.20836443 0.1953254 -0.10750109 0.3102548 0.24050252 0.37371534
-0.080971114 -0.071340896 0.0077400752 0.011293043 -0.004993541 -0.021860972 0.02147027 0.18404523
-0.0013466604 -0.020983309 7.503007e-05 0.04382034 0.029055744 0.0720028 0.061205875 0.043801583
0.02357101 -0.004254342 0.02483633 0.3316322 0.14482433 -0.29004353 0.006512509 0.019206293
-0.08203309 -0.16219938 -0.0013632659 -0.09775892 -0.005851247 -0.03115542 -0.211562 0.006031026
0.01482555 -0.21718644 -0.047248576 -0.62019265 -0.18189676 0.09709686 0.06332628 -0.027141932
0.04274842 0.010590758 -0.14357513 0.0069942037 -0.07578314 -0.26602048 0.00900152 0.19220959
-0.009745802 0.042776883 0.05920461 0.08286531 0.20700459 0.05256038 -0.07408027 0.010230577
0.0010540579 -0.013177987 -0.14102592 -0.079032265 -0.0066883937 -0.20402996 -0.048220374 0.1074061
0.0112054795 -0.015768433 0.03685924 -0.0033063637 -0.19373262 -0.12380186 -0.0283812 -0.15155914
-0.005098715 0.07316848 -0.17810044 0.08017707 0.086026594 -1.033707 0.012612112 -0.050578203
0.056154147 -0.09611565 0.06759098 0.019889921 0.016654532 -0.015589239 -0.111289136 -0.050527204
-0.29711252 0.013109425 -0.111057155 0.037373777 -0.16567045 -0.009867872 0.0049761697 -0.113488525
0.026742052 -0.040357456 0.035533518 -0.06778544 0.0042899945 -0.03524239 0.13108054 0.011583721

card_model.fc2.bias f4 [64]
00000000: afd7 863d ce2c 16bc 5e34 1b3e cdb3 403d
00000010: 4310 3ebe 2fc1 08be c910 36bb 1703 2ebe
00000020: dcd9 90bd 931f a6be 8549 18be 9dac c83c
00000030: 4a33 cd3d 8c66 673d cf61 05be 97bc 143d
00000040: 3502 1a3d 04ba 4fbd 0b4a 923c 513b a9bd
00000050: aa08 e2bb 80c2 02bd 9ab0 cebd d249 74be
00000060: 31c4 1f3e a889 52be 791c 663d b21a a6be
00000070: e5f5 a23e f25b 8fbd e2f1 d0bd 5d5c da3d
00000080: 1e4d 2f3d 2aad f7bd dcb8 2c3e bbf4 343e
00000090: e572 08be ef6f d33d 639a eb3d 14cd d93d
000000a0: aa0b 7b3d 031c 953c a071 a83d a63b 4bbe
000000b0: ae96 edbc e0fc 653a d2c5 8f3d 77c9 28bc
000000c0: 4b49 9a3d f07e 52be c3b6 df3c df79 0fbe
000000d0: 94f8 e93d 91c1 a33d 27b1 f83d 3bbf 633d
000000e0: 9f51 4e3c 3e06 fcbd be40 80bd 834e 4a3e
000000f0: d070 c93b b8eb f83d aff6 21be 250b dd3e
0.06584107 -0.009165956 0.15156695 0.04704647 -0.18560891 -0.13354944 -0.0027781 -0.16993366
-0.070728034 -0.32445964 -0.14871795 0.02449637 0.10019548 0.05649428 -0.13025592 0.036312666
0.03759976 -0.050714508 0.017857572 -0.08263267 -0.0068980055 -0.03192377 -0.10092278 -0.23856285
0.15602185 -0.20560324 0.056179497 -0.32442242 0.31828228 -0.06999959 -0.102023855 0.10662148
0.042798154 -0.12093575 0.16867393 0.17671482 -0.13325079 0.10324084 0.11504056 0.10634819
0.06129042 0.018201834 0.08224797 -0.19846973 -0.029002514 0.0008773338 0.07020153 -0.010301939
0.07533511 -0.20556235 0.027308827 -0.14011334 0.11424366 0.07995904 0.12143164 0.055602293
0.012592702 -0.12305878 -0.062623486 0.19756512 0.0061474815 0.12154335 -0.15816759 0.43172565

card_model.fc3.weight f4 [64, 64]
00000000: 269b 15bb fa5b f33c 0e86 08be c05f 833d
00000010: f65e 07be 929a 653a 70fd 323d ac65 58be
00000020: 553e 0bbd 76b3 a1bd e6b0 c43d c292 91be
00000030: 4de3 9f3d 8a94 703d 7dda bebd 54bb de3d
00000040: ab04 2a3e 08c1 19bd 63ca f1bc 05f8 ce3c
00000050: bb21 0639 ed45 133e fbb3 ce3d 361d cb3c
00000060: 9c3a 6bbb d9d6 273b 6862 4f3c a861 b6bd
00000070: 286d 40bd d584 a73e 2262 89be 51e8 40be
00000080: bf89 1bbe 3553 83bc c5b6 0f3d 1ca8 06bd
00000090: 42e9 aabd 6618 b23c 56c4 57be 87d2 90bd
000000a0: 7098 a53d e638 233c a070 8d3d 733f 11bd
000000b0: faac ed3c 6121 073e d24a 55bc 4d29 053c
000000c0: df2d c9bd e341 a73d da2e 28bd 600a 13be
000000d0: 5311 01be bd0e 683d 6547 3b3d 16c4 efbd
000000e0: 0a29 cb3c c120 02be b0ba 583c bf5b 913d
000000f0: 0cdb 1ebd d1e5 3d3c dc82 153d 0dd3 1cbd
00000100: b1c0 043e 7e5a 03be 91cb 8d3d 1787 863b
00000110: b15a 6abd 743a 14be f3f2 b43d 5b89 4fbd
00000120: b12a aebd 24ab eebd 47e7 febd 421f 213e
00000130: 5568 933d 1a7a 0abd e1ed aabc 10d9 20bd
00000140: 9d58 243d acf2 b0bd 7c69 dabd 5466 99bd
00000150: 285f 123e d4d4 70be 052f 84bd fd2c 1fbe
00000160: 4e93 c23c aac0 bcbd e7a7 91bd cc7f 78be
00000170: c65b 833d 7265 13be 5ea2 a8be 0018 9fbd
00000180: 0d06 27bb 6ca9 e23c d61a 533d 82a4 5d3d
00000190: f5d8 5a3c e5fc 2ebd 97de 013e 5546 2d3d
000001a0: 5a36 93bc d58a 7ebd b19b 9b3b fdea 123e
000001b0: 6fae 6bbd f9f3 523d 40e6 4bbd 0632 133e
000001c0: 9830 d1bd 8724 3abe a4fb 8ebd f502 b23e
000001d0: d2d2 ddbd 75d2 d33d 44e6 b63d e206 15be
000001e0: 69c9 c63d 88cd afbc 70a4 ee3c 3617 2f3d
000001f0: c0f9 51be 68eb f5bc 1b26 833c 5d7c ff3c
00000200: e189 9a3d 6964 223e 2de6 c43d a9ed d03d
00000210: dd39 033d c1dc 31bd 13d7 a6bc 4e36 2dbe
00000220: ec4a 18bc 6ff6 833d 4451 3d3e 2996 84bd
00000230: 1131 c9be 6557 3f3e 2494 dcbd a643 b53d
00000240: 4908 d63b 9345 59bc 80f8 463e 5479 7cbd
00000250: ad92 a0bd a870 9c3d 673b 8ebd b421 313d
00000260: c2ef 1e3d 87c0 7cbc 8e6a 113e 8aea 8bbe
00000270: efa5 d23d 2e1a 083e d520 0fbe aaf7 b13d
00000280: 8537 6e3b d93e 343e c3d3 6b3e eb66 38be
00000290: dc72 c9bd 3da6 77be cfd4 89be 4b35 19be
000002a0: fb2c c8bd c6c8 00be 5f73 18be 2c3e 103e
000002b0: 9756 1b3c a003 b43d f2a9 37bb ab83 a1bd
000002c0: 7516 0f3e 29b6 d4be 55f7 4bbd 93cc ccbe
000002d0: cc79 a7bd 519a 57bc c54a f5bc 3fd3 5b3a
000002e0: 27aa 693d c072 1ebe bc97 3c3b 7c6b 1dbe
000002f0: 2c84 403d 5ec1 29bd f72c a1bd ffdf d73d
00000300: fdef 95bd 6486 6dbd fc80 4fbe 27ad 233c
00000310: b57c b43c 4a3f 5ebd 2135 f33d 4061 883d
00000320: f02a c13d b0b8 1ebe 5d87 303e 284b 3bbc
00000330: e011 9a3c 6c21 b93c 1a7d 44bd 004a 3dbe
00000340: 82df 19be 69f6 afbd 6e4e fcbd 8a43 3c3e
00000350: 61c0 003e 2a93 b93e f434 afbc f484 e1bd
00000360: c874 f03b 2e98 4e3d cb14 1fbd 1a70 ffbb
00000370: 7b6b 1dbe 5d63 21bd 6fe0 ea3c 0ca8 883d
00000380: 2ed3 2ebd febf a0be c337 42bd 8e85 9e3d
00000390: a66b 4d3c fd6b 873c e640 0d3d 9b90 3c3c
000003a0: 2232 11be 6fa7 30bb d3b1 463d aeaf 76bb
000003b0: 65ac 23bd 618d 823e 766b f1bd 1963 0d3d
000003c0: efc3 163c c1b9 7d3e 0305 10be b938 113e
000003d0: 67dd 89bd 4dff 8b3a 4763 203d b447 56bd
000003e0: 8e9d 263d 719b 20bd 5446 47be 4b5d 453d
000003f0: 9ce8 db3d 1fd8 b4bd 8007 9c3e 5265 53be
-0.0022828071 0.029706944 -0.13332388 0.06414747 -0.13219818 0.00087586895 0.043698728 -0.21132535
-0.03399499 -0.078955576 0.09604053 -0.2843228 0.07807026 0.058735408 -0.09319017 0.10875574
0.16603343 -0.037537605 -0.02951545 0.02526475 0.00012791801 0.14382143 0.10092922 0.024794202
-0.0035893088 0.0025610237 0.012657739 -0.08905345 -0.0469791 0.3271853 -0.26832682 -0.18838622
-0.15189265 -0.016030887 0.035086412 -0.032875165 -0.08345272 0.02174015 -0.2107099 -0.07071405
0.08085716 0.009962296 0.06906247 -0.0354609 0.029013146 0.13196327 -0.013018327 0.008127523
-0.09823202 0.08166864 -0.041060306 -0.14359426 -0.12604265 0.05665468 0.045722384 -0.11707322
0.024799842 -0.12707807 0.0132281035 0.07097577 -0.038783118 0.011590437 0.03650175 -0.03828721
0.12964131 -0.12827489 0.06923593 0.0041054594 -0.057215396 -0.14475423 0.088354014 -0.0506681
-0.085042365 -0.11653736 -0.124464564 0.1573458 0.07197634 -0.03380785 -0.020865383 -0.039269507
0.04012357 -0.08640036 -0.10664651 -0.07490221 0.14294112 -0.23518687 -0.06454281 -0.15544505
0.023751881 -0.09216435 -0.07112103 -0.242675 0.06413989 -0.14394167 -0.32936376 -0.077682495
-0.0025485784 0.027668677 0.051539265 0.054111965 0.013357391 -0.042721648 0.12682568 0.042303402
-0.017970253 -0.06214412 0.0047487845 0.14347453 -0.0575394 0.0515022 -0.04978013 0.14374551
-0.10214347 -0.18177997 -0.069815904 0.3476788 -0.108312264 0.10342876 0.089306384 -0.14553407
0.09706385 -0.02146031 0.029131144 0.042746745 -0.20505428 -0.030019477 0.016009381 0.03118723
0.075458296 0.15858616 0.09614215 0.1020158 0.032037605 -0.043423418 -0.020366227 -0.16915247
-0.0092952065 0.06443488 0.18488032 -0.06473953 -0.39295247 0.18685682 -0.10770443 0.088507935
0.0065317494 -0.013261217 0.19430733 -0.061639145 -0.07840476 0.07638675 -0.06944924 0.043245032
0.03880287 -0.0154267615 0.14200804 -0.27327377 0.102855556 0.13291237 -0.13977368 0.08689816
0.003634901 0.176021 0.2303 -0.1800801 -0.09836361 -0.24184509 -0.26920173 -0.14961736
-0.09774204 -0.12576589 -0.1488776 0.14086217 0.009481094 0.08789754 -0.002802488 -0.07886442
0.1397341 -0.41545227 -0.04979642 -0.39999828 -0.08177528 -0.0131593505 -0.02994288 0.0008385665
0.057047036 -0.15473461 0.0028776964 -0.15373033 0.04700105 -0.041444175 -0.078699045 0.10540771
-0.07321165 -0.057989493 -0.20264047 0.009990013 0.022032121 -0.054259576 0.11875368 0.06659174
0.09432018 -0.1550014 0.17239137 -0.011431493 0.018807352 0.022598945 -0.04797087 -0.1848526
-0.15026668 -0.08591921 -0.12319647 0.18385139 0.12573387 0.3624509 -0.021387555 -0.11011687
0.00733814 0.0504381 -0.03883819 -0.007795346 -0.15373032 -0.0394014 0.028671471 0.066726774
-0.042681865 -0.31396478 -0.04741646 0.07740317 0.012537872 0.016530985 0.03448572 0.011509086
-0.1417928 -0.0026955267 0.04850943 -0.0037641334 -0.03995933 0.2549849 -0.11788075 0.034518335
0.009201988 0.2477789 -0.14064412 0.14181794 -0.06731682 0.0010680944 0.03915718 -0.052314475
0.0406776 -0.03921074 -0.19460422 0.048184674 0.10737726 -0.08830284 0.30474472 -0.2064412

card_model.fc3.bias f4 [64]
00000000: af66 16be c533 a83e e5f0 fdbd daed 96bb
00000010: 957a 7c3a a78e 5dbd 5c4e 0fbd 3bf6 01bd
00000020: 2ac1 043d 426b 343e 0be2 da3c 5666 02be
00000030: 9cd3 2c3e bb2c a7bd 6a98 f73d 32d2 80be
00000040: 3e92 043d e249 b0be ee5c 573e b5a5 7f3d
00000050: 6b69 70be 2481 aabd b5fc 4dbe e887 743a
00000060: f985 2b3e 59b2 2b3e 526b 68be a133 d53c
00000070: 247f 55be a535 67bc f868 dd3c 9af0 fcbd
00000080: 0364 5b3e 83f0 ae3e 0d9a 0ebe bcee 42bd
00000090: 7072 a7be 9ced d2bd ca54 efbd 0cd2 3d3b
000000a0: 6742 1ebe f343 063e ad64 1a3b f1e3 f23b
000000b0: 651a 953d 8f87 a6be 471a 4ebc 95a9 063e
000000c0: b341 153e fc7d 2e3e e2f7 453e 0633 4bbd
000000d0: 9b21 ae3d de22 b93d beb1 dbbd 2f95 a83d
000000e0: 67d0 8f3d a5ae b13d b8bb 1abe 4972 b0be
000000f0: a8ce 56be 16e8 f23e fc42 4cbd cbdd e8bd
-0.14687608 0.32851997 -0.123994626 -0.004605991 0.0009631303 -0.054091122 -0.03498684 -0.031728964
0.032410778 0.1761904 0.026719114 -0.1273435 0.16877598 -0.081628285 0.120896176 -0.25160366
0.03236603 -0.34431368 0.21031544 0.06241389 -0.23477714 -0.08325413 -0.20115931 0.0009328113
0.16750325 0.16767253 -0.2269719 0.026025595 -0.20849282 -0.014111911 0.027027592 -0.123505786
0.2142487 0.3416787 -0.13925953 -0.047590956 -0.32704496 -0.10299227 -0.11686094 0.002896431
-0.15455018 0.13111858 0.0023558543 0.0074124266 0.07280425 -0.32525298 -0.012579507 0.13150628
0.14575844 0.17040247 0.19332841 -0.049609207 0.085025035 0.090398535 -0.10727261 0.082315795
0.070221715 0.08675889 -0.15110672 -0.34462193 -0.2097727 0.47442693 -0.04986857 -0.11370429

stage_and_order_model.stage_embedding.weight f4 [4, 64]
00000000: 9f36 853f ed9e 373f be36 edb8 8593 10bf
00000010: 2579 8c3f 2654 16bf bb94 24bf d2ee 0dc0
00000020: b57f a73f 23e4 14be d9d3 febe f23b 033e
00000030: 264b 0a3f 4d28 10bf b3ff 853f eb7b f2be
00000040: 7e56 a8bf d74c 2dbf 4fd2 ac3f 5817 0cc0
00000050: 5c1a 903e 6423 ccbe 61de 543f 7469 903e
00000060: eb4a d33f aa73 413f 4aea 28c0 f60a cc3e
00000070: 5ecc 663f 8660 98bf 3817 58bf 7228 983e
00000080: 8206 cbbe 3db1 2e40 b9bb 923d b09f 72bf
00000090: 002f 4bbf 5a0f 16bb b633 d4be 10ee 9dbf
000000a0: c38b 12bf afcb 30bf e210 ff3e 72ee 9ebf
000000b0: 4356 753e 76fc c4be a9a5 1cbe 1a53 2040
000000c0: c5a0 28bd 1934 5bbf 07ce 65bf 03e7 4b3f
000000d0: 09ff debf b585 c43e c596 c2bd 492c 97bf
000000e0: ce00 d4bf d4d5 91bf 71d8 77bf 8485 6fbf
000000f0: dec6 cc3f 227a 993e 39dd 52be 0999 803f
00000100: 2fd3 a33d 9e25 4bbf eb0a 0cbf b65c 013e
00000110: 4c72 e1bd a18a 4b3f 0804 a8bf adfb 1740
00000120: 68ef 2cbf dd7b d9be 84f7 d6bf 6242 333e
00000130: 8165 ea3f bab6 863d e76d 98be cd46 bc3a
00000140: 51c8 383f fd59 9b3f fa28 413f 9201 503f
00000150: 162d 3c3f 3aba a7be f07c fb3e a9ee ba3f
00000160: f8fa c23e c6f3 f6bd 90e1 b33e 651e de3f
00000170: af35 9ebd 0141 e93f c1fa 8cbf 6a42 d0be
00000180: af20 f1be 5794 383d c5f5 cb3f 3f9f 7d3e
00000190: e379 eb3e b55a 9d3f 6044 05bc ff65 6e3f
000001a0: f5ab 74bf befa d73f 84cd ac3f 6ed3 c4bf
000001b0: d642 46bf 47e8 efbe ee98 0e3d c5d1 b7bd
000001c0: 0423 923f dd67 eebe 74a3 2d3e bd23 993e
000001d0: 368b 5a3f 22df 123e 8b0b e83d 53c1 f7b9
000001e0: e636 943e 3374 bf3f e8e6 393c 0967 34bb
000001f0: fb1d d63d d062 8f3e ca98 083f 59d5 943e
00000200: 6776 1abe 7d7c ca3f 9701 23bf 4d23 60bf
00000210: 55a0 26be b88b 043e 1208 183f bd0a fabe
00000220: 5fac 36bf 0bef 2cbf 8d4b abbf 76fb 8c3f
00000230: 07ab 0f3f 9dfc babe fac0 07c0 fd24 0240
00000240: 082e 1dbf 10ac 11be b32c 873f f6a8 b7bb
00000250: 31bd e33f c7a2 5a3e 4acc 0a3d 42a7 0fbf
00000260: 2f38 1a3f 65f1 69be 997d e3bf 7788 353f
00000270: 6796 233f c35b 363e 64f2 833f eea4 ecbd
00000280: 590f 36bf 44d8 66be 354f 34bf a9a7 21bf
00000290: 8b39 9cbd 33fa b73f bf42 723f df34 1d3f
000002a0: 9c94 683e 5ff0 b93f 2d5b 623f c5d7 c43e
000002b0: 3544 f9bf 42bc 0bbf 578a 83be 7113 a9be
000002c0: f995 303f 6108 0cbf 3227 603f 5eaf 67bf
000002d0: 7568 323f 240b b9bf 5fba 8f3f 91cd 19bf
000002e0: 9cee 9a3e b360 393f c1e6 ddbe 5c36 3fba
000002f0: 176a 9ebf 6681 fbbd 92f7 443f 01b6 84bd
00000300: 94f9 9dbe 1599 893f 26ce 4e3e d461 c4bf
00000310: db02 823f 98d9 1f3f d017 97bd fef3 c4be
00000320: 55e8 8d3e d544 3e3f 1abb 763f 1cbc ae3e
00000330: b677 b7bf 4846 123f e635 e6be 69cd 9fbd
00000340: 0aa9 6abe 0d15 2e3f 5aa2 b2bf 6813 bd3e
00000350: c810 2cc0 deca 91bd 8cb9 9d3e 42b7 2fbf
00000360: 98bc e23d d49a 893e 0d00 6dbf 3e09 32bf
00000370: 32f6 07bf 8d6c 1ebf 372a 92bf a8f7 8f3e
00000380: 0ce6 61bf 9796 24c0 2153 163e ae65 c63d
00000390: 1ff7 03c0 63d1 4c3f 374e a13d 07a1 943f
000003a0: 4314 bb3e e55f 403e d043 cf3e a7a3 9cbf
000003b0: cab2 36bf a2d1 ad3f 2130 92bf c19b 83be
000003c0: 36c8 2cc0 5faa 483e 7ee0 193f 79b1 713f
000003d0: 8d63 89be 596b 583e bf3a 4e3f d5d5 733f
000003e0: d4e4 973f e2e4 05bf abef c5be f8ac 363f
000003f0: 6d9a 263f 30f5 6b3f 9e50 00bf ecdd b53e
1.0407294 0.71726876 -0.00011311237 -0.56475097 1.097447 -0.5872215 -0.64289445 -2.2177014
1.3085848 -0.14540152 -0.49771002 0.12815836 0.5402092 -0.56311494 1.0468658 -0.47360167
-1.3151395 -0.67695373 1.3501681 -2.1889248 0.2814511 -0.3987075 0.83151823 0.28205454
1.6507238 0.75567114 -2.6392999 0.39852113 0.9015559 -1.1904457 -0.8441043 0.29718357
-0.39653403 2.7295678 0.071647115 -0.94774914 -0.7936859 -0.0022897334 -0.41445702 -1.2338276
-0.5724451 -0.69060796 0.49817568 -1.2416518 0.23958687 -0.38473862 -0.1529757 2.505072
-0.041168947 -0.8562637 -0.897675 0.7964937 -1.742158 0.3838326 -0.09501413 -1.181039
-1.6562746 -1.139338 -0.9681464 -0.93563104 1.599819 0.29975992 -0.20592202 1.0046703
0.079992644 -0.79354274 -0.5470416 0.12633023 -0.110081285 0.79508406 -1.312623 2.374736
-0.67552805 -0.42477313 -1.6794286 0.17505792 1.8312227 0.06577821 -0.2977135 0.0014364362
0.7218066 1.2136837 0.7545315 0.81252396 0.73506296 -0.32759267 0.49118757 1.4604083
0.380821 -0.12058215 0.35133028 1.7353026 -0.07725083 1.8222963 -1.1014024 -0.4067567
-0.47095248 0.045063343 1.5934378 0.24767779 0.4599143 1.2293307 -0.008133978 0.93124384
-0.95574886 1.6873395 1.3500218 -1.5377023 -0.77445734 -0.468569 0.034813814 -0.08975557
1.1416936 -0.46563616 0.16956884 0.2991008 0.8536867 0.14342931 0.11330327 -0.0004725555
0.28948134 1.4957336 0.011346556 -0.0027527234 0.10454937 0.28005075 0.5335814 0.2906902
-0.1508423 1.5819241 -0.636743 -0.87553865 -0.162721 0.12943923 0.59387314 -0.48836318
-0.7135677 -0.6755225 -1.3382431 1.101424 0.5612034 -0.36520854 -2.1211534 2.0335076
-0.61398363 -0.14225793 1.0560516 -0.0056048585 1.7792112 0.21351157 0.03388623 -0.5611459
0.6024198 -0.22845991 -1.7772704 0.70911354 0.6390137 0.17808442 1.0308347 -0.11554895
-0.7111717 -0.22543436 -0.7043336 -0.63146454 -0.07628163 1.437323 0.94633096 0.614088
0.2271294 1.452648 0.88420373 0.3844587 -1.947394 -0.54584134 -0.25691482 -0.33022645
0.6897884 -0.54700285 0.8755981 -0.90501964 0.6969064 -1.4456525 1.1228751 -0.60079294
0.3026017 0.72413176 -0.43340114 -0.0007294172 -1.2376126 -0.1228054 0.7694026 -0.06480027
-0.30854475 1.0749842 0.20195827 -1.5342355 1.0157121 0.62441397 -0.07377589 -0.384674
0.27716318 0.7432378 0.96379244 0.3412789 -1.4333408 0.5713849 -0.44962996 -0.07802851
-0.22916046 0.6800087 -1.3955796 0.36928868 -2.6885242 -0.07118772 0.30805624 -0.68639004
0.11071128 0.26875937 -0.925782 -0.6954535 -0.5311004 -0.61884385 -1.1419133 0.28118634
-0.8824165 -2.5716913 0.14680149 0.096873626 -2.061958 0.80007 0.078762464 1.1611642
0.36538896 0.18786581 0.40481424 -1.2237443 -0.7136656 1.35796 -1.1420938 -0.25704768
-2.69972 0.19596241 0.6010817 0.94411427 -0.26833764 0.211347 0.8055839 0.95248157
1.1866708 -0.5230237 -0.38659415 0.7135768 0.65079385 0.92171 -0.5012301 0.35520875
