notebooks/cartpole.onnx (onnx, 66760 bytes, 11 tensors)

model._model.a2c_network.actor_mlp.0.bias f4 [32]
000000 c5 d7 c3 3d 25 d1 ff 3d 1b 48 08 3e 71 47 74 3e
       0.09562639 0.12491063 0.13308756 0.23855378
000010 08 85 c9 3d 54 b7 26 3e ef 8e 58 3e 95 ea 0d 3e
       0.09839827 0.16280872 0.21148275 0.13859017
000020 50 fc f7 bd c7 1b 10 3e 5e 7b 24 3e f4 35 33 bc
       -0.12108672 0.14073096 0.16062686 -0.010938156
000030 67 ac dc 3d f4 6a 20 3e d9 cd 00 3d c2 65 1d 3e
       0.10775071 0.156658 0.03144631 0.15370849
000040 6c e1 72 3e 33 e8 c8 3c 0a 97 64 3e 93 c4 3d 3d
       0.23718804 0.024524784 0.22323242 0.046330046
000050 fa 74 0d 3e 3b 0f a0 3d d4 06 c7 3d cd fd 99 3b
       0.13814154 0.07815405 0.09718099 0.004699445
000060 cf 94 29 3e d8 53 5c 3e 1e dc 8d 3d ce f9 8a 3e
       0.16560672 0.21516359 0.0692675 0.2714371
000070 18 d7 29 3e 76 7e 93 3d ae f7 be 3d c6 8c ef 3d
       0.16585958 0.07201855 0.09324585 0.11696772

model._model.a2c_network.actor_mlp.0.weight f4 [32, 4]
000000 69 9a 32 be 03 3d 01 bf ed 66 6b be e8 3e 6a be
       -0.17441715 -0.5048372 -0.22988482 -0.2287556
000010 49 9c 3b 3c 6d ff 46 3e 5a 12 32 bf b2 a2 3a be
       0.0114508355 0.19433375 -0.6955925 -0.18226126
000020 61 5b 41 3e 42 1e d6 3e 17 33 3f bf 97 dc f4 be
       0.18882515 0.4181996 -0.7468733 -0.47824547
000030 f0 2f b1 3d ad 2e 98 be e5 38 f4 be 50 01 29 3d
       0.086517215 -0.2972311 -0.47699657 0.041261017
000040 e0 c3 c3 3d ac df a6 3e 28 cd c2 bd 0a 6a b3 3e
       0.095588446 0.32592523 -0.09511787 0.3504184
000050 2d 68 4b be 69 62 3a be 81 19 59 bf c0 8e f9 be
       -0.19863959 -0.18201603 -0.8480454 -0.48741722
000060 cf 11 4f be 50 81 1f bf b1 c2 15 bf 61 46 ca 3e
       -0.20221637 -0.6230669 -0.585002 0.3950682
000070 16 40 ab bc 13 d3 fc bd 17 91 55 3f 6b 90 2e 3f
       -0.020904582 -0.12344947 0.83424515 0.68189114
000080 18 1e 01 3f 82 ef d7 bd 21 00 d8 3e ec 69 98 3d
       0.50436544 -0.10543729 0.42187598 0.07442078
000090 99 b6 70 3e 3c 22 de be c8 e4 ac bd 47 ed 12 bf
       0.23507155 -0.43385494 -0.08442074 -0.57393306
0000a0 2f df 44 be 9b e0 a9 be e8 ff dc 3e b2 fe c0 3e
       -0.19225763 -0.33179173 0.4316399 0.37694317
0000b0 64 c1 4c be 89 9d dc 3e c7 0e 20 3f 4d 3a 24 be
       -0.19995648 0.4308894 0.6252255 -0.16037865
0000c0 b7 f1 79 3e bf af d5 bd 3e ca 0c be a2 83 03 bf
       0.24408613 -0.104339115 -0.13749024 -0.5137273
0000d0 3c 5f 41 bd 69 fc 81 3e a8 38 39 3f f3 7d cc 3e
       -0.047209963 0.25387886 0.72352076 0.39939842
0000e0 1d 7f bf be 63 ce 1f 3f e8 6c 28 3f 16 1c 0b 3d
       -0.37401667 0.62424296 0.6579118 0.03396233
0000f0 d3 df f3 3b 1b 53 a6 3d e9 34 25 3f 46 86 a9 3e
       0.0074424534 0.0812132 0.6453386 0.33110255
000100 55 11 e6 3e 80 c4 14 3f 1e de 36 3f 34 b2 ed 3d
       0.44935098 0.58112335 0.71432674 0.11606255
000110 e5 75 da 3e 1b ae 1b 3e 2e 94 2a bf 9b a4 aa 3d
       0.4266807 0.15203135 -0.66632354 0.08332177
000120 ba 95 b1 3e a0 9d eb 3d b3 54 f9 3e 3b 79 0f 3f
       0.34684545 0.11504674 0.48697433 0.5604436
000130 97 92 81 bd b6 96 c0 be 57 14 17 3f 7f b8 32 3f
       -0.06326788 -0.37614983 0.5901541 0.6981277
000140 09 76 74 be 8b d2 12 bf 2d d1 33 bf 25 37 1b bf
       -0.23873152 -0.57352513 -0.7024105 -0.6063102
000150 62 56 05 bf 8e d7 e6 be 26 6e 3b be 8c db 6b be
       -0.52084935 -0.4508633 -0.18303737 -0.23032969
000160 af b8 5f 3e e3 90 83 be 72 a2 86 3e a3 c7 23 3f
       0.21847795 -0.25696477 0.2629581 0.63976496
000170 b7 e2 bb be 15 df 3a be 18 55 4f 3f 71 74 36 3d
       -0.36696407 -0.18249162 0.8098922 0.04454464
000180 e7 89 75 3e c2 f1 22 3f b6 92 ee 3e f7 38 de 3b
       0.23978387 0.63650143 0.46596307 0.006781693
000190 94 b3 a3 3e 9f 52 38 3e 97 9b 45 3f 27 17 c8 3e
       0.31972945 0.18000267 0.77190536 0.39080164
0001a0 41 25 e5 bd 9f 26 4b be d8 c3 39 bf 3a 76 90 be
       -0.11188746 -0.19838952 -0.7256446 -0.282152
0001b0 08 8d d1 be a7 cd 21 bd dd 04 07 3f d3 cb 3d be
       -0.4092791 -0.039502766 0.52741796 -0.18534784
0001c0 71 ab c3 3e b1 31 0d be d9 a0 bf 3e 2d e0 b8 3e
       0.38216737 -0.13788487 0.37427405 0.36108533
0001d0 5e f6 78 be 87 86 c1 be a8 e1 43 bd 95 d3 6b 3c
       -0.24312732 -0.3779795 -0.047822624 0.014393707
0001e0 fd cf c4 be 3e be a1 be 90 e9 71 3f d6 04 b7 3e
       -0.38439932 -0.31590456 0.94497013 0.35745877
0001f0 5e 4c 85 be 56 80 24 3e 4a e4 9e 3e 07 3b 9f 3e
       -0.26034826 0.16064581 0.31033546 0.31099722

model._model.a2c_network.actor_mlp.2.bias f4 [32]
000000 33 83 f3 3d 77 f0 12 bd b3 cb 95 3d 98 71 96 bd
       0.11890259 -0.035873856 0.07314243 -0.07345885
000010 94 c7 f5 3d 1f 71 ab 3d 7f 02 83 3d e6 9c 30 3d
       0.12000957 0.083711855 0.063969605 0.04311838
000020 a4 31 be 3d 17 4f bd 3d 14 ed 13 3c 45 03 fd 3d
       0.09286812 0.09243601 0.009028692 0.12354139
000030 23 49 e9 3d 3d a0 e1 3d 17 8e 38 3d 09 0d b0 3d
       0.11390903 0.11016891 0.045057382 0.08596236
000040 c7 82 ed 3c 01 a7 f5 3d 90 ca c2 3d d8 46 1e 3e
       0.028993024 0.11994744 0.09511292 0.15456712
000050 ef 50 d8 3d 10 15 b4 3d 79 64 00 3e 38 8b b4 3d
       0.10562312 0.0879308 0.12538327 0.08815616
000060 6f e9 d7 3c 17 c9 85 3d 14 8f 55 bd 3e 44 ee 3d
       0.026356427 0.065324955 -0.052138403 0.1163411
000070 14 8f bb 3d a8 02 2e b9 36 e8 cf 3d ac 06 fc 3d
       0.09158149 -0.00016594923 0.101517126 0.1230596

model._model.a2c_network.actor_mlp.2.weight f4 [32, 32]
000000 0a d1 8d bd 49 d4 aa bd ca b4 88 bd 22 9c da 3d
       -0.06924637 -0.083412714 -0.06675108 0.10674311
000010 4b a1 41 bd 8c 7c 6f bd 47 bf 9c 3d be 4b 88 3e
       -0.04727296 -0.058468387 0.07653671 0.26620287
000020 cc 90 36 bd 97 9a 94 be 0a f8 4e 3e 1c b5 9e 3e
       -0.044571683 -0.29024193 0.20211807 0.3099755
000030 39 bf 8a bd 2f 59 07 3e 3f ca 90 3e 75 e3 8f 3e
       -0.06774754 0.13217615 0.28279302 0.28103223
000040 4d ee 06 3e 8b 7d df 3d e0 8c 97 3e 96 f1 2d bd
       0.13176842 0.10912617 0.29599667 -0.042466722
000050 d5 86 84 be e8 8f 76 bd 69 0c 94 3e d4 bf b6 bd
       -0.2588412 -0.060195833 0.28915718 -0.08923307
000060 47 9e 9e 3d a5 8b 3e 3d 5c cc c5 be 8a 60 81 3d
       0.07745033 0.046519894 -0.38632476 0.063172415
000070 5a 44 66 3e f2 41 f3 3d 33 bf 63 3e 4f 56 59 3e
       0.22487012 0.118778124 0.22240905 0.2122433
000080 68 2a c9 3d a3 45 06 be 06 a3 a7 bd d1 db 26 bd
       0.098225415 -0.13112502 -0.08185391 -0.040736977
000090 98 3b c2 bd 0f e5 0c be d8 3d 44 be 7c 78 4a bc
       -0.09484023 -0.13759254 -0.19164217 -0.012357827
0000a0 27 eb ac bd 55 ae 02 bd e3 fe fa 3d b8 1c c3 3d
       -0.08443289 -0.031904537 0.12255647 0.09526962
0000b0 89 ec 99 3d 67 6b 0c 3e 8d 88 d2 bc 6f ca 17 3d
       0.075158186 0.13712846 -0.025699878 0.03705829
0000c0 b2 7f 2c be 41 09 23 bc 1b 30 89 bd c3 4b 06 be
       -0.16845587 -0.009950937 -0.066986285 -0.13114838
0000d0 a2 3e 66 be e2 ce c2 bd c8 9b c2 bd f2 50 2a 3c
       -0.2248483 -0.09512116 -0.09502369 0.010395275
0000e0 b7 03 11 3d 2e 07 a5 bd b5 06 77 bd 3c 4a c3 3d
       0.035403933 -0.0805801 -0.06030913 0.095356435
0000f0 0d 2a 31 bb c5 8c ed 3d 07 65 f8 bc 48 06 90 bd
       -0.002703312 0.11599115 -0.030321611 -0.07032448
000100 76 14 24 3e cd d6 04 3d df e5 c8 bc 12 54 57 3e
       0.1602343 0.032431412 -0.024523674 0.21028164
000110 56 05 06 bc 8f 61 be 3e b8 bf 2d 3e 08 82 18 be
       -0.008179983 0.37183806 0.16967666 -0.14893353
000120 31 4a 89 bb 67 a6 9e 3e 6a ea 11 3e 31 db 22 be
       -0.0041897525 0.3098633 0.14249578 -0.15903927
000130 33 ac c3 3d 68 05 de bd 20 21 af bd a6 76 82 be
       0.09554329 -0.10840875 -0.0855124 -0.25481147
000140 e3 af 02 be 1d 98 7a 3d 4b 4e 6a be 55 c1 25 3d
       -0.12762408 0.061180223 -0.22881429 0.04046758
000150 48 0d 0c 3e 64 0f 72 3d 71 76 68 be e4 8c 0b 3b
       0.13676941 0.05909671 -0.22701432 0.0021293694
000160 96 42 8f bd 7b f5 63 be a2 4d b3 3e cf f1 1d 3e
       -0.06995122 -0.22261612 0.35020167 0.15424274
000170 50 7f e7 bc 6c b0 b2 bb 71 81 e6 bd 54 37 11 3e
       -0.02825895 -0.00545316 -0.11255158 0.14181262
000180 34 03 ec bd 7e c9 54 be 23 a3 8b 3d 0e 68 84 bd
       -0.115240484 -0.20779988 0.06818225 -0.06465159
000190 0d 10 c6 3b 9e fe df 3d 30 81 e9 bd 9d 55 cd bd
       0.006044394 0.10937236 -0.11401594 -0.10026095
0001a0 1b f7 1f be cf a1 87 3d 75 cc 06 3d d6 f9 ce bc
       -0.15621607 0.066226594 0.03290983 -0.025265615
0001b0 26 d9 9a 3d 6c ee 11 3e e2 93 90 3d df 6e 38 be
       0.07560949 0.14251107 0.070594564 -0.18011044
0001c0 0f 10 c6 3b 37 0e 03 be 3a 28 88 3d 82 df d6 bd
       0.006044395 -0.12798391 0.066482976 -0.104918495
0001d0 b5 5c 99 3d e6 4a be bb 99 82 9a 3d 18 23 10 be
       0.074883856 -0.0058072684 0.07544441 -0.14075887
0001e0 aa 9f aa bd ee 9f 00 be 27 ed c7 bd 14 2f 0f bd
       -0.08331235 -0.12561008 -0.0976203 -0.034957007
0001f0 fa 65 12 3d bd 78 36 be 40 9b 0a bd a5 3d 2b be
       0.035741784 -0.17819495 -0.033839464 -0.16722734
000200 90 ae 7c 3e 8b ec ef 3d a0 5f af 3d 77 b3 73 3e
       0.24675965 0.11715039 0.08563161 0.23798929
000210 67 46 7a bd 50 34 a2 3e a0 3f fa 3b 61 20 46 be
       -0.061102297 0.31680536 0.007636979 -0.19348289
000220 33 41 05 3e 15 e5 19 3e 38 f7 10 3e 8d f8 91 be
       0.13013153 0.15028794 0.14156806 -0.28509942
000230 ff 29 69 3e 97 6e 47 be 1e 60 8c be 2c 9d 53 be
       0.22769926 -0.1947578 -0.27417082 -0.20665425
000240 1a ce fd 3d f6 77 aa 3c 59 fd fc bd 98 41 2c bd
       0.123928264 0.020809155 -0.1235301 -0.042054743
000250 5a ce d5 3d b8 af 58 3e e1 65 15 be fb 1c 98 3d
       0.10439749 0.21160781 -0.14589645 0.074274026
000260 4c a9 ed bd 9a 13 77 bd cc 44 66 3e 13 6a 7f bd
       -0.116045564 -0.060321428 0.22487181 -0.06235702
000270 6b b6 8d bd a0 55 87 3e 10 27 de bd 4a 9e f1 3c
       -0.06919559 0.26432514 -0.10847294 0.029494423
000280 0b 14 e8 3c ae 37 bc 3d 91 88 b7 3b 34 47 32 3e
       0.02832987 0.091903076 0.005600997 0.17409974
000290 04 01 b5 bc 6e a7 df bd 03 b1 5a 3d ec 73 f0 3d
       -0.02209521 -0.109206066 0.053391468 0.1174086
0002a0 3f 21 dc 3d ed 5a 2a be 20 a4 21 3e 9a c3 c8 3d
       0.10748529 -0.16636248 0.15785265 0.09802933
0002b0 8e b8 46 be c2 ed 77 3e 19 64 d1 3e 30 4f 82 3e
       -0.1940634 0.24211791 0.4089668 0.2545104
0002c0 c2 99 31 3d 74 15 ab 3d 62 13 a8 3e 4a 76 52 3e
       0.043359526 0.08353701 0.32827288 0.20552936
0002d0 6c ec 81 be 22 c1 c6 bd 40 82 0c 3e f3 ec c0 bd
       -0.25375688 -0.09704806 0.13721561 -0.094201945
0002e0 21 1a 86 3d 5d 65 ad 3d 4b 0a 65 be 95 e7 e9 3c
       0.065479524 0.08466599 -0.22367208 0.02855281
0002f0 7a 00 74 3e 2c a1 41 3e 0c 69 22 3e b2 59 8e 3e
       0.23828307 0.18909138 0.15860385 0.27802807
000300 ee 62 37 3e fe a2 53 3e 22 a9 6e 3e 31 e8 18 3e
       0.17908832 0.20667645 0.23306707 0.14932324
000310 9a c2 f9 bb 7c b2 4c 3e e9 37 39 3e d1 b8 21 bc
       -0.0076220753 0.19989961 0.18087734 -0.009870724
000320 c7 79 69 3e 22 10 ce 3d 04 f3 fc 3c ee b9 62 be
       0.2280036 0.10061671 0.030877598 -0.22141239
000330 ec c5 2c 3e 96 ce 79 be 20 20 fb bd 02 6e 31 3d
       0.16872376 -0.24395213 -0.12261987 0.043317802
000340 57 f0 10 3c 5d df 6f 3e 07 81 15 be 99 d9 eb bd
       0.008846364 0.2342505 -0.14600001 -0.11516113
000350 0e 40 df 3d 46 c1 18 3d d3 1e 8b 3c bc 81 ec 3c
       0.10900889 0.037293695 0.016982472 0.028870456
000360 34 4a 34 be 69 b5 89 be fe 47 15 3e 58 2e 4d 3e
       -0.17606431 -0.26896217 0.14578244 0.2003721
000370 cd c1 56 bd 65 5a f2 bd bf ca e4 bd 1a 77 25 bc
       -0.052430917 -0.11833648 -0.11171483 -0.010099197
000380 5d 78 49 3e 59 5b 94 3e 6b ba 3d 3b 26 d4 0b 3e
       0.19674821 0.28975943 0.0028950225 0.13655147
000390 ae 12 0a be f7 76 a0 3e f0 de 16 3e 24 0e ed bd
       -0.13483688 0.31340763 0.14733481 -0.11574963
0003a0 01 04 66 bd 76 5f 8f 3e c8 11 17 3e d3 f0 69 be
       -0.056156162 0.28002518 0.14752877 -0.22845773
0003b0 7b 48 d8 3d c5 37 4f be c4 c0 36 bd 8b d2 33 3c
       0.105606996 -0.20236118 -0.04461743 0.01097549
0003c0 2d 25 76 bd d6 0e 39 3e 70 21 33 3d d6 61 37 be
       -0.060094047 0.18072066 0.04373306 -0.17908415
0003d0 a1 f4 bc 3e 56 c5 20 3a b2 22 a7 3d 58 32 7f bd
       0.36905387 0.0006132921 0.081609145 -0.06230387
0003e0 6b f9 c9 bc 11 30 44 be 73 2c 0e 3e d3 4d 65 3d
       -0.024655065 -0.19158961 0.13884144 0.055982422
0003f0 d9 d6 f3 bd 5e 52 ef bb 7e 8a 9c bd 23 e6 cc bd
       -0.11906213 -0.00730352 -0.07643603 -0.100048326

model._model.a2c_network.critic_mlp.0.bias f4 [32]
000000 82 ab c1 3e 15 a8 b4 3e ce 64 c1 3e 1c bb bd 3e
       0.37826163 0.35284486 0.3777222 0.37056816
000010 07 0b 13 be ea 7f a3 3e 95 6c d4 3e 91 05 6e 3e
       -0.14359675 0.31933528 0.41489092 0.23244311
000020 d0 d8 c8 3e e7 82 ce 3e 4b 31 5d 3e c2 00 d4 3e
       0.39227915 0.40334246 0.21600835 0.41406828
000030 97 95 19 bc 84 2c cd 3e 9c 4d 90 3e 74 6a e2 3e
       -0.009374044 0.40073025 0.2818421 0.44221842
000040 b1 82 b6 3e 62 63 ba 3e 5d 41 a1 3e d1 9b b9 3e
       0.35646585 0.36403948 0.3149518 0.3625169
000050 3d b7 b9 3e 21 56 ad 3e 3a ae b8 3e 6c b8 aa 3e
       0.36272612 0.33854774 0.36070424 0.33343828
000060 0b f2 d1 3e c7 92 bc 3e 21 47 b2 bd df a7 ac 3e
       0.41004977 0.36830732 -0.08704973 0.33721825
000070 82 bb ba 3e 0d b7 bc 3e 00 63 26 be 98 1e be 3e
       0.36471182 0.36858407 -0.16248703 0.37132716

model._model.a2c_network.critic_mlp.0.weight f4 [32, 4]
000000 0e 01 42 3e e4 d1 75 be 13 6f ae 3e 06 82 a1 be
       0.18945715 -0.24005848 0.34069118 -0.31544513
000010 0f 9c 43 3e 92 b9 82 be 05 92 54 be b9 c5 9a 3e
       0.191025 -0.25532204 -0.20758827 0.30228975
000020 9a da f1 bd 19 1d 45 bc ee d1 63 3e 27 92 0f be
       -0.11809273 -0.012030863 0.2224805 -0.14020596
000030 57 3e 76 3d 10 84 7e be ab bd d8 3d 22 24 f9 bc
       0.060118046 -0.24855065 0.10583051 -0.030412737
000040 63 73 db 3e cd c1 03 3f e5 96 6a 3e ad c2 55 3e
       0.4286147 0.5146759 0.22909124 0.20875044
000050 3e f7 1e bd 89 bb 4e 3e 03 ad 16 3f 86 ae be be
       -0.038810007 0.20188726 0.58857745 -0.37242526
000060 83 e6 c2 be b7 ae 9e 3e 0a 51 5e 3e bd c3 35 3d
       -0.3806649 0.30992672 0.21710601 0.044376124
000070 a9 38 31 3e 55 6e ec be cb fb b5 bd 3f 89 f6 3e
       0.1730677 -0.46177927 -0.08885916 0.48151585
000080 78 88 98 be 53 91 6a 3e 18 bd 14 3e a5 51 e4 3d
       -0.29791617 0.22907 0.14525259 0.11148385
000090 8f 20 f0 bc 90 62 84 3e 58 1c 8e be 0b ac 2d 3e
       -0.0293124 0.25856447 -0.27756 0.1696016
0000a0 bb f8 a0 3e 32 66 0d 3f 4c 6d 1d 3f 3c d0 42 be
       0.31439766 0.5523406 0.614949 -0.19024748
0000b0 40 29 b1 3d ab 32 8d 3d 6b 4c cb 3d 7e c3 40 3e
       0.08650446 0.0689443 0.09926685 0.18824574
0000c0 9a d6 08 be 3c 0c 03 bf 66 0b 4b bf 7d 4e d0 be
       -0.13363114 -0.51190543 -0.7931427 -0.40684882
0000d0 72 a9 0c 3d 5c ea 3f be cb b8 67 be d5 09 86 be
       0.034341283 -0.18741745 -0.22629087 -0.26179376
0000e0 52 09 62 3e ca fb a9 3e 5a 0f 2c 3f 33 86 a0 be
       0.22073868 0.33199912 0.67210925 -0.31352386
0000f0 ef 3b c9 bd 14 14 17 bd 4f 5a cd be 5e 42 10 be
       -0.098258846 -0.036884382 -0.40107962 -0.14087817
000100 62 60 08 3e c0 5f 16 be fd ba f7 3d 90 24 b9 be
       0.13318017 -0.14684963 0.12096212 -0.36160707
000110 cd ff 98 3e ec 1e 1d be 1a 04 bd bd 8a 1f 1b 3d
       0.2988266 -0.15343827 -0.09229298 0.037871875
000120 5a 9c ec bd 58 f5 ee 3d ae 9a e7 be 2f bf b2 3e
       -0.11553259 0.11667889 -0.452352 0.34911487
000130 e1 4a 1d be be 9d 4c be cc e2 bc bd 86 8c bf bc
       -0.15360595 -0.19982049 -0.092229456 -0.023382436
000140 f0 81 2e 3e 5c eb a0 be a6 2e 0d be 00 cf 1f be
       0.17041755 -0.31429565 -0.13787326 -0.15606308
000150 6b d5 75 3e d3 68 12 bd 29 9c 52 be 6f 86 5a be
       0.24007194 -0.0357445 -0.20567383 -0.21340345
000160 60 12 a9 3d 3d e0 2a bc e8 60 17 bf 4e 4c 48 3e
       0.08255458 -0.010429439 -0.5913224 0.19560358
000170 0b 26 0c bd 6c 0e cd 3d 4b 39 b1 3e a8 a9 14 be
       -0.034215968 0.100125164 0.34614024 -0.14517844
000180 c5 0c e3 3d 4f 98 9b be 27 9b cc 3e fc a9 cf be
       0.1108642 -0.3038964 0.39962122 -0.40559375
000190 54 ec 1e 3d e4 7f 90 3d 0f 22 93 be c2 e9 73 3e
       0.0387996 0.07055643 -0.28736922 0.2381964
0001a0 13 32 08 bf cb a0 c9 bd 03 ad 4b bf bb 98 af be
       -0.5320141 -0.09845122 -0.7956087 -0.34296212
0001b0 41 8a 37 3e 9c 60 23 3e 8e 8c fb be 5b c9 84 3e
       0.17923833 0.15954822 -0.49130672 0.25934872
0001c0 da e3 47 be 03 a1 d3 3e da f0 01 3e a6 e6 c9 3e
       -0.19520512 0.4133378 0.12689534 0.39433783
0001d0 5e e2 51 be 9b c9 0a 3e ff 62 3e 3c d0 39 19 bd
       -0.20496508 0.13553469 0.011620282 -0.03740865
0001e0 70 9e ce be c3 66 dd be 29 c9 b4 3e 96 2a 63 3d
       -0.40355253 -0.43242463 0.35309723 0.055460535
0001f0 36 d3 92 bd 40 4a b5 be e7 42 8f 3e c3 a5 8d be
       -0.071691915 -0.3540821 0.2798073 -0.2766553

model._model.a2c_network.critic_mlp.2.bias f4 [32]
000000 6f c4 77 3e 23 c6 64 3e b5 52 8a 3e 47 ac 96 3e
       0.24196027 0.22341208 0.27016225 0.29428312
000010 c0 f7 63 3e b1 25 91 3e 56 cf 44 bd 1f 44 17 3b
       0.22262478 0.2834907 -0.048049293 0.0023081375
000020 ea a3 6d 3e cc 72 5c 3e 3a b8 23 bd a5 a6 a8 bd
       0.2320706 0.21528167 -0.039970614 -0.0823491
000030 42 51 bd bc ec ef 94 3c da e5 7e 3e 08 b8 9f bb
       -0.023110036 0.01818081 0.24892369 -0.004874233
000040 8f 8a 85 bd 0f 18 60 3e 65 ad 64 3e c6 9c 8b 3e
       -0.065205686 0.21884178 0.2233177 0.27268046
000050 00 e0 cd 3c 00 00 00 00 ab a1 d1 bc 2f 1e 73 bc
       0.025131226 0.0 -0.025589785 -0.014838739
000060 54 8b 2b 3d bd d0 2d bd e2 a4 85 3e ec 5b 2e bc
       0.04188092 -0.042435396 0.26102358 -0.010642033
000070 b9 1c 6d bd 54 5e 83 3e 47 5a 61 3e cd 43 76 3e
       -0.05788872 0.25657904 0.22007094 0.24049301

model._model.a2c_network.critic_mlp.2.weight f4 [32, 32]
000000 64 ea d3 3d 2b f4 ad 3d c8 2a 27 3e dc e9 7e 3e
       0.10347441 0.08493837 0.16324914 0.24893898
000010 70 62 e7 bd 51 06 8a bd a6 06 8e 3d 60 58 ad 3d
       -0.11298072 -0.06739486 0.06934862 0.08464122
000020 6e 57 a2 3e 4c d1 71 3e 1d 4f e4 bd c7 2a 0e 3d
       0.3170733 0.23614997 -0.11147902 0.034708764
000030 f2 bd d9 bd 47 c7 7d 3d 8d a0 b4 bd ec 27 73 3e
       -0.10631932 0.061957624 -0.08819685 0.23745698
000040 01 35 5e 3e 18 78 77 3e 6a 49 ca 3d 38 8f 12 bd
       0.21699907 0.24166906 0.09877284 -0.035781115
000050 ad fa 33 3e 49 4f e0 3d db 32 b7 3e eb 21 a4 3e
       0.17576094 0.109526224 0.35780987 0.32057127
000060 1c 81 8a 3e d6 2b 84 3e a2 0a c0 bd 82 ed bf 3d
       0.27051628 0.25814694 -0.09377028 0.09371473
000070 7c 0a 0e 3e 72 b0 82 3e 07 20 3d be cd b9 3b bd
       0.13871187 0.25525242 -0.18469249 -0.04583149
000080 1b 27 9d 3e ec b0 69 3e ba ad d2 3e 45 36 88 3e
       0.30693898 0.22821397 0.41148168 0.26603904
000090 f8 5d 6e be bb 31 d9 bd 45 a4 06 3e 99 1a 91 3c
       -0.23278034 -0.106051885 0.13148601 0.017712878
0000a0 6a fc f1 3d a9 2e 16 3e e2 1b d5 bd 12 18 4c 3d
       0.11815722 0.14666237 -0.10405709 0.049827643
0000b0 10 c9 6e be aa 6b be 3e 58 3c 2e 3e b0 df a8 3d
       -0.23318887 0.37191516 0.17015207 0.0824579
0000c0 af ac 92 3d b9 78 7d 3e d5 28 a6 bc e4 ba 0d 3d
       0.07161843 0.24753083 -0.020283142 0.03460206
0000d0 04 5c 9a 3e e6 eb f4 3d ab ae 13 3e c0 2b a8 3e
       0.30148327 0.119590566 0.144221 0.3284588
0000e0 18 2f c4 3e d3 c3 e0 3d 97 42 7e be 05 27 91 3d
       0.3831718 0.109748505 -0.2483009 0.070875205
0000f0 5a dd 6d 3d 09 0d ca 3e 75 f6 2e be 87 4b e9 3b
       0.058072425 0.3946307 -0.17086203 0.0071195993
000100 95 da 44 3e ad 25 46 3d 1e d0 c8 3e 32 64 a1 3d
       0.19224007 0.048375774 0.3922128 0.07880439
000110 b9 49 48 be 12 e6 00 3d cc 9e c4 3d a6 2e b9 ba
       -0.19559373 0.031469412 0.096006006 -0.0014128282
000120 b3 a0 b8 3e c2 1f ea 3d 87 2b f6 bd 80 90 8a 3e
       0.36060104 0.114318386 -0.12020021 0.2706337
000130 d7 ee cc be 15 70 c5 3e 09 48 d5 bd bb d7 97 3e
       -0.4002597 0.38562074 -0.1041413 0.29656777
000140 15 68 39 3e 4b bb fb 3d a3 8f 16 3e 86 4b 24 3d
       0.1810611 0.12291583 0.1470323 0.040111087
000150 73 bf 82 3e c1 90 66 3e 5e fc c2 3e ad 89 b0 3e
       0.2553669 0.22516157 0.38083166 0.34480038
000160 fa 7d 5d 3e 82 91 7a 3e 1b eb e5 bd 33 ad 49 3e
       0.21630087 0.2446957 -0.112264834 0.19694977
000170 5c 20 1c 3e ba 44 c8 3e 07 25 60 be cd 6b 73 3e
       0.15246719 0.39114934 -0.21889125 0.23771591
000180 80 97 29 3e 47 1c 83 3d b2 8e a0 3e bd d7 af 3e
       0.16561699 0.06401878 0.31358868 0.34344283
000190 a5 ca bf bd 57 f9 0a bc c2 29 d4 3d 73 92 a8 3d
       -0.09364823 -0.008482299 0.10359527 0.08231058
0001a0 bd 3b b2 3e e7 4d 16 3d 09 4b 63 bc a2 e3 6f 3e
       0.34811202 0.036695387 -0.01387287 0.23426679
0001b0 77 8c 5d be 77 eb 02 3e 99 77 48 bd fa 81 44 3d
       -0.21635614 0.12785135 -0.048942182 0.047975518
0001c0 8c 12 73 3d e9 c3 59 3e fa e0 8a 3e 84 a8 19 3e
       0.05934386 0.2126614 0.27124768 0.1500569
0001d0 e8 b3 db 3e 5e 8a 90 3e c9 67 c0 3e 87 d8 e4 3d
       0.42910695 0.28230566 0.37579182 0.11174112
0001e0 11 4d c4 3e df 48 a1 3e d8 da ef bd 33 c8 9a 3d
       0.38340047 0.3150091 -0.11711663 0.07557716
0001f0 17 fa 31 3d 0a e3 8e 3e 82 d6 ad 3b 43 dd c1 3c
       0.043451395 0.27907592 0.0053051123 0.023665076
000200 01 37 d5 3d c3 f4 68 3e 54 16 e8 3d bb 14 8f 3e
       0.10410882 0.22749619 0.11332384 0.27945504
000210 83 ec ae bd 02 c7 d0 3d a7 8c a0 3d ac 7c 2d 3e
       -0.08541205 0.10194208 0.07839327 0.1694209
000220 8e 55 bc 3e fc 12 41 3d 74 09 36 3d a0 d8 2b 3e
       0.36784023 0.047137246 0.04444261 0.16781855
000230 48 46 95 be 49 10 af 3e 69 a0 09 3d 4f 3f 06 3e
       -0.29155183 0.34192112 0.033600245 0.13110088
000240 08 d9 28 3e 74 33 0f 3b 36 e0 18 3e 8a 1a 93 3d
       0.16489041 0.0021850737 0.1492928 0.07182796
000250 9b 87 b8 3e 78 e4 46 bd de 64 9b 3e 65 2c 82 3e
       0.3604096 -0.04855773 0.30350393 0.25424495
000260 a2 b8 69 3e e4 40 48 bc 6a 97 91 be 6e f5 7c 3d
       0.22824338 -0.012222502 -0.28435832 0.061757497
000270 54 b6 99 bd a6 84 cc 3e cf dd 49 be 32 2c 13 3e
       -0.075054795 0.39944953 -0.1971352 0.14372328
000280 45 46 6f 3e 7c 12 0f 3e ed 16 36 3e 22 03 1a 3e
       0.2336665 0.13971895 0.17782183 0.15040258
000290 e1 35 41 be 40 04 ac 3d af 04 b6 3e f6 b8 4c 3b
       -0.1886821 0.08399248 0.35550448 0.0031238175
0002a0 ad 30 d5 3d 95 d4 5e 3e be 5d 1c 3e a2 5f 99 3e
       0.10409675 0.21760781 0.15270135 0.29955775
0002b0 da 9f b0 be 46 80 0f 3e 70 b1 ac 3d 00 e6 2f 3e
       -0.34496957 0.14013776 0.08432281 0.17177582
0002c0 a6 7b 2b 3e 4c d9 87 3e 6c b3 84 3e 5e 7f df 3d
       0.16746387 0.26532972 0.25918138 0.10912965
0002d0 fc 0a cd 3e 6d 4f b5 3d 8b 5c b4 3e 9b 66 82 3e
       0.40047443 0.0885304 0.35226855 0.25468907
0002e0 21 71 c8 3e f6 6d 79 3e 73 03 a5 be 06 63 8c 3c
       0.3914881 0.24358353 -0.32229194 0.017137062
0002f0 30 df 38 3e 8e f4 93 3e e2 d3 6c be 55 a0 83 3e
       0.1805389 0.28897518 -0.23127702 0.2570826
000300 79 0c 90 be e3 db 6b bd f0 79 95 3d 1a d0 af 3c
       -0.28134516 -0.057582747 0.07298648 0.021461535
000310 cf bf 02 be df b7 68 3c 2f 43 99 3e 9b 8c 00 3e
       -0.12768482 0.014203995 0.2993407 0.12553637
000320 40 ad 86 3d 22 e5 18 be e6 87 b3 bc 6d 92 31 be
       0.065760136 -0.14931157 -0.021915387 -0.17341013
000330 d3 7a 31 3d 92 e0 77 be ab 48 23 3e be 70 cb bd
       0.043330025 -0.2420676 0.1594569 -0.09933613
000340 62 cf 0a be b9 4d b6 ba 12 62 bd 3b 7b e4 1a 3d
       -0.13555673 -0.0013908661 0.005779513 0.037815552
000350 e8 6e c0 bd 47 7a ef bd b7 5b 35 be 22 97 86 bd
       -0.09396154 -0.116932444 -0.17710768 -0.06571795
000360 be 63 61 be 0a d3 14 be f5 ee ea 3d 36 30 da bd
       -0.22010705 -0.1453363 0.11471359 -0.10653727
000370 27 3f 73 bd 01 05 ad 3d 02 1a 6d 3e 8b 0e 19 bc
       -0.0593864 0.0844822 0.23154452 -0.009341846
000380 b9 ae 15 be 03 b5 fb bb 98 44 b4 bc c9 1a 54 be
       -0.14617433 -0.0076814904 -0.022005364 -0.20713343
000390 eb e6 75 3e 63 59 f2 bd be 74 62 3d 4f e6 71 bd
       0.2401387 -0.118334554 0.055287115 -0.05905753
0003a0 07 eb 4b 3d 9d 75 cb 3d 9f 78 a4 3e 02 be 9a bd
       0.049784686 0.09934542 0.32123277 -0.07555772
0003b0 6f ff 9e 3d e7 6b 54 be e4 10 0c 3e d3 65 57 3d
       0.07763564 -0.20744286 0.13678318 0.05258734
0003c0 85 37 20 be b9 4b 11 3e 94 1d c0 bd be 5a 62 3e
       -0.15646179 0.14189042 -0.093806416 0.22104928
0003d0 bd 27 6c be 3c e1 02 be 16 c3 17 be 1a 74 4f bd
       -0.23062034 -0.12781233 -0.14820513 -0.050647832
0003e0 9c e1 61 be 68 7f 01 be fd 7e a0 3e fe 32 6b 3e
       -0.2205872 -0.12646258 0.31346884 0.2296867
0003f0 24 1e 02 bd 30 0c 2f 3e bc 09 49 bd 1f a6 3a 3e
       -0.031767026 0.17094493 -0.04908155 0.18227433

model._model.a2c_network.value.weight f4 [1, 32]
000000 0c ac ad 3e bd 96 de 3e 0d cb 9a 3e d3 5b 5b 3e
       0.33920324 0.4347438 0.3023304 0.21421747
000010 49 40 a7 3e 25 98 6a 3e 28 a6 c6 be 34 f8 ac be
       0.32666233 0.22909601 -0.38798642 -0.33783114
000020 6c d2 a3 3e b7 d6 c6 3e dd 2b a9 be ab f2 a7 be
       0.31996477 0.3883569 -0.33041278 -0.32802328
000030 42 5f a9 be 55 23 e7 be 4d 50 e7 3e 00 1b 11 bd
       -0.33080488 -0.45144144 0.45178452 -0.03542614
000040 97 5f dc be 59 94 b4 3e 56 7c a6 3e cf 7d 33 3e
       -0.4304168 0.3526943 0.32516736 0.17528461
000050 e4 f4 a1 be cb d3 32 3e 69 22 95 be 0b d8 45 bd
       -0.3163215 0.17463605 -0.29127815 -0.048301738
000060 c3 3e 98 be 01 d7 df be b3 1a 93 3e 1a ad df bc
       -0.29735383 -0.43718722 0.28731307 -0.027304221
000070 3d 83 e9 be 99 8b c3 3e 28 98 be 3e 9c 3b 9b 3e
       -0.4560794 0.38192442 0.3722546 0.30318916

model._model.a2c_network.logits.bias f4 [2]
000000 0c 41 ee bb 3a 41 ee 3b
       -0.007270938 0.007270959

model._model.a2c_network.logits.weight f4 [2, 32]
000000 4f 3a 93 be c4 43 9b 3d bf 22 30 3e c0 eb 5d bd
       -0.28755423 0.07581285 0.17200755 -0.054179907
000010 28 74 db 3e 51 f9 67 be a6 ce 8e 3e 9e 73 bc 3e
       0.42862058 -0.226537 0.27892035 0.3680696
000020 cd ff 4b 3e d8 89 d5 3e a7 3d 5d 3e b7 e8 ce 3e
       0.19921799 0.4170673 0.2160555 0.40411922
000030 c0 ee 00 3e d1 6a a4 3e ee 16 b1 3e 92 a3 0a be
       0.12591076 0.32112744 0.34587806 -0.1353896
000040 f9 75 67 be bc da 8e 3e 2f 57 9b be ca 4e 7b be
       -0.22603597 0.27901256 -0.30339953 -0.24541774
000050 f4 7a a3 3e 96 15 d5 3e c7 35 d0 bd b6 c0 5f be
       0.31929743 0.4161803 -0.10166507 -0.21850857
000060 e8 fa 68 be ba f7 c6 bd 9f 67 54 3e 67 4e bb be
       -0.22751963 -0.09715219 0.20742653 -0.36583254
000070 22 04 9c be ff e0 93 3d df f9 c6 3e 45 a2 a7 be
       -0.30471903 0.07220649 0.38862512 -0.3274099
000080 6e 58 a1 3e 41 48 d2 bd a5 ca c4 be d5 a1 01 bd
       0.3151278 -0.102676876 -0.38435856 -0.031648476
000090 f0 ea b0 be 2d 70 56 3d 62 1e d0 be fb 04 5e be
       -0.34554243 0.052353073 -0.4064818 -0.21681587
0000a0 a1 43 8b be 60 f0 84 be 32 0f 46 be 4c 7b 37 be
       -0.27200034 -0.25964642 -0.19341734 -0.17918128
0000b0 45 60 cc be 6c f6 b1 be b1 1a 7b be d0 54 74 3e
       -0.39917198 -0.34758317 -0.245219 0.23860478
0000c0 a4 0f 95 3e 92 01 97 be d2 d5 77 3e 72 20 99 3e
       0.29113495 -0.29493386 0.2420266 0.29907566
0000d0 30 60 ab be 3b de 73 be f6 df bf 3e 6e 32 b4 3d
       -0.33471823 -0.23815243 0.37475556 0.08798681
0000e0 2d a1 ae 3e 07 7e 6c 3e 9c 4c 35 bd b4 fc 84 3e
       0.34107342 0.2309495 -0.044262514 0.25974047
0000f0 6f ef 3b 3e 1b d6 97 bd 1f f2 94 be 88 ca 23 3e
       0.18353055 -0.07413884 -0.29090974 0.15995228
