notebooks/runs/cartpole_onnx/nn/cartpole_vel_info_ep_441_rew_400.91434.pth (torch, 41081 bytes, 33 tensors)

a2c_network.actor_mlp.0.weight f4 [32, 4]
00000000: 774a 0bbe 89de ce3e 2d14 b63e f78c f73e
00000010: 387d fb3e c193 c53e b303 213f b364 883e
00000020: 9cb4 eb3e e988 eabd b5b5 48bf 9099 cc3a
00000030: 22f2 e7be 9c94 49bd bb29 323f ce52 13be
00000040: 015c ec3e 7d02 8fbe c9ba 81be 8e04 d63e
00000050: d77d 35be 3f5a 533e fcef ad3e ba10 173f
00000060: c310 c1be 09fb b3be b7bf 81be a5bd f2be
00000070: eceb 123d 9b83 82be 4565 0a3f 8e1a db3d
00000080: afa7 18bd dcbb 1fbe e445 1dbf d88f 04bf
00000090: e00f 7cbe 6882 c13e 562b 213f 8802 0c3e
000000a0: 2f9e 02bf 26ed 5d3e 572c 033f 361f be39
000000b0: 4d5d 34be 18ad 653e eefd 1e3f 6a32 8cbe
000000c0: ff87 893b df3e f33e 0f80 a33e e364 093e
000000d0: 14b0 f23e 32fe bdbe a297 0f3f 92f8 f43e
000000e0: 705d 533e e58f dcbe b885 18bf 2ba4 4c3d
000000f0: 0856 8d3e 4ddf 1cbe 0f1b 2abf f4b6 debe
00000100: d3dc bdbe 7fe4 d0be d7b9 c8be 10e1 03bf
00000110: 693b 6fbe aa71 a0ba 5465 563e 3380 babd
00000120: 7947 7a3e e53a c43e e207 1e3f 26c8 f5bd
00000130: ac07 bb3e b82a bfbe 1a46 b9bd 8824 bb3c
00000140: 111d e43e 028b e5be 423b 573f 77e6 973e
00000150: 0db8 a13c 83c5 fd3d 496b 403f d2d9 293e
00000160: ac6f cdbe 4aec cb3c 2bd2 08bf ae21 68bd
00000170: 9fa1 1d3e 2239 98bb 3efa 00bf f003 e1be
00000180: 08fc f43d bc87 363e 7d7a 063f 8617 ec3e
00000190: eaeb c8be 60e3 b43e 969a de3d 0428 07bf
000001a0: df34 393e 3f16 d73e e03f 1b3c 3234 62be
000001b0: d93f e5be 6617 453b 3200 52be f634 b5be
000001c0: 93c0 4e3e 3c25 e9be e224 2fbf 0af1 b2be
000001d0: 8c0d afbe e6e1 46be 85a5 72be bea8 1d3e
000001e0: b697 45be 6ce4 ef3e 087b 1dbe 8a2e c7be
000001f0: 8466 9a3e b879 fc3e 7663 c93e d3fd 813e
-0.13602625 0.40404156 0.35562268 0.48349735 0.49118972 0.3858929 0.6289627 0.26639327
0.46036232 -0.11451895 -0.7840226 0.001560973 -0.4530192 -0.04921399 0.69594926 -0.14387056
0.46163943 -0.27931586 -0.25337818 0.4180035 -0.17723785 0.20639895 0.33972156 0.590099
-0.377081 -0.35152462 -0.2534158 -0.47410312 0.035869524 -0.25491032 0.54060775 0.10698424
-0.03726929 -0.15599006 -0.6143477 -0.5178199 -0.24615431 0.37794805 0.6295675 0.1367284
-0.5102262 0.21672496 0.5123953 0.00036262878 -0.17613716 0.22429311 0.62106216 -0.27382213
0.00419712 0.47508904 0.31933638 0.13417391 0.47399962 -0.37107998 0.5609075 0.47845894
0.20641112 -0.43078533 -0.5957904 0.04996125 0.276047 -0.15319557 -0.6644754 -0.43498957
-0.37082538 -0.4079933 -0.39204285 -0.51515293 -0.23362507 -0.0012240906 0.20937091 -0.09106483
0.24441327 0.38326183 0.6173078 -0.12001066 0.3652929 -0.3733728 -0.09046574 0.022844568
0.44553426 -0.44832617 0.84074795 0.29668018 0.019741083 0.12391188 0.75163704 0.16586998
-0.4012426 0.024892945 -0.5344569 -0.056672744 0.15393685 -0.0046454826 -0.5038184 -0.43948317
0.11962134 0.17825216 0.5253065 0.46111697 -0.39242488 0.35329723 0.10869329 -0.52795434
0.18086575 0.4200916 0.009475678 -0.22090223 -0.44775274 0.003007376 -0.20507887 -0.35391968
0.20190649 -0.4553622 -0.68415654 -0.34949523 -0.34190023 -0.19422111 -0.23695953 0.15396401
-0.19296154 0.4685396 -0.15378964 -0.38902694 0.30156338 0.49311614 0.39333695 0.25388965

a2c_network.actor_mlp.0.bias f4 [32]
00000000: 72c4 143e 02ba b53d 3692 4a3c 27a2 c4bd
00000010: 19ee 813c 52cb f23d 67df 683e d07b c73d
00000020: a454 3e3e 2b3b 4b3e 8a6b a9bd 5088 533d
00000030: 1849 1bbd 825e 0d3e 1e65 583e 68ef 393e
00000040: 42ea 773e 526a e9bd eff4 bb3d e0e0 173d
00000050: 8a0b f83d 1c36 0a3e b631 393e dc20 4d3e
00000060: 5ea5 0d3e 7bd6 1b3e 7f69 97bd 57a0 3e3e
00000070: ce1f 0e3e 0bfe babc 3396 b13d f005 643d
0.14528063 0.08873369 0.012363961 -0.096012406 0.015860604 0.118551865 0.22741471 0.09740412
0.18586975 0.1984679 -0.082724646 0.05164367 -0.037911505 0.13805583 0.21132323 0.18157732
0.24210456 -0.11397232 0.09177577 0.037079692 0.12111576 0.13497204 0.1808537 0.20032066
0.13832614 0.15218537 -0.07393169 0.18615852 0.1387932 -0.022826215 0.08671226 0.055669725

a2c_network.actor_mlp.2.weight f4 [32, 32]
00000000: 8999 eebc 0eeb ff3a 31bc 763d 00aa a73c
00000010: d075 cd3d 04ae c8bd a5d0 913e c68a b23d
00000020: f7db 153e 8a23 babd 9f62 713c 129e 8cbd
00000030: 3f03 b2bd bdd8 b93d e8d9 fe3c c6ef 25bd
00000040: 9ccb 753e ce4c aebd bcce 10be 3091 70bd
00000050: d6d9 64be 136e 22be aa4e e73d 8c51 893e
00000060: 0f45 47bd 53d7 443e 74b0 263a 3aea c0bc
00000070: a77e 6b3e f172 5ebb e34e 143e 7905 edbd
00000080: 5975 0fbe a85f 203d 0e45 763e 715a bb3b
00000090: 4b41 1f3e b902 e8bd a329 223e c76c 11bd
000000a0: 2a24 743e 88fd 14be 15ae 4e3d 1756 f5bd
000000b0: 0549 e2bd e723 363d c3b1 af3c 739d 8b3e
000000c0: 5642 933e eada 61be d27a 50be ba06 38bc
000000d0: 97be 46be b4da 03bd 1083 7b3e b253 863e
000000e0: d1f1 b5bd 4057 1f3e fb79 a3bd adbb 8d3e
000000f0: 3d76 473d 00f9 943d 2b18 a83c 1b7e 28be
00000100: 47db 543d e7cd 53bc 7bb7 a73c e08d 663d
00000110: 3b87 c33d ba92 123e ab80 10be 2419 0dbd
00000120: e8b6 a8bd ccec 3ebe 0d53 3d3d f7d2 c3bc
00000130: 9f7f 27bc 83a8 563d ad56 54bd c3be a7bd
00000140: a88b 2c3e 89ef 0cbe f288 d0bd 98cf 8bbd
00000150: 3b88 debd 22f3 5e3d c16f 483d 607b c3bc
00000160: c9ec 23be b6dc 7abd b0e8 f0bd 875e 62bc
00000170: df6c 6fbd 6f69 04be 0851 13bd bcf3 ee3d
00000180: 7101 663e b5d3 983e 8cff 80bc 96d4 833c
00000190: f320 98bd 32f9 633e 02e7 5abd 3282 173e
000001a0: 8aac 5fbe d68e a63e 7b15 8a3e 4dac 5f3e
000001b0: ec0d f0bc 27f9 843b 2115 ce3d c0c5 27be
000001c0: 3396 d3bd c805 493e 697c cc3d 8e36 2fbc
000001d0: cd36 963e 2024 823e ad88 83bd 9a1f c9bc
000001e0: bc31 be3d fcf6 bebd 51e1 cf3d 32f2 003e
000001f0: b020 bf3c 4dca d2bd 5165 443c 2ff4 863d
00000200: f60b 623e 737b 113e 6adb a4bd fe04 e13d
00000210: abad 033e 31c1 5c3d edf0 96be 652d 9b3d
00000220: 8998 cbbc af32 293e 5ed6 23be 004e a03d
00000230: c025 6dbd 55b2 353e 7790 653e ad5e ccbd
00000240: 4894 a2be ec4a 49be fd8d 823e dd7a 8dbd
00000250: f4b4 923e ef12 983e c491 a9be 567e 943d
00000260: c2ce 913e d8fb e63d 764b 05bc c478 6fbe
00000270: 5c3a 31be cd8a 82bd da08 023e e79d f53d
00000280: 73f3 cabd 3652 a43d 08c7 163e 7b05 6a3c
00000290: 03c0 6b3d 43bf 1fbe ed95 dc3d ac77 dfbd
000002a0: fb66 fb3c 9d41 08bc b7d0 7ebd 6d30 c03c
000002b0: 8c09 c4bd 711d f53d e65f cebc 372a 62bc
000002c0: 3293 803c 98a6 a3bd b19e 39be 274c 84bc
000002d0: d122 ac3d 1671 3ebe ee1b 023e a9e1 1f3e
000002e0: aa01 53be 8cc8 163e f1ff 963d 0f35 4c3e
000002f0: cd7f 9f3d 3d21 d4bd 79ce b8bc fe10 69be
00000300: ed32 723e cc1b 8a3e b4d6 08be 9e9e 993d
00000310: 5775 573e c3a0 a63c 46d1 51bd 88c0 9f3e
00000320: 5e88 9ebc 1c62 8a3e 6dae 2a3e b843 823e
00000330: f283 b8bd a71f d33d fe2b e6bd 221f 01be
00000340: a2fc 73be ffe7 15bc 1053 04bc 905c e1bd
00000350: fbbd f83c 8a08 a93e dbb0 85bd 4080 5f3d
00000360: 3fae 013e eb3e c3bc 7004 193e 7295 9d3d
00000370: e6d7 04be d713 643e 2c15 c8bd fb37 f03d
00000380: 0481 463e 5f5a 8e3e f9b2 783d 7e61 883d
00000390: c544 a6bc c0cd 813e c4d8 5d3c e40d 8abb
000003a0: eed2 d1bd bc56 ca3b a133 053e dc94 a33e
000003b0: 1d79 75bd f169 f8bc 01a5 013e a8e4 59be
000003c0: d30c 0dbe b484 843d 8722 e43d 6876 f93d
000003d0: a53b 883d 6d02 d03e 3a11 40be ec77 45bd
000003e0: 9c31 d03d 8aee e5bc 67b9 353e 3424 6e3d
000003f0: ca59 4abe 448e 7cbd f019 0abd 493f 4e3e
-0.029125946 0.0019525008 0.060238067 0.020466805 0.100322366 -0.09798816 0.28479496 0.08717875
0.14634691 -0.0908881 0.014732986 -0.06866087 -0.086920254 0.09074543 0.031109765 -0.04051187
0.24003452 -0.08510743 -0.14141363 -0.05873221 -0.22348723 -0.15862302 0.11294301 0.26820028
-0.048649844 0.19222765 0.0006358691 -0.023549188 0.22997533 -0.0033943022 0.14483218 -0.115733095
-0.14009608 0.039153725 0.2404978 0.0057175686 0.15552251 -0.11328644 0.15836196 -0.03550413
0.2384192 -0.1454984 0.050458986 -0.11979311 -0.110490836 0.044467833 0.021447068 0.27268562
0.28761548 -0.22056165 -0.20359352 -0.0112320725 -0.19408642 -0.032190993 0.24561715 0.2623573
-0.088840134 0.15560627 -0.0798225 0.27682248 0.048696745 0.072740555 0.020519337 -0.16454355
0.05196693 -0.012927509 0.020473232 0.056287646 0.095472775 0.14313784 -0.14111583 -0.034447804
-0.082380116 -0.18645018 0.04622178 -0.023904307 -0.010223298 0.0524068 -0.051840473 -0.08190682
0.1685015 -0.1376325 -0.1018237 -0.06826705 -0.10865828 0.05443109 0.0489347 -0.02386254
-0.16008295 -0.061245643 -0.117631316 -0.013816482 -0.058453437 -0.12930845 -0.03596595 0.116675824
0.22461487 0.2984902 -0.015746854 0.01609258 -0.074281596 0.22263029 -0.053442962 0.1479576
-0.21843162 0.3253085 0.26969513 0.21843071 -0.029303513 0.0040580216 0.10062624 -0.1638403
-0.103313826 0.19631112 0.09984667 -0.010694159 0.29338685 0.25418186 -0.06422553 -0.024551202
0.0928683 -0.09324452 0.101503976 0.1259239 0.023331016 -0.10292492 0.011987046 0.06589543
0.22074875 0.14207248 -0.080496624 0.1098728 0.12859218 0.05389518 -0.29480687 0.07577018
-0.024853008 0.1652324 -0.15999743 0.07827377 -0.05789733 0.1774381 0.2241839 -0.099789955
-0.31753755 -0.19657487 0.25498953 -0.069082 0.2865368 0.29701945 -0.33119023 0.07250659
0.28478056 0.11278504 -0.008135667 -0.23385912 -0.17307419 -0.063741304 0.12698689 0.11993008
-0.099097155 0.08023493 0.14724362 0.014283533 0.057556164 -0.15600304 0.107707836 -0.109114975
0.030688753 -0.008316425 -0.062210765 0.023460591 -0.095721334 0.11968506 -0.025192212 -0.01380401
0.015695188 -0.079907596 -0.18126942 -0.016149594 0.08405078 -0.18597826 0.12705967 0.15613426
-0.20606104 0.1472494 0.07373036 0.19942115 0.07788048 -0.10357902 -0.022559391 -0.22760388
0.23652239 0.26974332 -0.13363153 0.07500957 0.21040855 0.020340329 -0.05122497 0.31201577
-0.019352134 0.27027977 0.166681 0.2544229 -0.090095416 0.103087716 -0.112388596 -0.12609532
-0.2382684 -0.00914955 -0.008076444 -0.11003983 0.030364027 0.33014327 -0.06527873 0.054565668
0.12664126 -0.023833713 0.14943099 0.0769452 -0.12972984 0.22273193 -0.09769663 0.117294274
0.19385153 0.27803323 0.060717557 0.0665922 -0.020296464 0.25352287 0.0135404505 -0.0042130817
-0.1024531 0.0061748903 0.13007976 0.31949508 -0.059929956 -0.030323954 0.126606 -0.21278632
-0.13774423 0.064706236 0.11139398 0.12180787 0.06652001 0.4062685 -0.18756571 -0.04821007
0.10165712 -0.028067846 0.17746507 0.058139995 -0.19760814 -0.061659113 -0.033716142 0.20141329

a2c_network.actor_mlp.2.bias f4 [32]
00000000: 6245 a13d 37f7 ce3d 3436 b7bc 6fde 483d
00000010: 31bb e43d bb89 363d f3f0 9e3d 026c c83d
00000020: f473 fe3d 8e4b 8a3d 807e 18bc 9cf7 253d
00000030: ef3a 89bd 4dec 123e b382 bfbc dbc3 473d
00000040: dc25 e13d b8d2 0f3e 0782 dbbc e655 a23d
00000050: 0ae6 fb3d 9245 7f3c ca90 71bc ac7c 09bd
00000060: 94cd ff3d b4ad 943d 26b0 d23d 4ba3 ccbc
00000070: c730 c53d 484f 923d 8e2b c83d f9d0 313c
0.07874562 0.10105746 -0.022364713 0.049040254 0.111685164 0.044564944 0.07760801 0.09786226
0.1242446 0.06752692 -0.009307504 0.04051934 -0.06700694 0.14347954 -0.023377752 0.048770767
0.10993549 0.14045227 -0.0267954 0.0792654 0.12299736 0.015580552 -0.014743993 -0.033566162
0.12490383 0.07259694 0.10287504 -0.024980208 0.09628444 0.07144028 0.097739324 0.010853046

a2c_network.critic_mlp.0.weight f4 [32, 4]
00000000: 509e 0fbf 2958 64bd 5383 80bf 76d8 b4be
00000010: 49db aabd 9ff4 c9be 74b1 1ebf e041 733d
00000020: 7121 34be d4f6 443e deba 7fbe 4176 b33c
00000030: 1da4 a0be 5b82 453e 72c0 cb3e 785a c0bd
00000040: 34a5 30be f418 01bf 1a69 43bc dc97 b5be
00000050: 75f6 823d a667 113e b15c 96be 8344 9c3e
00000060: 6d07 50bd b4e7 9a3e 660e 0a3f caf9 a83e
00000070: a125 33bd d966 83ba 8934 e1be 5437 3b3d
00000080: 3e3e debd 502d bfbe 26e5 f5bd 7dfc 6ebe
00000090: 5246 b13d 8f4b 453d 7ca9 c0bd 6e51 053e
000000a0: 0603 95be 339c f53d 7501 8e3c 7f2d d03d
000000b0: 22e0 84bd 78ab c43c 4115 843e 40d1 c3bd
000000c0: 384a 473e 7da0 f6bd 4fe3 b33e a9ee 56bd
000000d0: 65da 103d 9161 a93d f170 d5be 8c1e 703e
000000e0: 9737 49be 8975 1dbd cec8 12be 3495 283c
000000f0: a032 443e 086c 45be 4150 f73e 6e0a ffbd
00000100: 5eba 653e f126 64be d806 513c 9286 bbbd
00000110: 4403 e63e 8c03 c3be feed 653e 1149 993e
00000120: 8543 9b3e 3344 583e 7dd8 843f ff93 ad3e
00000130: c1fb 87be 001e 883e 0929 9bbe 673e 313e
00000140: 4659 62be e8a8 8c3d 6605 8f3e 6c9d 00bf
00000150: b9fc c73e 2006 84be 250a 9fbe 1804 973e
00000160: 67f1 77be 5970 05bf 4b47 10be 5dae 12bb
00000170: 9e7c 12be def4 89be 83b2 18bf e525 773e
00000180: c474 9c3d d361 bc3e e04e 0d3f d776 e73d
00000190: b827 a63d 4f0c 933e 7940 003e 4b96 06bf
000001a0: d4d8 883e d73a 50be 35a1 95be af60 ce3c
000001b0: 684d 0e3d fdcc 67bd 28e9 0f3f c047 bbbe
000001c0: b630 573e ea8f 293f 7e61 a73d 6b41 8bbe
000001d0: b2aa ed3e 017f 53be b0ae 373f 3694 cbbd
000001e0: 8947 ea3d f66c 023b d2ce ac3e 6277 e63d
000001f0: c0b5 833d 714a 37be 7a23 cbbd b3ce d63e
-0.5610094 -0.05574814 -1.0040077 -0.35321397 -0.083426066 -0.39444444 -0.6198952 0.059388995
-0.17590882 0.19234782 -0.24973628 0.021906974 -0.31375208 0.19288008 0.39795262 -0.093922555
-0.1725052 -0.504287 -0.011926914 -0.35467422 0.06394664 0.14199695 -0.29367593 0.3052102
-0.05078833 0.302549 0.5392822 0.33003074 -0.043737058 -0.0010025158 -0.43985394 0.045707062
-0.108517155 -0.37339258 -0.12006597 -0.23338504 0.08655991 0.04816776 -0.094073266 0.13019344
-0.2910387 0.11992683 0.01733468 0.10164928 -0.064880624 0.024007544 0.25797465 -0.09561396
0.19461906 -0.120423295 0.3513436 -0.052473698 0.035364527 0.082705624 -0.4168773 0.23449153
-0.19650112 -0.03844217 -0.14334413 0.010289479 0.19159937 -0.19279492 0.48303416 -0.12453161
0.22434375 -0.2228048 0.012757979 -0.091565266 0.44924366 -0.38088644 0.22454068 0.29938558
0.3032495 0.21119766 1.0378567 0.33901975 -0.2655926 0.26585388 -0.30304745 0.17308961
-0.22104368 0.06868154 0.27933806 -0.50240207 0.3906 -0.25785923 -0.31062427 0.2949531
-0.24213181 -0.52124554 -0.14089696 -0.002238176 -0.1430535 -0.2694463 -0.5964739 0.2413555
0.07639459 0.36793384 0.5519848 0.11301964 0.081130445 0.28720328 0.12524594 -0.5257308
0.26727927 -0.20334946 -0.29224554 0.025192587 0.03474179 -0.056591976 0.56215143 -0.36578178
0.21014675 0.6623522 0.08172892 -0.27198347 0.46419293 -0.20653917 0.71750927 -0.09940378
0.114394255 0.0019901372 0.3375154 0.11253239 0.064311504 -0.17899491 -0.09918876 0.41954574

a2c_network.critic_mlp.0.bias f4 [32]
00000000: 6937 25be 6914 953e 91ae d73e c946 d83e
00000010: 6a50 f3bd 127e c73e 897d e93e 9832 bb3e
00000020: e069 59bc f17c bb3e 0cf9 ca3e 94aa a53e
00000030: 4369 c63e 3130 b23e 0a1a bd3e 43be ad3e
00000040: c1cb b03e 2bb0 823e 71c1 15bd 1e4e e43e
00000050: 1b04 1c3e d427 a33e 2a78 55be f099 a23e
00000060: cef3 ddbd 9c38 863e 3477 c83e 4aad af3e
00000070: 8379 4f3e 036a 12be 6a67 cf3e 83fb 43be
-0.16134419 0.29117134 0.4212537 0.42241505 -0.11880572 0.38963372 0.45603588 0.36562037
-0.0132698715 0.3661876 0.39643133 0.32356703 0.38752183 0.34802392 0.3693393 0.3393422
0.34530452 0.2552503 -0.036561433 0.4459085 0.15235941 0.31866324 -0.2084662 0.3175807
-0.10837518 0.26215065 0.39153445 0.34311897 0.20261197 -0.14298253 0.40508586 -0.19138913

a2c_network.critic_mlp.2.weight f4 [32, 32]
00000000: 41b8 38be 2f95 483e 2b2e 8a3e 967c 793e
00000010: a58d 44be f2c8 a43d 8a1d 333e a79d 633e
00000020: 9059 6abe e3dd 943e b9ed 753e 5838 db3e
00000030: dac3 193e df47 bc3e 3739 7a3e ed1a 873e
00000040: c8a2 df3e 418c 663e cb79 9fbe a985 503e
00000050: 9a51 8bbc 66c4 963c 923a 0abe 9f58 85bc
00000060: 528c 133d dd77 6bbd 04ea ba3c cac8 a43e
00000070: 84dc ed3d ce48 5bbd df1b 513d 9441 fabd
00000080: 0e9e 8abd 0727 303e 4a14 a53d 74e8 fd3d
00000090: 6ca2 75be 8082 8e3e 8e11 ff3d 8772 e23e
000000a0: ccd8 c43d 7c25 9c3e 18af 893e 3c97 3d3e
000000b0: 0dab ce3e f651 4e3e ea2d ae3d c38d d43d
000000c0: a747 c13e b4c1 0e3e 8627 94bd 750b 203e
000000d0: 415b 50bd e15f 743d 596a 713c 6399 f13d
000000e0: d418 5ebe cb44 023e 4ffc a83e faf7 b63d
000000f0: 2941 503d c8c3 a2be 5f0b a83e 338d b53d
00000100: a3ba c33b 2a06 11be 0278 d7be 8451 b93d
00000110: 8f82 35bd 231f 003c 0601 523e 6a70 c7bd
00000120: 2684 48bd 6d49 75bd 8a83 bfbd 01d9 abbe
00000130: de0f 94bc 222f 733d 63a2 77bd e4e1 64bd
00000140: e674 383d d1c0 453d 8344 943e d2d9 8cbe
00000150: 5ced cfbd eb13 87bd f696 89bd bf0f 94bd
00000160: 64db 793e 9d40 adbd c4c8 13be c28e 5abe
00000170: c455 8d3d 3553 073e c6b3 1e3e c54d 353e
00000180: 19ac be3c 5823 27be 4343 183d f060 edbd
00000190: 8b35 b2bd 5fea 39bd 6ebc 1b3e d4f4 5d3d
000001a0: a651 a0bd b5fe e93d b04d e43d a159 2ebe
000001b0: 7235 3b3d 83fb 33be 771b 49bd c2ef 97bd
000001c0: a9ed 16be 53e3 013e 390b 3ebe 0e0b 26be
000001d0: a106 a63d fbf5 263d 7fe9 35be 9e04 1dbe
000001e0: a010 76bd c151 f3bc 5b97 e43d eb5b 293e
000001f0: 2c19 31be 03ec bbbd 7000 d5bd e38f 493a
00000200: a04c 93bd 343c 03be 29da b03e d3ba 803e
00000210: f428 d4bd 6753 843d 8ea6 2a3e 720b 163e
00000220: 1737 aebc 3b1f 073e 7439 aa3e abe4 4f3e
00000230: 5b3b dc3d 9139 7a3e 3e29 503d 062f a43e
00000240: d807 f23e cbe4 dd3b 1f54 0dbe 43f6 433e
00000250: 2318 55bd 6645 453e 938b 57be 5cc8 ee3c
00000260: 0731 b33c 515e cf3d a544 b93e 0805 973e
00000270: 7c6e 673e 57e6 fcbd cc36 563e a0d2 113d
00000280: 6484 c3bc df43 2a3e 0abe df3d 414f 983e
00000290: 1b13 4bbd 4ab3 f43c d222 c23d 3dd4 bf3e
000002a0: eb53 a73d a17a 533e 44bb 043e 5f2b e73e
000002b0: 9649 833e 3cf3 ce3e 4e9d 4f3e d367 ee3e
000002c0: 206a 8a3e f1d7 91bd cc34 84bd ae32 263d
000002d0: 9682 733e 7fe1 6e3e fefc 14bd e1c2 ba3d
000002e0: ab15 46be 00a6 7fbd 43b5 ae3e af78 f13d
000002f0: 0a6f 093e 4de3 8dbe 598d b73e 901f abbd
00000300: c319 903e da08 ca3d d82b 0bbe ff62 70bd
00000310: dd62 3f3e fc4b 88be 849b 10bf f00a 213e
00000320: ab11 763e 580b 35bd d0fb 333d d65c 9f3b
00000330: 9786 c7bb f741 40be 7b31 20bc fe12 a4bd
00000340: 2b84 a43c 35c3 613e 0b44 77be 1b21 1f3d
00000350: ebb3 fb3c 2778 9a3e 25d9 6a3d 7e7a 853d
00000360: d9dd 5fbd 20fa 303e 5765 d03d 25a5 473e
00000370: f7d1 57bd d704 0dbb 9082 52be adfe a5bc
00000380: 2bf8 373d 4ca6 28be 21de cfbd 9173 9dbd
00000390: 93dc b8bc ffaf f7bc e962 623d 8209 12be
000003a0: 708d e23d 0742 8b3d 3c59 a9bd 048c 2bbe
000003b0: b49f 02be 2ea8 113e 44b7 e6bc cc7c 183e
000003c0: f439 84bd 8dea 883d e777 c8bd 7cf0 d13d
000003d0: 0927 11bc fc21 1cbe 7453 743d 461c a4bc
000003e0: a44c 2f3c 9543 56bd ffea febd 81fd 98bc
000003f0: 64c2 1bbe 1cb3 36bd 8ff2 b53c 5b55 7e3d
-0.18039037 0.19588159 0.26988348 0.24363932 -0.19194658 0.0804614 0.17491737 0.22228108
-0.22885728 0.29075536 0.24016465 0.42816424 0.15016118 0.36773583 0.24435888 0.2638773
0.4367888 0.2251444 -0.31147608 0.20363487 -0.017006684 0.018404197 -0.13498905 -0.01627761
0.03602249 -0.057487357 0.022816665 0.3218444 0.11614326 -0.05353623 0.05105197 -0.12219539
-0.06768428 0.17202388 0.080605105 0.123978525 -0.2398774 0.2783394 0.1245452 0.44228002
0.09611663 0.30497348 0.26891398 0.18514723 0.40364876 0.20148453 0.08504851 0.103786014
0.3774998 0.1394108 -0.07234101 0.1562937 -0.050868277 0.05966175 0.014734828 0.11796834
-0.21689159 0.12721555 0.33004996 0.089340165 0.05084339 -0.31789994 0.32821175 0.08864822
0.0059731766 -0.14162508 -0.42083746 0.09048751 -0.044313964 0.007819924 0.20508203 -0.09738238
-0.04895415 -0.059884477 -0.09351261 -0.33563998 -0.018073972 0.05937112 -0.0604576 -0.05587949
0.045033358 0.048279587 0.2895852 -0.27509934 -0.101526946 -0.06595596 -0.06718247 -0.07229566
0.24400097 -0.0845959 -0.14432055 -0.2134352 0.06901124 0.13215335 0.15498266 0.17705448
0.023275422 -0.16322076 0.03717352 -0.11590755 -0.08701619 -0.04538953 0.15208599 0.054188564
-0.07828073 0.11425535 0.1114763 -0.17026378 0.045705266 -0.17576413 -0.04909846 -0.07418777
-0.14739098 0.12684374 -0.18558969 -0.16215155 0.08106733 0.04076193 -0.17764853 -0.15333793
-0.06007445 -0.02970207 0.11161681 0.1653897 -0.17294759 -0.09175875 -0.10400474 0.00076889823
-0.071923494 -0.12815934 0.34541443 0.25142536 -0.10359374 0.0646122 0.16665098 0.14652804
-0.021266503 0.13195507 0.33246958 0.20302074 0.10753509 0.24436022 0.05082058 0.32067126
0.4727161 0.006771659 -0.13801621 0.1913691 -0.05202497 0.19264755 -0.21049337 0.029148273
0.021873964 0.10125411 0.36185184 0.29496026 0.2260074 -0.12348621 0.20919341 0.03560126
-0.02386684 0.16627453 0.10924919 0.29747966 -0.049578767 0.029870648 0.09479298 0.37466612
0.08170303 0.20652248 0.12962061 0.45150277 0.2564208 0.40419948 0.2027485 0.46563587
0.27034092 -0.07121266 -0.06455383 0.040575676 0.23780283 0.23328207 -0.036374085 0.091192015
-0.19344203 -0.06241417 0.34122667 0.11790597 0.13421264 -0.2771248 0.35850027 -0.083556294
0.28144655 0.098649696 -0.13590944 -0.05868816 0.18690057 -0.2662047 -0.564873 0.15726829
0.24030177 -0.04420027 0.04394132 0.004863362 -0.0060890424 -0.18775164 -0.009777422 -0.08011435
0.020082554 0.22047122 -0.2414705 0.03884993 0.03072544 0.30169794 0.05733599 0.06517504
-0.05465493 0.17282915 0.10175579 0.19496591 -0.052690472 -0.0021517777 -0.20557618 -0.02026304
0.044914406 -0.16469687 -0.101497896 -0.07688058 -0.022566115 -0.030235289 0.05527011 -0.1426144
0.11062133 0.06799703 -0.08268973 -0.1675263 -0.12756234 0.14224312 -0.02816356 0.14891356
-0.06456366 0.06685362 -0.097884946 0.10250947 -0.008859404 -0.15247339 0.0596499 -0.020033013
0.010699425 -0.052310545 -0.12447166 -0.018675568 -0.15210873 -0.044604406 0.022210388 0.06209312

a2c_network.critic_mlp.2.bias f4 [32]
00000000: 5284 673e 0842 6a3e 8c47 cfbd dacb 46bc
00000010: fc93 8b3e 8c1b 923e 0ec1 95bb 8cf1 dabb
00000020: d975 913e dad1 753e 1a10 7e3c 3a00 7e3e
00000030: 6de5 5dbd 8591 e4bd 83c2 39bd 1f90 713e
00000040: 6106 773e b73b 953e 5590 653e c3ef 6bbd
00000050: 9580 8b3e e420 2ebc 1576 59bd 23ed 823e
00000060: f72f 893e ffa1 a0bd 619a eabb c34f 073c
00000070: 9130 893e 4cc5 90bd 1134 733e aede b0bb
0.2260907 0.22876751 -0.10121068 -0.012133563 0.2726134 0.28536642 -0.004570133 -0.0066816267
0.28410223 0.24005833 0.015506769 0.24804774 -0.054173876 -0.11160568 -0.045351516 0.23590134
0.24123527 0.2914712 0.2241834 -0.0576017 0.27246538 -0.010627959 -0.053091127 0.25571546
0.26794407 -0.07843398 -0.0071595167 0.008258763 0.26794866 -0.070688814 0.2375033 -0.0053976392

a2c_network.value.weight f4 [1, 32]
00000000: d9da bb3e 294f 913e 2c77 a3be f361 48bd
00000010: 648f 5b3e c5b4 493e 9020 d0be 8787 15bd
00000020: 9e7a be3e 3060 a93e c132 82be 04a3 ac3e
00000030: ed7c 90be aae1 a5be b959 93be 4ae6 d83e
00000040: f323 eb3e 0f0e 783e fd1c a93e ea5c ddbe
00000050: bfb5 573e 3703 fbbd 3079 e8be 6dd6 033f
00000060: bf14 d33e 6116 adbe fb1c 09be db02 86bd
00000070: 6681 873e 8511 c8be d43f d93e 91f1 5abd
0.36690405 0.28380707 -0.31926858 -0.048921537 0.21441418 0.19697864 -0.40649843 -0.036506202
0.37202924 0.33081198 -0.25429347 0.3371812 -0.2822031 -0.3239873 -0.2877939 0.42363197
0.45925865 0.24224113 0.3302993 -0.4323495 0.21065424 -0.122564726 -0.4540496 0.5149906
0.41226766 -0.33806136 -0.13389961 -0.065435134 0.2646591 -0.39075866 0.4243151 -0.053453032

a2c_network.logits.weight f4 [2, 32]
00000000: df33 523e 5847 8e3e fe30 863d 2090 c1be
00000010: 4a52 57be 362a 2b3e 5b76 1fbe b479 0ebe
00000020: 2603 813e 4a81 58be cd6e 243e b31a 32be
00000030: 4f06 46be 1747 cf3e d62f 00bd 9aff b2be
00000040: 048d 3c3e 7412 893e acaf c83c adda 9cbe
00000050: dfb5 55be 152c 9abd 31ae e43d ba3a 1c3e
00000060: 93ea be3e 956a 813e 2938 89be 1ec7 61be
00000070: 5a77 423e 1e9e b2be e3ee ad3e 5c2c 25bd
00000080: 73f8 1fbe 6341 2abe 504e 2e3d 4919 a63e
00000090: abd2 c03e bbdc 82bd 2eb6 b43e db0d a33e
000000a0: 4068 a8be 21aa 583e 3e6d 2cbd 4a99 3b3e
000000b0: 33c1 d93d fbe4 9abe 1614 8e3d 912c 013e
000000c0: 21ad ddbd 6b14 62be a418 a0bd ff85 803e
000000d0: 921b 3d3e 591f 9c3e 95db 273e 95a8 81bd
000000e0: 6349 1dbe 4e50 d5bd d5a5 3e3e 7910 103e
000000f0: bfe7 7dbe b856 693e 7f40 95be 98a1 7cbe
0.205276 0.27788806 0.06552313 -0.3780527 -0.21027485 0.16715321 -0.15572493 -0.13913614
0.25197715 -0.2114307 0.16057892 -0.17392997 -0.19338344 0.40483925 -0.03129562 -0.34960634
0.18413168 0.2677189 0.02449783 -0.30635586 -0.2087016 -0.07527939 0.11166037 0.15256777
0.3728834 0.25276628 -0.2680066 -0.22048613 0.18990842 -0.3488626 0.3397132 -0.040325508
-0.1562212 -0.16626506 0.042555153 0.32441166 0.37660727 -0.06389757 0.35295242 0.31846508
-0.32892036 0.21158649 -0.04209637 0.18320194 0.10632553 -0.30252823 0.06937425 0.12614657
-0.10824037 -0.22078101 -0.078172 0.2510223 0.18467548 0.30492666 0.16392358 -0.063309826
-0.15360026 -0.104157075 0.18617947 0.14068784 -0.24795435 0.22786987 -0.2915077 -0.24671018

a2c_network.logits.bias f4 [2]
00000000: e13a 573c c23a 57bc
0.013136596 -0.013136568

exp_avg f4 [32, 4]
00000000: 59f5 4dba a375 b1ba a64a f9b7 5548 e93a
00000010: 2a45 41ba 0a72 9bba 3489 39b8 a89c ca3a
00000020: 656c 9f39 a65e 0f3a e20e 9837 e861 1dba
00000030: 5be6 a636 546c 96b9 33f0 c7b7 3f15 8f39
00000040: 49e0 2eb8 6b0d 41b8 b455 dbb7 0668 3f38
00000050: c8bd ebb9 07c9 4bb9 ddad 3db8 b69f 8739
00000060: 8dfe fa39 115e 523a fecd 0438 d995 8bba
00000070: 4016 deb9 b209 b3b9 d08c 0eb8 3a8c a539
00000080: 8403 343a 942e 6e3a 749e d5b7 8e26 9dba
00000090: 71cf 1bba ed37 86ba 0478 14b8 d57e ae3a
000000a0: 2442 1db6 9507 f2b8 bc24 7b38 1da1 5b39
000000b0: 36b3 3eba 9e42 04ba 8eba 8d38 2a09 533a
000000c0: 3e11 19b9 3082 81b9 5000 4c38 bb9e bf39
000000d0: baa3 6ab9 ca8c 1cb9 17be 4eb8 0373 2c39
000000e0: 26db 8e39 a6c4 4c39 25c8 e137 8673 a3b9
000000f0: adfd 623a 5d5e c93a a824 d637 06f0 03bb
00000100: 4893 583a 5f81 b43a 550c 6738 250f f0ba
00000110: be2e 96b5 da17 9438 e5bc 1036 7a29 a5b8
00000120: b531 14ba 5363 17ba 8103 3437 dff5 5d3a
00000130: 7683 c037 0aa4 cd37 3dd9 af36 c181 d2b7
00000140: 48fe 15ba 7f86 fab9 e7d3 e1b8 6040 f139
00000150: fef0 c8ba 3f26 23bb 8153 c3b8 7e06 543b
00000160: 1e9f 383a 8907 963a 039b 3a38 9eed c1ba
00000170: b2af 093a 44af 7d3a 9a9c 3037 5769 a5ba
00000180: d4c1 88ba 14f4 37ba 6aa8 50b6 a589 a43a
00000190: ad40 cc38 0850 8338 3f38 48b7 697c 0fb9
000001a0: cfb1 a5b8 c407 03b9 e521 8837 4390 0739
000001b0: 1ea3 b839 16a6 413a c3ca 9cb7 0446 7bba
000001c0: f08f 553a 4721 6d3a 2f1e b437 9ccd a7ba
000001d0: 7cfd ceb4 5e91 4fb6 bca4 9735 df1d bd36
000001e0: c81d 6239 5be9 5239 e3d6 10b8 7d8a b8b9
000001f0: c810 4aba cfb2 89ba b232 bab7 20e6 be3a
-0.0007856689 -0.0013539087 -2.9717874e-05 0.0017798046 -0.0007372672 -0.0011859548 -4.4235218e-05 0.0015458064
0.00030407603 0.0005469121 1.8126742e-05 -0.0006003664 4.9740024e-06 -0.0002869094 -2.38345e-05 0.00027290915
-4.1693715e-05 -4.6027282e-05 -2.6146743e-05 4.5634828e-05 -0.0004496409 -0.00019434477 -4.5223034e-05 0.000258682
0.0004787337 0.0008024881 3.1663098e-05 -0.0010649516 -0.00042359717 -0.00034148764 -3.398658e-05 0.0003157573
0.0006866979 0.000908592 -2.5465364e-05 -0.001198964 -0.0005943692 -0.0010240056 -3.5397723e-05 0.0013312945
-2.3433322e-06 -0.000115408715 5.9877275e-05 0.00020945487 -0.00072746293 -0.0005045327 6.7581524e-05 0.0008050377
-0.0001459764 -0.00024701795 4.863768e-05 0.00036548622 -0.00022376972 -0.00014929767 -4.9291262e-05 0.00016446043
0.0002724763 0.00019528213 2.691529e-05 -0.00031175854 0.00086590165 0.0015363205 2.5527857e-05 -0.0020132079
0.0008261693 0.0013771466 5.5086177e-05 -0.001831506 -1.1189475e-06 7.061633e-05 2.1567623e-06 -7.875539e-05
-0.0005653159 -0.00057749933 1.0729652e-05 0.00084671186 2.29494e-05 2.4514291e-05 5.2406963e-06 -2.5094372e-05
-0.000572179 -0.00047783923 -0.00010768306 0.00046015065 -0.001533061 -0.0024894623 -9.3138784e-05 0.0032352502
0.0007042753 0.0011446337 4.449022e-05 -0.0014795547 0.0005252316 0.00096773007 1.0526879e-05 -0.0012619895
-0.0010433742 -0.00070172665 -3.1092445e-06 0.0012553228 9.739525e-05 6.261474e-05 -1.1934025e-05 -0.00013683889
-7.9009325e-05 -0.00012496026 1.6228247e-05 0.00012928345 0.00035216747 0.00073871145 -1.8691067e-05 -0.0009585323
0.00081467535 0.0009045791 2.1471727e-05 -0.0012802365 -3.8554924e-07 -3.0930019e-06 1.1298321e-06 5.6361164e-06
0.00021564134 0.00020114092 -3.4532404e-05 -0.00035198397 -0.0007708189 -0.001050556 -2.2196535e-05 0.0014564432

exp_avg_sq f4 [32, 4]
00000000: fb88 d638 62ac 5d39 40c3 ab36 cf12 0f39
00000010: edd2 2739 4d3c 7739 a0db c436 675f 1639
00000020: c471 8a38 05eb 9638 f878 a135 7308 f937
00000030: 4bc1 3937 b065 7c37 9b44 2935 c401 a736
00000040: 55da 6937 b428 5137 1764 3634 1aec 2a36
00000050: acba 6d38 f8e3 cc38 41dd 3836 da54 3138
00000060: 7ed3 4838 6a4b ed38 4a35 2a36 5bd6 8d38
00000070: f15c 0239 609f 0a39 9450 4d36 7111 2e38
00000080: 841d 7039 e9dd 9339 3741 bb36 ce72 0339
00000090: 45e5 8f38 0076 e038 57d4 5736 d26f 9d38
000000a0: f54b a437 4bac 0c38 dcee 4435 96d3 8337
000000b0: f891 cd37 5e3a 8538 358d d435 5fea 4138
000000c0: a56f 8836 2451 5537 9acd 2d34 9e79 0b37
000000d0: d5a1 8538 9fd0 7f38 dd84 9f35 bb9a 9337
000000e0: 41fa 5337 c0db 8837 a864 f834 ea35 1f37
000000f0: 1c59 e039 26ae 123a de54 4137 05f9 8839
00000100: bb7b 4039 827c d339 2758 1337 ec1d 6f39
00000110: df6a 4637 e0d3 0837 14d3 2e34 416f a535
00000120: 6c42 2c38 b702 5138 2997 df35 163f 2338
00000130: f079 9e35 1a84 9635 6059 8a32 660e 5534
00000140: af8b 8839 3547 7f39 8141 b736 0577 a938
00000150: b8dd 883a ae38 c33a abe0 0538 be01 4d3a
00000160: e76f b738 ce8d 6839 ad12 b836 9e49 1539
00000170: dc6c 6639 0128 8339 6270 ae36 1fc9 d638
00000180: 09c9 e039 08b0 063a d3e9 4e37 32db 6e39
00000190: 4a71 0d37 615c 0e37 890e 3534 8571 3936
000001a0: cc8f ab35 cdc7 4736 925c 2a33 2cac 1336
000001b0: 58e4 e337 79cd 7638 4cea bd35 68be 0538
000001c0: b1da 9639 328f c539 ca90 0337 ba5a 4f39
000001d0: a84b f435 55db 1d36 b261 0133 f8ae 8934
000001e0: 622f 9737 84ad 8237 ff8c e034 4e17 0337
000001f0: 2ded 0639 a2e4 1639 6dba 8236 d7b0 e038
0.0001022983 0.0002114042 5.118927e-06 0.0001364455 0.00016004937 0.0002357822 5.866823e-06 0.00014340655
6.601543e-05 7.196333e-05 1.2030641e-06 2.9687048e-05 1.1071864e-05 1.5044046e-05 6.305724e-07 4.9771934e-06
1.3938717e-05 1.2466848e-05 1.6986483e-07 2.5469403e-06 5.6679055e-05 9.7699405e-05 2.7546923e-06 4.2279113e-05
4.7880683e-05 0.000113150876 2.5362992e-06 6.763331e-05 0.0001243239 0.00013220077 3.0594283e-06 4.1501076e-05
0.00022899179 0.0002820336 5.5806263e-06 0.00012535902 6.861476e-05 0.000107031316 3.2161095e-06 7.5071715e-05
1.9585694e-05 3.353906e-05 7.3363276e-07 1.5714944e-05 2.4505876e-05 6.352806e-05 1.5836328e-06 4.623306e-05
4.066113e-06 1.2714681e-05 1.6186678e-07 8.313362e-06 6.372078e-05 6.099103e-05 1.1885091e-06 1.7595818e-05
1.2634847e-05 1.6314792e-05 4.6266837e-07 9.489691e-06 0.00042791 0.0005595408 1.1523456e-05 0.00026125475
0.0001835664 0.00040337822 8.782407e-06 0.00022803963 1.18266025e-05 8.155563e-06 1.6281803e-07 1.2325837e-06
4.1069856e-05 4.983201e-05 1.6658788e-06 3.892098e-05 1.1807406e-06 1.1214318e-06 1.6105957e-08 1.9842409e-07
0.00026044014 0.00024345222 5.4614507e-06 8.080717e-05 0.0010442054 0.0014894211 3.191891e-05 0.0007820389
8.7469634e-05 0.0002217807 5.4858015e-06 0.00014237172 0.00021975063 0.00025016072 5.198687e-06 0.00010241777
0.00042874392 0.0005137925 1.2332998e-05 0.00022779105 8.430632e-06 8.485368e-06 1.6862226e-07 2.7633225e-06
1.2782343e-06 2.976961e-06 3.96654e-08 2.2004924e-06 2.716684e-05 5.884233e-05 1.4149787e-06 3.1887e-05
0.00028773167 0.00037681457 7.84192e-06 0.00019774857 1.8201436e-06 2.352249e-06 3.0124006e-08 2.5645545e-07
1.8022667e-05 1.5578007e-05 4.182584e-07 7.8136345e-06 0.0001286759 0.00014390287 3.8960047e-06 0.00010714091

exp_avg f4 [32]
00000000: 5ec2 bcbb 3f9e b5bb 1bea 2f3b ce9c 88b9
00000010: ff6f dcb9 f099 17bb f68b 6e3b 2992 16bb
00000020: 10de 933b a912 93bb a073 223a 789c acbb
00000030: 46ac 60ba 0242 a5ba af25 c93a 037c c63b
00000040: 7181 ce3b 079e 8038 e835 97bb 3e2a 3039
00000050: 9246 51bb 6c82 3cbc dd53 ad3b 340d 763b
00000060: 6a79 cbbb 1bf4 3c3a dd62 10ba 826d 2e3b
00000070: 607d b83b da93 5637 9d41 ba3a c04a c7bb
-0.005760475 -0.005542546 0.0026842419 -0.0002605677 -0.00042045114 -0.0023132525 0.0036399341 -0.0022975302
0.004512556 -0.0044883084 0.0006197039 -0.005267676 -0.00085705926 -0.0012608173 0.0015346314 0.006057264
0.0063020517 6.1329505e-05 -0.0046145804 0.00016800404 -0.0031932932 -0.011505704 0.0052895383 0.003754449
-0.006209542 0.00072080054 -0.0005507896 0.0026615565 0.0056301802 1.2789818e-05 0.0014210228 -0.006081909

exp_avg_sq f4 [32]
00000000: e31b cb3a 3471 dd3a 1026 bb39 f310 7138
00000010: a844 1538 a92c 1d3a e1c9 453a e36e 2f3a
00000020: 2705 c03a 83eb 983a 8d1f c538 ad87 f539
00000030: 7a6f 5d38 71bb 9439 b11c 1039 bcd0 4a3b
00000040: 60a0 203b 0709 1737 2563 213a 3e2a 3336
00000050: 8b47 aa3a 71cd 113c fafb d13a d3ef ad3a
00000060: 742e 4a3b a9c7 1338 6a24 6337 226a ed39
00000070: 3084 133b 60f1 5c36 7ca1 ed38 474b d03a
0.0015495982 0.0016894699 0.00035695778 5.7474663e-05 3.558831e-05 0.00059957296 0.0007545036 0.00066922436
0.0014649973 0.0011666868 9.399569e-05 0.00046831128 5.2794327e-05 0.00028368414 0.00013743599 0.003094717
0.0024509653 9.002403e-06 0.0006156436 2.6697667e-06 0.0012991292 0.008899079 0.001602053 0.0013270326
0.0030850442 3.523348e-05 1.3538733e-05 0.00045283238 0.002250921 3.2923053e-06 0.000113311195 0.0015891575

exp_avg f4 [32, 32]
00000000: 0123 c338 c49d 5239 20ef 3e38 d3b6 0d37
00000010: c6c1 adb7 590d 0a38 7175 9539 b971 6538
00000020: 3073 ba39 b72f 8739 e57b 9c37 b10d 1239
00000030: b024 8337 4118 c638 b16a 4639 5b95 c239
00000040: c32b 9e39 1b7f c0b4 e6fb 9539 cf0d e637
00000050: 9f13 cc38 a0be 1b39 535e 3839 06c6 da39
00000060: bda0 c338 9223 b639 69d5 dc38 e0c8 9339
00000070: d840 4f39 074e e2b6 36cc 9139 1648 2339
00000080: 6142 ec38 4185 8039 31d5 6638 0354 2e37
00000090: d256 e8b7 8595 2138 fa99 b739 a0bf 8a38
000000a0: 24f8 e439 98a6 a539 3a35 c037 2a57 3339
000000b0: 5fdb a037 e7e1 ec38 d98e 7139 f5da ee39
000000c0: db4c c239 7c75 ecb4 e72c b839 f891 0838
000000d0: aa95 f538 be32 3e39 611c 6239 6a54 063a
000000e0: 31fa eb38 3aa9 df39 3f91 0739 1f7d b539
000000f0: e303 7e39 aa0d 0cb7 2307 b339 1d81 4739
00000100: 0400 0000 0400 0000 0400 0000 0400 0000
00000110: 0400 0000 0400 0000 0400 0000 0400 0000
00000120: 0400 0000 0400 0000 0400 0000 0400 0000
00000130: 0400 0000 0400 0000 0400 0000 0400 0000
00000140: 0400 0000 0400 0080 0400 0000 0400 0000
00000150: 0400 0000 0400 0000 0400 0000 0400 0000
00000160: 0400 0000 0400 0000 0400 0000 0400 0080
00000170: 0400 0000 0400 0000 0400 0000 0400 0000
00000180: 9e2d 44b9 2431 ceb9 616d b9b8 6b82 89b7
00000190: 8613 1c38 01a5 94b8 3c16 11ba 4714 e5b8
000001a0: 4798 34ba 076b 04ba f9c1 17b8 8382 8db9
000001b0: d99f feb7 d8ee 46b9 5249 c2b9 717f 3cba
000001c0: ce7f 19ba 4ac2 3a35 7ca4 11ba 84a5 61b8
000001d0: 004a 4bb9 d04a 99b9 c906 b4b9 3bf7 53ba
000001e0: 1e77 44b9 4767 30ba 59a9 55b9 8c73 0fba
000001f0: 08b2 c8b9 f721 5337 d925 0dba 37d4 9fb9
00000200: 947d 24b9 08da adb9 de5a 9eb8 79c5 65b7
00000210: 9410 0238 775f 78b8 bf8f f8b9 3a02 c1b8
00000220: 5742 1aba efdc e0b9 4995 fdb7 4097 73b9
00000230: eff8 d5b7 4093 26b9 73a8 a4b9 87b7 20ba
00000240: 3781 03ba 7408 1c35 9696 f7b9 832c 3fb8
00000250: 7e31 2ab9 d3cb 81b9 23b5 99b9 b6af 34ba
00000260: 9458 24b9 ac1f 17ba 8f58 36b9 213e f5b9
00000270: f199 abb9 f866 3037 fab2 f1b9 74af 86b9
00000280: 9dbc 0638 fe09 e338 7fcb b437 c3dc b136
00000290: b0be 46b8 b85f 7fb7 034a 2c39 cc0f ab35
000002a0: ca01 6739 5966 1839 dda7 6d37 7caa bb38
000002b0: abff 5b37 39fe 0bb7 c6d9 9338 c2f2 6a39
000002c0: 2d97 3539 be2f 76b4 df20 3c39 02fb b2b6
000002d0: cb13 0c34 6b77 8e38 e8b9 cf38 d698 8639
000002e0: d1f4 a837 38bc 6839 adce 8638 8c16 3939
000002f0: 0af2 dd38 d3cc 78b7 9871 3b39 57d7 c138
00000300: 0d47 0eb9 efaa 97b9 9346 92b8 871e 47b7
00000310: fb2f dd37 b42c 57b8 2c7c d7b9 29a3 a8b8
00000320: c435 06ba 32df c1b9 54bc dbb7 808b 4fb9
00000330: 6b25 b8b7 b4c6 12b9 11d0 91b9 0462 0cba
00000340: d74b e4b9 fa36 0735 224a d6b9 0112 32b8
00000350: b0ff 15b9 a39e 60b9 bb51 85b9 c352 1dba
00000360: 3b90 0fb9 4b02 02ba 139c 1cb9 6fbf d3b9
00000370: e413 97b9 61db 1837 a035 d0b9 c325 6ab9
00000380: 096d ffb8 f57e 86b9 349a 74b8 a51d 33b7
00000390: b5be ca37 7286 41b8 8498 bdb9 846c 95b8
000003a0: 4505 ecb9 f6a5 acb9 daa8 c5b7 567f 38b9
000003b0: cb9c a5b7 70d5 01b9 e052 7eb9 046c f6b9
000003c0: 12a2 c8b9 4243 f334 e503 beb9 dfd1 14b8
000003d0: 19a9 04b9 55dd 47b9 a72e 6bb9 767a 0aba
000003e0: e805 00b9 5539 e6b9 754d 0bb9 8749 bbb9
000003f0: a667 83b9 437f 0937 c13b b8b9 d063 50b9
9.3048446e-05 0.00020085933 4.5522233e-05 8.446822e-06 -2.071344e-05 3.2914195e-05 0.00028506995 5.4703767e-05
0.00035562506 0.00025784757 1.8654342e-05 0.00013928745 1.56335e-05 9.4458934e-05 0.00018922497 0.00037113842
0.00030168713 -3.5855268e-07 0.00028607174 2.7424567e-05 9.731133e-05 0.00014852965 0.00017582746 0.0004172774
9.3282644e-05 0.00034740247 0.00010530168 0.00028187688 0.00019765215 -6.7444084e-06 0.00027808704 0.00015571745
0.00011265721 0.00024513344 5.5034823e-05 1.0390769e-05 -2.7696984e-05 3.8524642e-05 0.00035019201 6.616046e-05
0.00043672428 0.00031595374 2.291297e-05 0.00017103241 1.9175639e-05 0.000112954345 0.00023036766 0.00045558033
0.00037059825 -4.4043907e-07 0.0003512867 3.256087e-05 0.000117103875 0.00018138715 0.00021563612 0.0005124273
0.00011252275 0.00042659958 0.00012928712 0.00034616233 0.00024224776 -8.347832e-06 0.00034146858 0.00019026217
6e-45 6e-45 6e-45 6e-45 6e-45 6e-45 6e-45 6e-45
6e-45 6e-45 6e-45 6e-45 6e-45 6e-45 6e-45 6e-45
6e-45 -6e-45 6e-45 6e-45 6e-45 6e-45 6e-45 6e-45
6e-45 6e-45 6e-45 -6e-45 6e-45 6e-45 6e-45 6e-45
-0.0001870901 -0.00039327994 -8.841861e-05 -1.6392403e-05 3.721148e-05 -7.087924e-05 -0.0005534624 -0.00010923348
-0.0006889146 -0.00050513487 -3.6181857e-05 -0.00026990855 -3.0353594e-05 -0.00018971728 -0.0003705719 -0.0007190621
-0.0005855531 6.957313e-07 -0.0005555821 -5.379833e-05 -0.00019387156 -0.00029238174 -0.0003433733 -0.00080858514
-0.00018736391 -0.0006729257 -0.0002037635 -0.0005472235 -0.00038279616 1.2584488e-05 -0.0005384363 -0.00030484956
-0.0001568704 -0.00033159577 -7.5509524e-05 -1.3695441e-05 3.1009855e-05 -5.9216716e-05 -0.00047409345 -9.203372e-05
-0.0005884519 -0.00042889218 -3.0229467e-05 -0.00023230631 -2.5507497e-05 -0.00015885849 -0.00031406022 -0.00061308633
-0.0005016508 5.812683e-07 -0.00047223706 -4.5579403e-05 -0.000162309 -0.00024756658 -0.0002931739 -0.0006892638
-0.00015673257 -0.00057649123 -0.00017389863 -0.0004677633 -0.00032730357 1.0514392e-05 -0.0004610045 -0.00025689194
3.212375e-05 0.00010826065 2.1552432e-05 5.300711e-06 -4.738447e-05 -1.5221471e-05 0.0001643077 1.274509e-06
0.00022030543 0.00014533977 1.41653845e-05 8.94861e-05 1.31129445e-05 -8.344236e-06 7.05007e-05 0.00022406413
0.00017317822 -2.2927904e-07 0.00017941323 -5.3340345e-06 1.3045717e-07 6.793331e-05 9.905157e-05 0.00025672343
2.0141162e-05 0.00022195361 6.428114e-05 0.00017651374 0.000105831845 -1.4829641e-05 0.00017876027 9.243067e-05
-0.00013568644 -0.0002892832 -6.974968e-05 -1.1868432e-05 2.6367596e-05 -5.1301628e-05 -0.0004110051 -8.041255e-05
-0.0005119706 -0.00036978122 -2.6194532e-05 -0.00019793026 -2.1951933e-05 -0.00013997668 -0.00027811577 -0.00053551816
-0.00043544054 5.037142e-07 -0.00040872494 -4.2455275e-05 -0.00014304998 -0.00021421401 -0.0002542863 -0.0006001407
-0.00013691273 -0.0004959448 -0.00014935462 -0.00040387685 -0.00028815784 9.110984e-06 -0.00039712805 -0.00022330046
-0.00012179657 -0.00025653062 -5.8317746e-05 -1.0676134e-05 2.4169081e-05 -4.6139998e-05 -0.00036162522 -7.125086e-05
-0.00045017354 -0.00032930047 -2.3562858e-05 -0.00017595044 -1.9742545e-05 -0.0001238191 -0.00024254201 -0.00047001254
-0.00038267724 4.5311214e-07 -0.00036242526 -3.5481407e-05 -0.00012651495 -0.00019060572 -0.00022428726 -0.00052825303
-0.00012209231 -0.00043911734 -0.00013284928 -0.00035722202 -0.0002506349 8.195467e-06 -0.00035139735 -0.00019873609

exp_avg_sq f4 [32, 32]
00000000: 0328 f935 15e3 d536 a43e aa36 75f6 0535
00000010: b986 1f37 ab99 f135 1253 a436 d06c 5536
00000020: 75fe c236 c77d 9836 0213 e434 ad66 1036
00000030: 8e49 3335 ca78 8a37 9c25 5937 fdd3 2537
00000040: 807d be36 c48e 4d33 9276 b936 5dfd cd36
00000050: c84a 6c37 e7fb 1136 0066 1336 0481 2237
00000060: 508d 5036 11bb 1037 3d69 1236 43ee 8436
00000070: 0b81 f036 1d19 5635 3691 ef36 a440 5c36
00000080: 1ab3 4036 12cf 2737 42f4 0637 5039 5835
00000090: bff4 7b37 1db9 3b36 2661 0037 e1d7 a736
000000a0: 5fdd 1737 9e10 ec36 b514 3735 329d 5f36
000000b0: 06fe 8b35 00e3 d937 1364 aa37 4dff 8137
000000c0: 43ee 1437 81b7 a633 e049 1037 ed0c 2337
000000d0: 032f ba37 e6c9 6136 2399 6536 2ba0 7d37
000000e0: e4d9 a136 8cdc 6037 6608 6536 ce05 cf36
000000f0: 2fad 3d37 71cb ab35 029e 3a37 3646 ac36
00000100: 1712 a829 40c6 6129 7874 6828 826f db25
00000110: c1a0 fe2a 2bff 802a bfac a123 f910 4e29
00000120: 331a 9e21 0013 2128 12e6 ac26 d2af 7a25
00000130: 3bc0 cf27 0f22 222b aa3a 8629 0445 7825
00000140: 7877 e723 af0e f621 fdfc e426 139b 1529
00000150: 8bd5 b92a a093 6e28 1954 eb23 d0a5 8d23
00000160: 7948 632a e443 c225 2e0d 2a25 7df7 df23
00000170: 700b 6625 a4cb 8629 4cf0 9c25 0c05 b828
00000180: c1bc fa36 c62f d537 8f51 a937 cdb8 0c36
00000190: e421 2038 7ed9 f336 fc8e a337 e0a9 5637
000001a0: 9d6c bf37 86b4 9737 40bc eb35 4c78 0d37
000001b0: 6c40 2f36 92cd 8a38 eb36 5838 1d52 2338
000001c0: 479d bd37 4319 5a34 fc93 b637 eaa7 ce37
000001d0: dc28 6d38 d743 1237 748b 1237 319c 1f38
000001e0: 08c3 5037 570b 0e38 58c8 0f37 94a6 8337
000001f0: 215b ef37 27b4 5f36 1507 eb37 2d6d 5a37
00000200: 9109 a136 b31f 8f37 c33c 6237 e252 7534
00000210: 6e5f d637 cbf0 9536 4b4e 3537 df74 0737
00000220: 16dc 8037 f14a 4237 bf84 b034 91f2 b936
00000230: 9bc3 e935 bac0 3938 589e 1038 4f3f dd37
00000240: c2db 5437 a502 7231 657b 7837 f83b 8937
00000250: a2ba 1d38 de30 c236 159a a236 f757 d937
00000260: 9906 0d37 4602 ba37 e479 c236 e88c 1937
00000270: 09aa 9e37 bb70 8c35 03f6 9d37 0c0f 1337
00000280: 698c 2635 b2c5 1536 cd0e e335 2c6a ba33
00000290: a346 5136 0913 0b35 c013 d935 84e0 8335
000002a0: cdde 0d36 5cc6 de35 ee4e d233 bf2f 5535
000002b0: 6a74 8134 db69 b536 5ea8 9236 970a 6b36
000002c0: 1f58 fb35 d08f 0a32 a463 0836 4299 0636
000002d0: ecac 9936 30d7 4f35 8242 4935 9bc3 6b36
000002e0: d4db 8b35 d4ec 5336 05bb 5135 24b1 b935
000002f0: c3dd 2136 ee05 1534 616d 2e36 3708 9e35
00000300: 0172 7736 7722 4c37 cdfa 1f37 07e8 7a35
00000310: 209b 9a37 e0e0 6e36 fdda 1b37 9c92 cb36
00000320: 5247 3837 ced0 1637 173b 5435 3625 8d36
00000330: df79 aa35 b1b8 0538 eb01 d037 6233 9b37
00000340: aecd 3337 8595 c033 18c3 3337 22e0 4337
00000350: 0798 e237 d735 9136 a246 8f36 8ea7 9937
00000360: d5f6 cd36 fe88 8c37 9184 8b36 505f 0137
00000370: 9c4e 6037 1890 cb35 4b8d 6637 a049 d336
00000380: a72e 4236 7bd3 1d37 b67e f136 87b1 3a35
00000390: e8da 6937 0013 3b36 43d8 f636 f5a3 9d36
000003a0: afd1 1437 ab9e ed36 2678 1f35 928d 5f36
000003b0: d35a 8435 dae1 cc37 0acb a037 0016 7637
000003c0: 198a 0e37 e2f9 8d33 2bed 0d37 a7f8 1337
000003d0: 2769 ad37 680d 6536 c99e 6036 8313 7637
000003e0: 5635 a136 c358 5e37 3a8d 5a36 63b0 cb36
000003f0: 928c 2d37 c1fc 9835 0d07 3637 17dd a336
1.8563591e-06 6.3743305e-06 5.073687e-06 4.9905003e-07 9.508506e-06 1.8000623e-06 4.8972515e-06 3.180281e-06
5.8112732e-06 4.5445954e-06 4.248214e-07 2.1517437e-06 6.678973e-07 1.6507129e-05 1.29429645e-05 9.884124e-06
5.6770514e-06 4.7860127e-08 5.527233e-06 6.1389715e-06 1.40841075e-05 2.175331e-06 2.1964079e-06 9.685991e-06
3.107667e-06 8.626624e-06 2.1816952e-06 3.961644e-06 7.16758e-06 7.9757757e-07 7.13966e-06 3.282018e-06
2.871448e-06 1.0002188e-05 8.043893e-06 8.054967e-07 1.501775e-05 2.7972922e-06 7.652014e-06 5.0021195e-06
9.051843e-06 7.0352826e-06 6.8202945e-07 3.332109e-06 1.0430238e-06 2.5974121e-05 2.031218e-05 1.5496882e-05
8.876962e-06 7.7633565e-08 8.600269e-06 9.718567e-06 2.219482e-05 3.3645133e-06 3.4212796e-06 1.5117267e-05
4.8235397e-06 1.34027905e-05 3.4128548e-06 6.1697565e-06 1.13056e-05 1.2799702e-06 1.1123253e-05 5.134173e-06
7.463837e-14 5.013199e-14 1.2903842e-14 3.8066005e-16 4.523101e-13 2.2914426e-13 1.7528816e-17 4.575591e-14
1.0713431e-18 8.941415e-15 1.1997258e-15 2.1743614e-16 5.766246e-15 5.760123e-13 5.960972e-14 2.1533955e-16
2.5095667e-17 1.6673495e-18 1.5889251e-15 3.321915e-14 3.3010777e-13 1.3243665e-14 2.5514368e-17 1.5357475e-17
2.0186794e-13 3.369964e-16 1.4749615e-16 2.4282524e-17 1.9953195e-16 5.9861214e-14 2.7224518e-16 2.0430292e-14
7.4725544e-06 2.5413825e-05 2.0184349e-05 2.0969194e-06 3.8178536e-05 7.2672838e-06 1.9497696e-05 1.2794946e-05
2.2819551e-05 1.8084665e-05 1.7563652e-06 8.432264e-06 2.611453e-06 6.618643e-05 5.154956e-05 3.8938702e-05
2.2603794e-05 2.0312022e-07 2.1765001e-05 2.4635305e-05 5.6543257e-05 8.718073e-06 8.734747e-06 3.805402e-05
1.2443175e-05 3.3866e-05 8.57011e-06 1.5693986e-05 2.8533455e-05 3.3334452e-06 2.801748e-05 1.3019232e-05
4.7992876e-06 1.706169e-05 1.3484797e-05 2.2847556e-07 2.5555226e-05 4.468578e-06 1.080667e-05 8.073838e-06
1.5361275e-05 1.158075e-05 3.287914e-07 5.541668e-06 1.7416781e-06 4.4286928e-05 3.4479744e-05 2.6374733e-05
1.2687351e-05 3.5217138e-09 1.4810682e-05 1.6359598e-05 3.7605532e-05 5.7873394e-06 4.8459137e-06 2.5909378e-05
8.405791e-06 2.2173987e-05 5.7958405e-06 9.152318e-06 1.8914247e-05 1.0463622e-06 1.8830417e-05 8.765386e-06
6.204414e-07 2.2317804e-06 1.6917126e-06 8.6806125e-08 3.1184543e-06 5.1809235e-07 1.6173508e-06 9.825603e-07
2.1140324e-06 1.6598019e-06 9.793244e-08 7.9418163e-07 2.4112825e-07 5.4065436e-06 4.3707396e-06 3.5023893e-06
1.8726604e-06 8.065356e-09 2.0323578e-06 2.0056764e-06 4.579886e-06 7.742665e-07 7.4975117e-07 3.5131586e-06
1.0420285e-06 3.1579302e-06 7.8130716e-07 1.3835129e-06 2.4119952e-06 1.3878864e-07 2.5991687e-06 1.1774308e-06
3.6872227e-06 1.2167372e-05 9.535533e-06 9.34699e-07 1.8430466e-05 3.5595658e-06 9.289707e-06 6.066939e-06
1.098386e-05 8.989313e-06 7.906214e-07 4.2064594e-06 1.2701456e-06 3.188168e-05 2.4796425e-05 1.8501367e-05
1.071712e-05 8.967894e-08 1.0714655e-05 1.1675091e-05 2.7012093e-05 4.3276045e-06 4.269955e-06 1.8317045e-05
6.138211e-06 1.6753092e-05 4.1579556e-06 7.711191e-06 1.3369743e-05 1.5166615e-06 1.3741966e-05 6.296861e-06
2.8935408e-06 9.407168e-06 7.197111e-06 6.9548736e-07 1.393885e-05 2.787623e-06 7.3565475e-06 4.6980517e-06
8.870308e-06 7.081622e-06 5.9406955e-07 3.3311994e-06 9.8612e-07 2.4423865e-05 1.9168034e-05 1.4667865e-05
8.496013e-06 6.6112776e-08 8.459475e-06 8.819777e-06 2.0672172e-05 3.4131463e-06 3.3471026e-06 1.46672855e-05
4.804383e-06 1.3252898e-05 3.2566736e-06 6.0704056e-06 1.0344333e-05 1.1398444e-06 1.0849687e-05 4.883517e-06

exp_avg f4 [32]
00000000: 93a0 9e3a 081b c23a 0400 0000 bdf2 1abb
00000010: 33c4 03bb 5303 253a 6093 e5ba 0065 caba
00000020: f800 003b 98e3 bcba 0400 0000 6269 9dba
00000030: 0400 0000 1b7a 1a3b 0400 0080 c96f d2ba
00000040: 18cd 7f3a aabb d53a 0400 0000 d827 00bb
00000050: 3ba5 b0ba 4f01 afba 0400 0000 4e19 833a
00000060: e15a e73a 5a13 9d3a d6ad d0ba 7aed a1ba
00000070: f69b c03a c25b feba 1216 0b3b 62f7 5a3a
0.0012102298 0.0014809081 6e-45 -0.0023643218 -0.0020105958 0.0006294746 -0.0017515235 -0.0015441477
0.0019531827 -0.001441109 6e-45 -0.0012009556 6e-45 0.0023571316 -6e-45 -0.0016055043
0.00097580394 0.0016306539 6e-45 -0.0019554999 -0.0013476977 -0.001335183 6e-45 0.0010002048
0.0017650985 0.0011983917 -0.0015920948 -0.0012354099 0.0014694917 -0.0019406008 0.0021222872 0.0008352903

exp_avg_sq f4 [32]
00000000: aff6 ef38 da34 3a39 7d7c 8e2b e7af ed39
00000010: 335c 9f39 3aa1 2e38 e7ad 6939 4d1e 3939
00000020: 45b8 a339 4618 2339 0a69 ae2f e607 e238
00000030: 297a 7735 420e ef39 8214 ea2c e5f2 4f39
00000040: 4579 9c38 5cfe 6339 233b 922f 933e 9439
00000050: e56a 1039 697b fa38 70c1 212a d45a d137
00000060: 0f4c 8439 a16f f838 100e 3d39 4520 cf38
00000070: cf5a 3539 299d 9a39 6fa6 bf39 f58b de37
0.000114423565 0.00017758031 1.0124259e-12 0.0004533522 0.00030395537 4.1634987e-05 0.00022285395 0.00017654263
0.00031227074 0.00015553934 3.172505e-10 0.00010777991 9.2192437e-07 0.00045596255 6.652957e-12 0.00019831544
7.461248e-05 0.00021743163 2.6599264e-10 0.0002827538 0.00013772731 0.00011943916 1.4366785e-13 2.4957037e-05
0.0002523367 0.00011846354 0.00018029683 9.87654e-05 0.00017295334 0.00029490262 0.00036554362 2.6529635e-05
