notebooks/runs/cartpole_onnx/nn/cartpole_vel_info_ep_396_rew_400.501.pth (torch, 41081 bytes, 33 tensors)

a2c_network.actor_mlp.0.weight f4 [32, 4]
-0.11798005 -0.37963256 -0.21900499 0.44918433 0.36878037 0.10049979 0.67531955 0.17721766
0.37805116 0.619907 -0.05667958 0.2214838 -0.09806984 0.48956198 0.4573791 0.4284792
0.3666017 0.48984095 -0.82028055 -0.2508492 0.26403767 -0.5559153 -0.8460721 -0.34042364
0.37664995 -0.59876597 -0.33624044 -0.15089707 -0.060285676 -0.3033258 0.7257347 -0.025636755
0.09411033 0.28732762 -0.58201975 -0.42861336 0.40554136 0.35576236 -0.27893 -0.19057226
-0.16951907 0.3040048 0.6137233 0.4010046 0.13534565 -0.25018993 -0.82363105 -0.33131424
0.40171334 -0.10787542 -0.28141713 0.49515998 -0.044705722 -0.49964982 -0.49154642 -0.342849
0.122853965 0.10635265 0.6166085 0.115873806 0.09079074 0.09759672 0.65862495 0.3663931
0.3285711 0.059274267 0.6302823 0.035690643 -0.07048039 -0.23644279 -0.5568453 -0.27374846
0.50933033 -0.31329235 0.08505857 0.5070176 0.1337609 -0.061802775 0.8764029 0.25650692
0.29279032 -0.5101733 -0.5799902 -0.619768 -0.14932598 0.46688312 0.41546476 0.23661692
-0.26257563 0.31946966 0.7943092 0.33596697 -0.54701763 0.09297017 -0.4625444 -0.24764937
-0.30912167 -0.053757228 -0.22209306 0.5669827 0.031979974 0.1268127 0.10049404 -0.40026248
0.0995013 0.507476 0.64716333 0.5353429 0.09472678 0.3962742 0.19508713 -0.22590724
0.18148945 -0.17661329 -0.45904818 0.032807764 -0.34466743 0.25456122 0.14378938 0.34843442
0.5374674 -0.43862084 -0.19881275 0.27850583 -0.32192254 0.42640832 0.21491513 0.59661996
00000000: 869f f1bd 335f c2be d842 60be 7dfb e53e
00000010: c8d0 bc3e d5d2 cd3d bee1 2c3f 8c78 353e
00000020: ec8f c13e 3ab2 1e3f d928 68bd a6cc 623e
00000030: d7d8 c8bd dea7 fa3e 982d ea3e a061 db3e
00000040: 38b3 bb3e 6fcc fa3e e8fd 51bf 4e6f 80be
00000050: f22f 873e 7750 0ebf 2e98 58bf 024c aebe
00000060: 43d8 c03e ba48 19bf b527 acbe c384 1abe
00000070: 1dee 76bd 854d 9bbe c0c9 393f 2c04 d2bc
00000080: ebbc c03d 9b1c 933e 3fff 14bf 3673 dbbe
00000090: 1ea3 cf3e 7c26 b63e eacf 8ebe 6025 43be
000000a0: 6896 2dbe 84a6 9b3e f81c 1d3f 7a50 cd3e
000000b0: 0d98 0a3e e518 80be 7cd9 52bf 05a2 a9be
000000c0: 5fad cd3e caed dcbd e815 90be 9c85 fd3e
000000d0: 591d 37bd 1ad2 ffbe f9ab fbbe e789 afbe
000000e0: dc9a fb3d 6bcf d93d 0eda 1d3f 3f4f ed3d
000000f0: 7ff0 b93d cae0 c73d a59b 283f e097 bb3e
00000100: 793a a83e 93c9 723d 2e5a 213f 5a30 123d
00000110: 0658 90bd 0f1e 72be 6a8d 0ebf c228 8cbe
00000120: 7963 023f db67 a0be 3033 ae3d e8cb 013f
00000130: 9ef8 083e e824 7dbd f15b 603f e054 833e
00000140: 9de8 953e b89a 02bf 3d7a 14bf 1ea9 1ebf
00000150: e9e8 18be 4e0b ef3e ccb7 d43e b54b 723e
00000160: 5070 86be 8791 a33e d957 4b3f dd03 ac3e
00000170: 5909 0cbf 2567 be3d 9fd2 ecbe cc97 7dbe
00000180: 3245 9ebe 8a30 5cbd 5d6c 63be c725 113f
00000190: 6ffd 023d 30db 013e d2cf cd3d 34ef ccbe
000001a0: 56c7 cb3d f2e9 013f 7fac 253f 3b0c 093f
000001b0: 1d00 c23d 74e4 ca3e ecc4 473e 3a54 67be
000001c0: 5fd8 393e 1dda 34be 5d08 ebbe 6f61 063d
000001d0: 4078 b0be d955 823e 863d 133e ff65 b23e
000001e0: 7797 093f e992 e0be 9295 4bbe 5198 8e3e
000001f0: 08d3 a4be 3152 da3e b612 5c3e 16bc 183f

a2c_network.actor_mlp.0.bias f4 [32]
0.15286757 0.14954919 0.22610964 0.11067066 0.11551884 0.13146877 0.07466408 0.22064005
0.03357691 0.084733486 0.14509134 0.2118272 0.042211875 0.11803542 0.11684428 0.13325281
0.14200464 0.16325833 0.11268239 0.13918628 0.20074116 0.07157716 0.08802843 0.1732998
0.25007108 0.12786184 0.16398898 0.115592666 -0.036199927 0.105237484 0.055337884 0.12498422
00000000: 5189 1c3e 6c23 193e 4989 673e 4da7 e23d
00000010: 2495 ec3d c09f 063e 7be9 983d 77ef 613e
00000020: f187 093d c088 ad3d d392 143e 3be9 583e
00000030: 5ce6 2c3d 8ebc f13d 0e4c ef3d 6d73 083e
00000040: aa69 113e 312d 273e 06c6 e63d d986 0e3e
00000050: 178f 4d3e 0c97 923d 4048 b43d 8175 313e
00000060: 5109 803e 37ee 023e baec 273e d9bb ec3d
00000070: 6046 14bd c086 d73d faa9 623d baf7 ff3d

a2c_network.actor_mlp.2.weight f4 [32, 32]
0.04188899 -0.08687492 -0.033530697 -0.2509093 0.177424 0.15785159 0.15652625 0.036294024
0.08622289 0.01620111 -0.18732823 0.08916894 0.026166702 0.16200463 -0.14673859 -0.007955891
-0.013941015 0.29197347 0.07649897 -0.27383572 0.31365132 -0.097138815 -0.04181913 0.17438981
-0.039516687 0.1822303 -0.14422369 0.08760532 -0.024684446 -0.019256368 0.081487514 0.093790844
0.070161976 -0.2624527 -0.0012445514 0.003508562 0.14564511 0.17096195 -0.05629748 0.23784925
-0.013698838 -0.05248412 -0.044552047 0.09451081 -0.020897338 0.24522153 -0.2503068 -0.17884438
-0.103487186 0.15125443 -0.08287168 -0.025848113 0.002004153 -0.18731603 -0.17833026 0.3176417
0.13044699 -0.02286685 -0.13564733 0.008300911 0.13733831 0.10437945 0.14693877 -0.11286943
0.0862679 0.2963207 0.25887674 0.22220874 0.09364081 -0.18778953 -0.10953021 0.07875197
-0.12720361 -0.04753724 0.14665388 -0.25151953 0.015109833 -0.26494005 0.3416044 0.019358054
0.30631486 -0.20941898 0.19335702 0.15393345 -0.27018508 0.1539438 0.2075486 0.0019603404
0.1606503 -0.041153505 0.116116494 0.12960987 -0.045382723 0.26257423 0.03555359 0.02880725
0.0115307635 0.10109447 0.0734686 0.13891874 0.041949183 -0.13452901 -0.021731947 0.09990021
-0.13812163 0.21434088 0.06865679 -0.21499726 -0.056964397 -0.1662899 0.33439875 0.104120426
-0.014083527 -0.17575271 -0.08128801 0.2760473 -0.080270275 0.22923942 0.20197283 -0.13159113
0.09909585 -0.006708642 0.38630626 0.05595342 0.07540723 0.018173942 -0.0401241 0.1065953
0.08597508 -0.16875163 -0.12767616 -0.110495344 0.014821566 0.22605856 -0.0048898803 0.19626686
0.13675304 0.17073911 -0.16417907 0.15258852 -0.14079174 0.30520728 -0.18364674 -0.14716291
-0.019258402 0.13489391 -0.04369687 -0.068564765 0.26322505 -0.13317527 -0.0773719 0.35973957
0.009996023 0.11546552 -0.16393737 0.16763422 -0.037212167 0.014234942 0.11933247 -0.016537463
-0.02767761 0.21758041 0.12341244 0.09127085 0.03929708 -0.008407362 0.07075169 0.082457215
0.06483115 0.119147114 0.20764978 0.005789899 0.032750666 -0.27350813 0.2786367 0.27751422
0.24560662 -0.27731267 -0.13711737 0.24522668 -0.17486197 0.014381564 0.2965313 -0.070077084
0.14400993 0.047124263 0.057782996 -0.11475576 -0.1659867 0.07396347 -0.015653772 0.23610975
-0.018456416 -0.30057412 0.056230474 -0.053265106 0.16364972 0.30721536 0.2190367 0.25151733
0.012049098 0.1765822 -0.1393532 0.4216932 0.14146273 0.28454307 -0.20124908 -0.23098607
-0.22488071 0.24389048 -0.03263144 -0.22601232 0.061414044 -0.17869191 -0.1591668 0.18874525
0.15778172 0.06442403 -0.060811456 -0.06945859 0.042021193 -0.030947149 0.01266243 -0.17296839
-0.097268425 0.16364375 -0.056254864 0.2484666 0.006605517 -0.109137185 -0.060647584 0.13455549
0.07501794 0.13964108 0.34778494 -0.07192025 -0.0046240073 -0.02899447 0.36736128 0.04149452
0.19923756 -0.30044305 -0.046697248 0.23248927 0.0048206714 -0.038273588 0.17582047 -0.23260595
-0.013862975 -0.036034185 0.2911684 0.10949639 0.0012962775 0.14176305 -0.0054916404 0.096616186
00000000: ca93 2b3d 7aeb b1bd 7c57 09bd 2f77 80be
00000010: a3ae 353e d9a3 213e 6b48 203e 0ba9 143d
00000020: a095 b03d 31b8 843c f9d2 3fbe 359e b63d
00000030: 8d5b d63c 8be4 253e a442 16be 6d59 02bc
00000040: db68 64bc 8c7d 953e 7eab 9c3d 3234 8cbe
00000050: e896 a03e b7f0 c6bd 894a 2bbd 3e93 323e
00000060: 40dc 21bd 949a 3a3e 60af 13be 6b6a b33d
00000070: 0937 cabc 88bf 9dbc ede2 a63d 6a15 c03d
00000080: 15b1 8f3d 3360 86be 3720 a3ba e7ef 653b
00000090: fe23 153e a610 2f3e 3098 66bd c18e 733e
000000a0: 1771 60bc 97f9 56bd 357c 36bd e28e c13d
000000b0: e530 abbc 5a1b 7b3e 3628 80be fb22 37be
000000c0: 17f1 d3bd 71e2 1a3e a1b8 a9bd 6cbf d3bc
000000d0: 1c58 033b c6cf 3fbe 359c 36be efa1 a23e
000000e0: e593 053e 4353 bbbc 22e7 0abe 8b00 083c
000000f0: 6aa2 0c3e e5c4 d53d 1e77 163e 1628 e7bd
00000100: 3aad b03d 59b7 973e 7e8b 843e b08a 633e
00000110: c1c6 bf3d e64b 40be 6051 e0bd b648 a13d
00000120: aa41 02be 69b6 42bd 6f2c 163e 2bc7 80be
00000130: 3c8f 773c 39a6 87be c6e6 ae3e c894 9e3c
00000140: 4dd5 9c3e ee71 56be 62ff 453e bba0 1d3e
00000150: b355 8abe 72a3 1d3e 9f87 543e 0e79 003b
00000160: 8381 243e 9490 28bd 7cce ed3d 73b8 043e
00000170: 3ce3 39bd 2170 863e a4a0 113d 2ffd eb3c
00000180: 87eb 3c3c 9e0a cf3d b576 963d b740 0e3e
00000190: e8d2 2b3d f9c1 09be 3207 b2bc 7b98 cc3d
000001a0: c26f 0dbe 2d7c 5b3e ee9b 8c3d 3e28 5cbe
000001b0: 8053 69bd e647 2abe 5036 ab3e 173d d53d
000001c0: 98be 66bc 85f8 33be 547a a6bd 1256 8d3e
000001d0: be64 a4bd bdbd 6a3e f7d1 4e3e d3bf 06be
000001e0: c4f2 ca3d 2bd4 dbbb efc9 c53e 6a2f 653d
000001f0: 1b6f 9a3d 85e1 943c 2b59 24bd a34e da3d
00000200: b413 b03d 3acd 2cbe 8abd 02be 624b e2bd
00000210: 27d6 723c e57b 673e 4a3b a0bb 2efa 483e
00000220: fd08 0c3e 3cd6 2e3e 8f1e 28be 2a40 1c3e
00000230: b62b 10be 2144 9c3e e40d 3cbe e0b1 16be
00000240: ccc3 9dbc a121 0a3e 7dfb 32bd af6b 8cbd
00000250: 6fc5 863e 195f 08be 2975 9ebd c92f b83e
00000260: 5cc6 233c 3079 ec3d 33df 27be 4ea8 2b3e
00000270: c96b 18bd ad39 693c 9564 f43d 9379 87bc
00000280: 28bc e2bc 66cd 5e3e a9bf fc3d 36ec ba3d
00000290: faf5 203d 08bf 09bc 43e6 903d 54df a83d
000002a0: 32c6 843d 6703 f43d 25a2 543e 31b9 bd3b
000002b0: 9025 063d 4209 8cbe 78a9 8e3e 5816 8e3e
000002c0: 4d80 7b3e edfb 8dbe 7f68 0cbe b41c 7b3e
000002d0: 040f 33be a7a0 6b3c f3d2 973e 9384 8fbd
000002e0: 5777 133e 5f05 413d ddad 6c3d 1105 ebbd
000002f0: 6bf8 29be 297a 973d 573c 80bc c1c6 713e
00000300: e931 97bc dae4 99be ed51 663d 832c 5abd
00000310: cb93 273e 554b 9d3e 284b 603e e1c6 803e
00000320: 9469 453c f7d1 343e 9bb2 0ebe 2ce8 d73e
00000330: 9bdb 103e a1af 913e 3d14 4ebe 9d87 6cbe
00000340: 2147 66be 6dbe 793e 8ba8 05bd c66f 67be
00000350: 4b8d 7b3d 03fb 36be 9ffc 22be 6f46 413e
00000360: 8891 213e bff0 833d 6f15 79bd 4e40 8ebd
00000370: 6a1e 2c3d e084 fdbc 1576 4f3c a01e 31be
00000380: ab34 c7bd 3a92 273e 806b 66bd 076e 7e3e
00000390: 1873 d83b 5183 dfbd 9a69 78bd eac8 093e
000003a0: 01a3 993d 12fe 0e3e de10 b23e ed4a 93bd
000003b0: fc84 97bb d085 edbc c716 bc3e 28f6 293d
000003c0: ee04 4c3e acd3 99be 9d45 3fbd ab11 6e3e
000003d0: b9f6 9d3b c4c4 1cbd 480a 343e 4130 6ebe
000003e0: 8821 63bc 9598 13bd 0614 953e a53f e03d
000003f0: dbe7 a93a 552a 113e 38f3 b3bb b5de c53d

a2c_network.actor_mlp.2.bias f4 [32]
0.10050352 0.08616541 0.08687769 0.07971141 0.13538575 0.020625131 0.15302868 0.028914236
0.035614885 0.07237907 0.06139471 0.0 -0.018765494 0.021693928 0.09885642 0.08274971
0.0040502017 0.086306244 0.123423174 0.05708948 0.031599965 0.055347536 -0.026947636 0.16124894
0.029691197 0.14988689 0.050854474 0.16838482 0.141737 0.1089089 0.0997753 0.042306527
00000000: cad4 cd3d 7e77 b03d eeec b13d bc3f a33d
00000010: 90a2 0a3e 09f6 a83c 8db3 1c3e 8cdd ec3c
00000020: eae0 113d 7a3b 943d 0579 7b3d 0000 0000
00000030: 18ba 99bc 77b7 b13c 3c75 ca3d ae78 a93d
00000040: 8eb7 843b 54c1 b03d 4ac5 fc3d a9d6 693d
00000050: f76e 013d 19b4 623d 4ac1 dcbc 711e 253e
00000060: f43a f33c f37b 193e c84c 503d 126d 2c3e
00000070: 8123 113e a10b df3d fe56 cc3d 9c49 2d3d

a2c_network.critic_mlp.0.weight f4 [32, 4]
0.16339572 0.38449284 0.4134294 -0.09746445 0.28302625 -0.28946272 0.23845452 0.0999582
-0.22294864 0.19781978 -0.13528305 0.003545888 0.00043576612 -0.040533945 -0.109651096 -0.07221218
0.11272939 0.033658125 0.024577571 0.027365942 0.20264152 -0.27184355 0.49633107 -0.20497262
-0.37390417 -0.01517759 -0.55355597 -0.44717658 0.22896954 -0.10408273 -0.4110423 0.041421067
-0.00071600126 -0.37771374 -0.37887016 -0.3340881 -0.61140215 0.10147552 -0.28668907 0.2118017
0.5423137 -0.13599905 0.2819522 -0.16060892 0.03291479 -0.23773417 -0.23724756 0.44819003
-0.0021516401 0.23875743 -0.40023595 0.2506464 -0.17947724 0.15480165 0.17786664 0.069205016
-0.029221982 0.244808 0.29285106 0.15723178 0.14967892 0.40208855 0.07182974 0.32379693
0.03481995 0.15373951 -0.21858618 0.22908239 -0.06171398 0.016009416 -0.0890769 -0.08658206
0.031069772 0.35012043 0.14887613 -0.47439468 0.4028382 0.17393409 0.14097884 0.5126174
-0.39617646 -0.17917909 -0.24354017 -0.2977756 0.0110005215 0.41557238 0.09034723 0.37153682
0.26673076 -0.21338283 -0.07228514 -0.21475412 0.3604093 0.19611438 0.6819724 0.19233143
0.21544722 -0.307044 0.30442253 -0.22726032 0.04646674 0.2916525 0.5939299 0.31915995
-0.030852254 0.05260181 0.07623319 0.28115863 0.05204497 -0.40100583 -0.24630135 -0.32904756
-0.15785494 0.37763098 0.049365703 0.22016689 0.10124282 -0.5172392 -0.15406327 -0.44201946
-0.19612485 0.21911857 0.18640575 0.024936117 0.13694137 -0.20347674 -0.14112252 -0.11327059
00000000: 3551 273e 3fdc c43e 05ad d33e 719b c7bd
00000010: d1e8 903e 7534 94be 6c2d 743e e2b6 cc3d
00000020: a64c 64be 4591 4a3e a487 0abe 2162 683b
00000030: 8a77 e439 ec06 26bd c190 e0bd fbe3 93bd
00000040: abde e63d 1add 093d e756 c93c 8a2e e03c
00000050: 4281 4f3e 142f 8bbe 1b1f fe3e 58e4 51be
00000060: 5e70 bfbe 6dab 78bc d8b5 0dbf 54f4 e4be
00000070: fe76 6a3e 5429 d5bd 2374 d2be 23a9 293d
00000080: 08b2 3bba b263 c1be 45fb c1be 980d abbe
00000090: da84 1cbf 66d2 cf3d e9c8 92be 8be2 583e
000000a0: 12d5 0a3f 5643 0bbe 0a5c 903e aa76 24be
000000b0: a9d1 063d 9670 73be 06f1 72be 2a79 e53e
000000c0: 8802 0dbb d47c 743e baeb ccbe ba54 803e
000000d0: e2c8 37be 5384 1e3e ac22 363e 5cbb 8d3d
000000e0: f062 efbc f3ae 7a3e 93f0 953e 5e01 213e
000000f0: 6e45 193e 8dde cd3e 791b 933d b6c8 a53e
00000100: 5d9f 0e3d e46d 1d3e 0ed5 5fbe 9394 6a3e
00000110: ccc7 7cbd 2e26 833c f36d b6bd ef51 b1bd
00000120: 0986 fe3c fc42 b33e fc72 183e dce3 f2be
00000130: cf40 ce3e c71b 323e c25c 103e e53a 033f
00000140: a4d7 cabe b97a 37be 9862 79be 0b76 98be
00000150: 883b 343c e7c5 d43e f807 b93d 133a be3e
00000160: ef90 883e 0781 5abe 3b0a 94bd 81e8 5bbe
00000170: 9187 b83e 35d2 483e be95 2e3f 88f2 443e
00000180: 329e 5c3e df34 9dbe 45dd 9b3e eeb6 68be
00000190: e953 3e3d 7a53 953e ca0b 183f ef68 a33e
000001a0: debd fcbc ff74 573d 2620 9c3d 06f4 8f3e
000001b0: 1b2d 553d a350 cdbe 6c36 7cbe ec78 a8be
000001c0: baa4 21be d958 c13e b133 4a3d 6e73 613e
000001d0: 6558 cf3d ca69 04bf c3c2 1dbe 6050 e2be
000001e0: f4d4 48be 9e60 603e 26e1 3e3e d446 cc3c
000001f0: 5c3a 0c3e 355c 50be 6c82 10be 69fa e7bd

a2c_network.critic_mlp.0.bias f4 [32]
0.28344133 0.3208145 0.4143189 0.35595128 0.3529135 0.32364434 -0.20665503 0.32064956
0.3643761 -0.12787059 -0.026954582 0.28420216 0.37815794 0.32195896 0.3904451 0.29265603
0.36094755 0.4036626 0.2762392 0.27143145 -0.16127118 0.32562995 0.34496832 -0.026499597
0.37206942 0.36020407 0.34622207 0.32420576 0.35755914 -0.09690294 0.33263975 0.39173877
00000000: 391f 913e cc41 a43e 9b21 d43e 3f3f b63e
00000010: 14b1 b43e b6b4 a53e 609d 53be 2e2c a43e
00000020: 818f ba3e 82f0 02be dbcf dcbc f282 913e
00000030: eb9d c13e ced7 a43e 6ce8 c73e 03d7 953e
00000040: 1ece b83e ddac ce3e 396f 8d3e 10f9 8a3e
00000050: 4624 25be f8b8 a63e b09f b03e af15 d9bc
00000060: e27f be3e ab6c b83e 0544 b13e 4cfe a53e
00000070: fe11 b73e 0c75 c6bd c24f aa3e fc91 c83e

a2c_network.critic_mlp.2.weight f4 [32, 32]
0.03711011 -0.08789438 -0.04008495 0.23999755 -0.23912357 -0.09403571 0.1912607 0.074844725
0.026702672 0.35124913 0.061981272 0.126956 -0.24127163 0.22211637 -0.24550897 -0.041293144
-0.0991212 -0.058452632 -0.14082065 -0.05408246 0.14794679 -0.18706866 -0.1682325 0.035639316
0.20791686 0.0034888505 0.011406164 0.19618858 -0.024491018 0.24834105 -0.079722114 0.0694003
0.19657767 0.109437436 -0.35921323 -0.2754456 0.068885036 -0.10521106 -0.2949793 0.22859143
-0.2076619 -0.2472173 0.2444742 -0.19989923 0.10701902 -0.24653378 0.2652003 0.21611653
0.26755503 -0.19926576 0.14954433 0.056633532 -0.1202708 0.27866977 -0.087682806 0.22789825
0.065247916 0.28122544 0.011830524 -0.13023715 0.2545465 -0.26010323 -0.087395646 -0.23180729
0.12833863 -0.025743846 0.32018802 0.34080046 -0.004242346 0.10274788 -0.2540421 0.089125015
-0.012479287 -0.07199718 -0.39691272 -0.024827344 0.25967 0.47819966 0.20419545 0.21167476
0.12052168 0.13756105 0.12630309 -0.112509646 -0.14136958 0.048725046 0.3198169 -0.14772913
0.4370417 -0.03291594 -0.0021915254 0.19149587 0.28924063 -0.3497935 0.18167418 0.1731325
0.18277055 0.14663664 0.43773305 0.3858686 0.19365756 0.22502059 -0.26956245 0.31772375
0.048283733 -0.12546389 -0.100916006 0.150093 0.2905699 0.23181973 0.1229486 -0.08607345
0.07920147 0.3783654 -0.14489152 0.12601551 -0.060976323 -0.03959422 0.08441673 -0.095973514
0.3595448 0.08129188 0.14255194 0.18346068 0.28326714 -0.31417996 0.35197845 0.30839524
-0.062666714 -0.034438714 0.21614328 0.49563253 0.1202502 0.3271681 -0.21783105 0.12879436
0.16909884 -0.1925675 -0.40263644 0.14196476 0.16149011 0.19427465 0.22778653 -0.045426324
0.32278505 0.38592336 0.026045848 0.10088458 -0.11225562 0.20418604 0.13279866 -0.29750344
0.25070652 0.032277685 0.03317764 0.08456656 0.3357141 -0.23231791 0.09731367 0.24713421
0.3581852 -0.034220744 -0.20581874 -0.1613493 -0.009390584 0.16565765 -0.03002947 -0.110001884
-0.12923646 -0.056311827 0.23706082 0.00031532472 0.06128545 -0.10014395 0.34015247 0.3319084
-0.061495878 -0.23293626 0.018348388 0.29424712 -0.2488553 0.07025246 -0.16402522 0.19280866
0.02263616 0.15907133 0.09549766 -0.18948147 0.07045728 0.04187809 0.009093297 -0.18819143
-0.09471139 -0.01003875 0.25445658 0.3109358 0.13125828 0.31715465 -0.091356725 0.24675916
0.10719437 -0.23978768 -0.3011455 -0.015679866 0.29732972 0.26386487 0.053234972 0.023609115
0.20669223 0.11485853 0.08609635 0.18536128 -0.20742743 -0.059871543 0.0645671 -0.26749885
0.34440878 0.14152877 0.086506866 0.23316507 0.1045833 -0.10541496 0.27557603 0.17427917
-0.010543193 0.14869171 0.36249024 0.2681568 0.13794814 0.33726892 -0.19008754 0.22687754
0.2475482 -0.19747977 -0.24510822 0.0052161124 0.16880316 0.28546727 0.07048212 0.23285788
0.30885682 0.40690836 0.076711126 0.1840451 0.027137151 0.09241765 0.2453619 -0.35221085
0.38017446 -0.0021111788 0.07713883 0.12155315 0.20172271 -0.28355062 0.07930463 0.16887474
00000000: c500 183d f801 b4bd 1e30 24bd ebc1 753e
00000010: cfdc 74be cb95 c0bd d8d9 433e 3148 993d
00000020: 90bf da3c edd6 b33e 13e0 7d3d c100 023e
00000030: e90f 77be 7972 633e b466 7bbe 0023 29bd
00000040: 0e00 cbbd 076c 6fbd 4a33 10be 9285 5dbd
00000050: 5d7f 173e ed8e 3fbe 2445 2cbe 88fa 113d
00000060: 28e8 543e 33a5 643b ebe0 3a3c a9e5 483e
00000070: 63a1 c8bc 1e4d 7e3e 5945 a3bd bf21 8e3d
00000080: a84b 493e bc20 e03d ccea b7be 3507 8dbe
00000090: 9913 8d3d e578 d7bd 8707 97be df13 6a3e
000000a0: 52a5 54be 8826 7dbe 7257 7a3e 62b2 4cbe
000000b0: ca2c db3d 5a73 7cbe 55c8 873e a74d 5d3e
000000c0: f9fc 883e 530c 4cbe 2622 193e 90f8 673d
000000d0: 8a50 f6bd cead 8e3e 0b93 b3bd 295e 693e
000000e0: b3a0 853d c8fc 8f3e d0d4 413c e35c 05be
000000f0: eb53 823e 402c 85be 7dfc b2bd e45e 6dbe
00000100: 346b 033e c2e4 d2bc afef a33e 667d ae3e
00000110: 6103 8bbb 7b6d d23d ce11 82be 2d87 b63d
00000120: ec75 4cbc 4273 93bd 2538 cbbe b762 cbbc
00000130: 77f3 843e 96d6 f43e 9d18 513e 45c1 583e
00000140: 12d4 f63d cedc 0c3e 9955 013e 756b e6bd
00000150: 30c3 10be ea93 473d 0abf a33e 4e46 17be
00000160: eec3 df3e ddd2 06bd b29f 0fbb 7e17 443e
00000170: 5917 943e 2218 b3be cc08 3a3e a549 313e
00000180: 3428 3b3e ea27 163e 8c1e e03e 9290 c53e
00000190: 2b4e 463e cc6b 663e 1704 8abe b0ac a23e
000001a0: 2ac5 453d 9b79 00be 0dad cebd fbb1 193e
000001b0: 94c5 943e 2762 6d3e 7acc fb3d 4747 b0bd
000001c0: 6134 a23d 1cb9 c13e 715e 14be 360a 013e
000001d0: 4fc2 79bd 8d2d 22bd aee2 ac3d c38d c4bd
000001e0: 4216 b83e 5b7c a63d 23f9 113e 1edd 3b3e
000001f0: 6408 913e 32dc a0be 8536 b43e fbe5 9d3e
00000200: 6857 80bd 9c0f 0dbd aa54 5d3e 8cc3 fd3e
00000210: bd45 f63d 9482 a73e 1a0f 5fbe abe2 033e
00000220: 3f28 2d3e 6a30 45be 5d26 cebe 365f 113e
00000230: aa5d 253e efef 463e df40 693e f410 3abd
00000240: 1544 a53e bf97 c53e 1a5e d53c 939c ce3d
00000250: 46e6 e5bd 2516 513e 5ffc 073e 5f52 98be
00000260: 9b5c 803e 9b35 043d 47e5 073d 3c31 ad3d
00000270: b8e2 ab3e bfe4 6dbe 644c c73d c010 7d3e
00000280: 0d64 b73e 0d2b 0cbd 26c2 52be c038 25be
00000290: f7da 19bc 29a2 293e 5d00 f6bc ab48 e1bd
000002a0: 9056 04be 3ba7 66bd 12c0 723e 2b52 a539
000002b0: 7406 7b3d 4518 cdbd 7728 ae3e e6ef a93e
000002c0: 1ae3 7bbd d886 6ebe 5c4f 963c 8fa7 963e
000002d0: ecd3 7ebe 86e0 8f3d 3af6 27be a26f 453e
000002e0: 786f b93c 98e3 223e 4794 c33d 6e07 42be
000002f0: e84b 903d 5c88 2b3d 0dfc 143c 41b5 40be
00000300: 0cf8 c1bd 9279 24bc 2248 823e fa32 9f3e
00000310: 9268 063e 1862 a23e 3c19 bbbd 6fae 7c3e
00000320: b988 db3d e78a 75be be2f 9abe 1073 80bc
00000330: 9a3b 983e 4c19 873e ea0c 5a3d e767 c13c
00000340: 21a7 533e f33a eb3d 4853 b03d 59cf 3d3e
00000350: db67 54be dd3b 75bd c13b 843d 9cf5 88be
00000360: 5956 b03e ebec 103e 832a b13d d3c2 6e3e
00000370: c52f d63d cce3 d7bd 4d18 8d3e 3d76 323e
00000380: 5bbd 2cbc a442 183e 5298 b93e d94b 893e
00000390: 4742 0d3e 83ae ac3e 4fa6 42be 9652 683e
000003a0: 467d 7d3e 2338 4abe a6fd 7abe eceb aa3b
000003b0: bcda 2c3e c428 923e ee58 903d 4c72 6e3e
000003c0: 7b22 9e3e 4b56 d03e b91a 9d3d 5276 3c3e
000003d0: bb4e de3c 7745 bd3d 2640 7b3e fb54 b4be
000003e0: 3aa6 c23e b45b 0abb f7fa 9d3d dcf0 f83d
000003f0: 6690 4e3e 8c2d 91be 776a a23d 80ed 2c3e

a2c_network.critic_mlp.2.bias f4 [32]
0.017557817 -0.016322527 0.22864518 0.20970024 0.21679612 -0.02135896 0.21736577 0.22608995
0.21227433 0.27741644 -0.05886301 -0.06223744 -0.0022584293 0.21421602 0.21951553 0.21165839
-0.09395357 -0.03526589 -0.02071101 0.20513181 0.033826243 0.22074717 -0.052984472 -0.021879649
0.26165536 0.27458352 0.008778677 0.27255264 0.20274743 0.27612537 -0.006944177 -0.0050508506
00000000: 69d5 8f3c d2b6 85bc f621 6a3e a9bb 563e
00000010: cdff 5d3e fcf8 aebc 2295 5e3e 2084 673e
00000020: 715e 593e 8709 8e3e 571a 71bd b0ec 7ebd
00000030: 2802 14bb 725b 5b3e aec8 603e fabc 583e
00000040: bb6a c0bd f772 10bd 23aa a9bc 130e 523e
00000050: 638d 0a3d 8c0b 623e 3f06 59bd f33c b3bc
00000060: b1f7 853e 3696 8c3e 71d4 0f3c 058c 8b3e
00000070: 069d 4f3e 4e60 8d3e fb8b e3bb 9b81 a5bb

a2c_network.value.weight f4 [1, 32]
-0.37775615 -0.29369932 0.3704633 0.34400618 0.40555093 -0.2966181 0.3993753 0.26945835
0.34895244 0.1850903 -0.33811587 -0.40829206 -0.3388739 0.33966002 0.42467615 0.30196765
-0.39703473 -0.4095437 -0.3345715 0.37138775 -0.27214563 0.36376557 -0.36538792 -0.28566658
0.40788615 0.19612674 -0.25353158 0.20334645 0.33049077 0.19739208 -0.23821464 -0.1124923
00000000: 4169 c1be c25f 96be 5ead bd3e 9421 b03e
00000010: 5fa4 cf3e 54de 97be eb7a cc3e 72f6 893e
00000020: e5a9 b23e 5088 3d3e 861d adbe a80b d1be
00000030: e180 adbe ebe7 ad3e 276f d93e 819b 9a3e
00000040: 2348 cbbe b6af d1be f54c abbe 8926 be3e
00000050: ac56 8bbe 7b3f ba3e 2014 bbbe e442 92be
00000060: 74d6 d03e 73d5 483e e4ce 81be 0d3a 503e
00000070: 1636 a93e 2621 4a3e 8aee 73be 5d62 e6bd

a2c_network.logits.weight f4 [2, 32]
0.15567549 0.13191932 -0.20011978 -0.3540225 0.15630788 -0.17139868 0.33675388 -0.36644575
-0.28503275 -0.32587203 -0.3429648 -0.17667092 -0.13334803 0.27104342 -0.1027864 -0.24525721
-0.25141272 -0.03437649 0.22681387 -0.0666088 -0.27660596 -0.30369312 0.087492 0.23946564
-0.09596745 0.3450809 -0.24592176 0.034563508 0.38693303 0.33905673 -0.25234002 -0.08058729
-0.3204721 -0.2659425 0.19348964 0.23869765 -0.27065766 0.34026054 -0.32673857 0.32051343
0.20861083 0.20469946 0.0917319 -0.010341656 -0.074577585 -0.271475 0.2626836 0.18831675
0.2515466 0.17934304 -0.2918737 0.27777407 0.29627743 0.054311316 0.06272983 -0.37637353
0.29855666 -0.117812544 0.11812423 -0.3341383 -0.2955716 -0.08671283 0.26529482 0.187102
00000000: 6569 1f3e dc15 073e 33ec 4cbe 7042 b5be
00000010: 2c0f 203e 2383 2fbe 016b ac3e c79e bbbe
00000020: d0ef 91be b3d8 a6be 1599 afbe 39e9 34be
00000030: 638c 08be 34c6 8a3e ad81 d2bd b524 7bbe
00000040: 2bb9 80be 5dce 0cbd e541 683e 326a 88bd
00000050: 4c9f 8dbe aa7d 9bbe 012f b33d 7b36 753e
00000060: 958a c4bd 72ae b03e ead2 7bbe 7792 0d3d
00000070: 161c c63e d898 ad3e b632 81be f30a a5bd
00000080: eb14 a4be 9e29 88be 2622 463e 286d 743e
00000090: a493 8abe a136 ae3e 474a a7be 561a a43e
000000a0: 149e 553e bc9c 513e efdd bb3d 0d70 29bc
000000b0: 22bc 98bd c5fe 8abe 777e 863e 1bd6 403e
000000c0: b7ca 803e b4a5 373e 7870 95be 6738 8e3e
000000d0: adb1 973e 8b75 5e3d 7f78 803d 08b4 c0be
000000e0: 6bdc 983e b447 f1bd 1eeb f13d 2d14 abbe
000000f0: 2955 97be 7f96 b1bd b9d4 873e ab97 3f3e

a2c_network.logits.bias f4 [2]
0.050823614 -0.050823636
00000000: 6c2c 503d 722c 50bd

exp_avg f4 [32, 4]
3.572942e-05 0.0004217056 -1.7214896e-05 -0.00029508836 -0.0012026749 -0.0028504755 0.00033154228 0.0017340347
-0.00033945023 -0.0009300178 0.00011953396 0.00042906628 -0.0010530592 -0.0024369212 0.00029004712 0.0014338696
0.00012487762 0.00032359222 -3.3637647e-05 -0.00024535003 0.0009867848 0.0028386007 -0.00029447605 -0.0019272218
0.00047475295 0.0012854506 -8.535526e-05 -0.00076754746 -9.623039e-05 -9.921827e-05 2.4336328e-05 -4.889705e-05
0.00010295796 0.00013460379 -5.938253e-05 -6.555423e-05 5.079919e-05 0.00019243425 -3.020869e-05 -0.00018992959
-0.0011363496 -0.0021703392 0.00029422287 0.00085881696 0.0012100262 0.0029248886 -0.0003340948 -0.0018357907
-1.1145382e-05 -3.383431e-05 1.7602753e-07 1.4829145e-05 0.001019564 0.0024413597 -0.00027936962 -0.0015049687
-0.0015510917 -0.0035190217 0.00042367115 0.0020075394 -0.00044184644 -0.0018150156 0.0001433649 0.00091010774
-0.00088570407 -0.00195661 0.00023997639 0.0010702426 0.0014250833 0.003311859 -0.00038895407 -0.0019598817
-9.304386e-05 -0.00027500239 2.5044741e-05 0.00013798368 -0.00070457143 -0.0020457676 0.00026174248 0.00040692755
0.00058343785 0.0013584774 -0.0002149614 -0.00043884976 -0.0002221021 -0.000104853185 0.00014581978 -0.000104556035
-0.0008374254 -0.0016033784 0.00023952313 0.00070045964 0.0010661134 0.0036573256 -0.00024104 -0.002852962
-2.226465e-06 -1.5576978e-05 2.8732036e-06 2.233941e-05 6.9109745e-05 0.00022961956 -3.9326278e-05 -0.00015769308
-0.0013644247 -0.0025942198 0.00035318482 0.0010129422 -3.098572e-05 -9.520772e-06 1.62797e-05 -4.9734444e-05
0.0002191539 0.0004220444 -4.272497e-06 -0.0002616633 -0.00056997954 -0.0010906571 0.00015091263 0.00044947205
-8.404353e-06 -4.0200102e-05 1.5123978e-06 2.2175254e-05 -0.00079030637 -0.0013341354 0.00018319546 0.00037111755
00000000: 2cdc 1538 5e18 dd39 b568 90b7 17b6 9ab9
00000010: 13a3 9dba 0bcf 3abb dad2 ad39 8d48 e33a
00000020: 3df8 b1b9 70cc 73ba 4eae fa38 4df4 e039
00000030: ce06 8aba c1b4 1fbb 7711 9839 aef0 bb3a
00000040: 95f1 0239 d0a7 a939 2616 0db8 53a2 80b9
00000050: 0157 813a d107 3a3b e863 9ab9 d59a fcba
00000060: 43e8 f839 917c a83a c200 b3b8 3d35 49ba
00000070: 4ccf c9b8 6713 d0b8 de25 cc37 cf16 4db8
00000080: 22eb d738 6e24 0d39 8211 79b8 297a 89b8
00000090: 3711 5538 2dc8 4939 ab68 fdb7 d627 47b9
000000a0: 91f1 94ba 403c 0ebb ed41 9a39 3b22 613a
000000b0: be99 9e3a 7daf 3f3b 7229 afb9 ea9e f0ba
000000c0: 0dfd 3ab7 50e9 0db8 1402 3d34 b1ca 7837
000000d0: e4a2 853a 38ff 1f3b 5b78 92b9 5f42 c5ba
000000e0: 004e cbba 639f 66bb 2e20 de39 ec90 033b
000000f0: a0a7 e7b9 d1e5 edba 3954 1639 4c94 6e3a
00000100: 982e 68ba 783a 00bb 2ca2 7b39 6247 8c3a
00000110: dcc9 ba3a c60b 593b 88ec cbb9 5c71 00bb
00000120: 8b20 c3b8 322e 90b9 2c17 d237 b6af 1039
00000130: fdb2 38ba 4912 06bb 7b3a 8939 e458 d539
00000140: daf1 183a f00e b23a 4367 61b9 6b15 e6b9
00000150: 14e4 68b9 a0e4 dbb8 33e7 1839 1845 dbb8
00000160: ab86 5bba 7428 d2ba 8028 7b39 0d9f 373a
00000170: d4bc 8b3a beaf 6f3b afbf 7cb9 c2f8 3abb
00000180: 616a 15b6 4eab 82b7 43d1 4036 8565 bb37
00000190: 03ef 9038 08c6 7039 45f2 24b8 6a5a 25b9
000001a0: 7fd6 b2ba c903 2abb aa2b b939 b3c4 843a
000001b0: aaf6 01b8 68bb 1fb7 6490 8837 f499 50b8
000001c0: adcc 6539 d745 dd39 785c 8fb6 db2f 89b9
000001d0: ae6a 15ba 61f4 8eba 4d3e 1e39 1ea7 eb39
000001e0: 6c00 0db7 889c 28b8 98fd ca35 ff04 ba37
000001f0: 902c 4fba 28de aeba 2818 4039 8e92 c239

exp_avg_sq f4 [32, 4]
6.2764448e-06 1.3021579e-05 1.2638793e-07 1.9767649e-05 0.00027455058 0.00055203435 5.910789e-06 0.0007941546
3.8903097e-05 6.615015e-05 8.5728453e-07 9.963723e-05 0.00017050328 0.00038667303 3.8122275e-06 0.00056898105
5.9839717e-06 3.776395e-06 7.09988e-08 4.0933405e-06 0.0002896318 0.00051770644 5.5225714e-06 0.00073174614
7.578653e-05 0.000115606315 1.3690956e-06 0.0001631511 5.3054177e-06 3.7525167e-06 3.724545e-08 1.2772932e-06
1.8957885e-06 1.5039255e-06 2.5424047e-08 1.7512657e-06 4.669719e-06 2.9696114e-06 4.815114e-08 2.9147861e-06
0.00023306336 0.00043709797 5.5850564e-06 0.0005915447 0.00039092728 0.00066329556 7.392898e-06 0.0009112075
4.3208402e-07 6.6430925e-07 1.1578679e-08 8.519694e-07 0.0002209989 0.00041267017 4.700313e-06 0.00060265354
0.00050745835 0.000958427 1.0776468e-05 0.0013715806 0.00010587195 0.00017051719 2.23361e-06 0.00023815017
0.00015072704 0.00029756175 3.162129e-06 0.00043052956 0.00050608325 0.0009007019 1.0083874e-05 0.0012601033
4.0542136e-06 4.457355e-06 8.5627185e-08 5.5100686e-06 0.0002982138 0.00042979198 5.8210394e-06 0.0005802963
0.00019334877 0.00032070163 3.848767e-06 0.00043851783 2.1060097e-05 2.7172344e-05 4.1066687e-07 3.946418e-05
7.577471e-05 0.00016401814 2.0197022e-06 0.00021659033 0.000112877686 0.00020300387 3.4259845e-06 0.00027810677
3.7083264e-06 3.8822923e-06 2.8498286e-08 2.4383323e-06 5.053959e-06 3.7333912e-06 7.226224e-08 4.2572783e-06
0.00035519342 0.0006980764 7.9117635e-06 0.00101295 1.1537041e-06 1.2536846e-06 1.786248e-08 1.6196352e-06
1.3833291e-05 3.1008603e-05 1.9720635e-07 4.7054597e-05 5.2736734e-05 9.39168e-05 1.1085991e-06 0.00011498593
1.3428362e-06 1.0362654e-06 1.8413635e-08 8.88943e-07 9.389384e-05 0.00016355909 2.0088864e-06 0.0002137822
00000000: 409a d236 4277 5a37 40b5 0734 b4d2 a537
00000010: 8ef1 8f39 66b6 103a 4a55 c636 d02e 503a
00000020: e22b 2338 17ba 8a38 2520 6635 55f4 d038
00000030: 20c9 3239 60ba ca39 92d5 7f36 ac27 153a
00000040: edc9 c836 f96d 7d36 0178 9833 8759 8936
00000050: b9d9 9739 b1b6 073a 874e b936 a7d2 3f3a
00000060: 95ef 9e38 ab71 f238 c4c1 b735 8a13 2b39
00000070: 3105 b236 bfd3 7b36 cef7 1f33 766f ab35
00000080: cc72 fe35 7dda c935 1264 da32 080d eb35
00000090: 95b0 9c36 8949 4736 bdce 4e33 a59b 4336
000000a0: 7862 7439 4c2a e539 4567 bb36 e511 1b3a
000000b0: 5ff5 cc39 03e1 2d3a 8310 f836 1ade 6e3a
000000c0: 2df9 e734 fc52 3235 92eb 4632 e4b2 6435
000000d0: f1bb 6739 a75b d839 62b7 9d36 65fb 1d3a
000000e0: f406 053a f23e 7b3a 94cc 3437 9cc6 b33a
000000f0: 9207 de38 dccc 3239 21e5 1536 f3b7 7939
00000100: 7b0c 1e39 1002 9c39 f634 5436 b3b8 e139
00000110: acaa 043a 151d 6c3a e92d 2937 0d2a a53a
00000120: 6e09 8836 6390 9536 0be2 b733 21e3 b836
00000130: 9459 9c39 b455 e139 5952 c336 071f 183a
00000140: aabd 4a39 d823 a839 a824 8136 dee8 e539
00000150: 37aa b037 2af0 e337 a079 dc34 5786 2538
00000160: 3de9 9e38 49fc 2b39 388a 0736 861c 6339
00000170: bfb8 ec38 70dd 5439 f7e9 6536 dcce 9139
00000180: 90dc 7836 a344 8236 65cc f432 3ba2 2336
00000190: 2d95 a936 2c8b 7a36 962e 9b33 bed9 8e36
000001a0: 4139 ba39 1dff 363a c4bc 0437 f6c4 843a
000001b0: f9d8 9a35 4644 a835 0270 9932 3e62 d935
000001c0: 8815 6837 3c0f 0238 abbf 5334 7d5c 4538
000001d0: a331 5d38 33f5 c438 2dcb 9435 9a24 f138
000001e0: 803b b435 cf15 8b35 032c 9e32 b39f 6e35
000001f0: dfe8 c438 0f81 2b39 68d0 0636 b92a 6039

exp_avg f4 [32]
-0.00025511388 0.0036917755 0.0012292339 0.003322998 -0.00044721647 -0.0029104857 -0.0028857463 0.0005064049
-5.8433765e-05 0.00019721364 0.0044294796 -0.0035802592 0.00018724865 -0.0030939374 0.0050036246 0.0022895178
0.0029527994 -0.004472563 0.0010558148 0.0051965336 -0.0015141318 -0.0014951214 0.0027837092 -0.0051820064
-2.5447744e-05 0.00015434407 0.0053521264 0.00016593668 -0.00044401782 0.0021178178 0.00014148817 0.0031249695
00000000: cec0 85b9 b7f1 713b 3f1e a13a a8c6 593b
00000010: 6178 eab9 d9bd 3ebb ca1e 3dbb 42c0 043a
00000020: c716 75b8 22cb 4e39 2b25 913b c8a2 6abb
00000030: 2d58 4439 a8c3 4abb 72f5 a33b bc0b 163b
00000040: c183 413b 948e 92bb 4463 8a3a af47 aa3b
00000050: d575 c6ba f3f7 c3ba e46e 363b d2cd a9bb
00000060: 9d78 d5b7 6cd7 2139 e460 af3b 4aff 2d39
00000070: 10cb e8b9 16cb 0a3b 715c 1439 4acc 4c3b

exp_avg_sq f4 [32]
0.00010452638 0.0042018895 0.0006057878 0.002902513 5.2581374e-05 0.003849726 0.0010115482 1.3727734e-05
2.2116647e-05 3.3093977e-05 0.003542893 0.0047889776 5.47741e-06 0.0032225566 0.0071849823 0.0016839005
0.0022287157 0.006575785 4.6278845e-05 0.0039631235 0.0024701452 0.00036236338 0.0014909039 0.0025241147
9.342208e-06 5.166637e-05 0.005277296 1.0838814e-05 0.00013484147 0.0007669779 7.5625667e-06 0.0014613174
00000000: 2c35 db38 01b0 893b bbcd 1e3a 1638 3e3b
00000010: d28a 5c38 af4b 7c3b ed95 843a 2b50 6637
00000020: 2387 b937 63ce 0a38 e22f 683b dbec 9c3b
00000030: 98ca b736 8731 533b 0070 eb3b 53b6 dc3a
00000040: a50f 123b af79 d73b 881b 4238 17dd 813b
00000050: 29e2 213b 97fb bd39 6f6a c33a 9e6b 253b
00000060: 7abc 1c37 58b4 5838 2bed ac3b 5ad8 3537
00000070: 3b64 0d39 040f 493a f4c1 fd36 ad89 bf3a

exp_avg f4 [32, 32]
-0.00042057887 -6.1955114e-05 0.00019048898 -3.7309287e-06 0.0003024941 -0.00015550281 -0.00024324341 -0.0003542688
0.00020649843 0.0002210928 -0.00013594293 -6.328426e-05 -0.00014404934 -0.00020311847 -6.601943e-05 -0.00013947948
-3.2850166e-05 -0.00010962889 -0.00032937314 -0.00020096374 -7.410594e-05 5.9749207e-05 -0.000101484584 -3.403358e-05
-0.000360017 0.00010986514 -3.220205e-05 0.00016208828 -1.4485615e-05 -0.00012517603 -0.00022504851 -9.5898235e-05
-0.00035137637 -5.1787083e-05 0.00015911729 -3.1424697e-06 0.0002527299 -0.00012986996 -0.00020320508 -0.00029590214
0.00017256392 0.00018470723 -0.00011357598 -5.279832e-05 -0.00012037456 -0.00016961536 -5.5154193e-05 -0.00011655713
-2.744834e-05 -9.1510025e-05 -0.0002752065 -0.00016790708 -6.181277e-05 4.9918825e-05 -8.4777996e-05 -2.830722e-05
-0.00030077572 9.1875125e-05 -2.6952539e-05 0.00013547466 -1.2095915e-05 -0.00010456728 -0.00018803577 -8.014407e-05
0.00034828144 5.7886144e-05 -8.312574e-05 6.220807e-06 -0.00012928875 0.00014526301 0.00019943218 0.00029752264
-5.8793143e-05 -9.4002084e-05 0.00011097825 0.000116351635 0.000119350065 0.00018790815 6.6268374e-05 0.0001156164
5.1277166e-05 0.00013748687 0.00027281846 0.0001661911 0.00014078489 -2.3561475e-05 8.380021e-05 0.00010957516
0.0002960548 1.1856386e-05 2.5128687e-05 -3.1164378e-05 1.1979038e-05 0.00010246587 0.00018637168 7.958378e-05
0.0005241789 8.652288e-05 -0.00012723157 8.99272e-06 -0.00019723599 0.00021755545 0.00030020016 0.00044662924
-9.077562e-05 -0.0001433701 0.00016665822 0.00017280671 0.00017958606 0.00028166675 9.909858e-05 0.00017392318
7.622203e-05 0.0002051272 0.00041056075 0.00025007786 0.00020927256 -3.613972e-05 0.00012594412 0.00016234002
0.00044552973 1.527811e-05 3.7433696e-05 -4.926956e-05 1.8038925e-05 0.00015398547 0.00028048528 0.00011970531
-0.00037713684 -5.5578625e-05 0.00017078221 -3.3676627e-06 0.00027124633 -0.00013940774 -0.00021810667 -0.00031762206
0.00018519453 0.00019824425 -0.00012190453 -5.6699108e-05 -0.00012919029 -0.00018207813 -5.9201226e-05 -0.00012509523
-2.946363e-05 -9.8249155e-05 -0.00029537285 -0.00018021505 -6.638305e-05 5.3574877e-05 -9.099745e-05 -3.0430198e-05
-0.00032283016 9.857463e-05 -2.8916558e-05 0.00014538059 -1.2984942e-05 -0.00011223874 -0.00020181455 -8.601395e-05
0.00045255804 7.676698e-05 -0.00010329022 7.993112e-06 -0.0001616606 0.00019204966 0.00026020454 0.00038806073
-7.1560964e-05 -0.00011742377 0.00014409258 0.00015629128 0.00015505626 0.0002465386 8.7132976e-05 0.00015024132
6.878644e-05 0.00018210817 0.0003544723 0.00021604236 0.00018898323 -3.0163583e-05 0.000108534114 0.00014583241
0.00038563405 2.0152782e-05 3.3024175e-05 -3.600021e-05 1.5572336e-05 0.00013291046 0.00024216344 0.00010335477
-0.0005859819 -8.627264e-05 0.00026548316 -5.152877e-06 0.00042148968 -0.00021670388 -0.00033892583 -0.00049367006
0.00028768834 0.00030808165 -0.00018939204 -8.82282e-05 -0.00020067001 -0.0002830897 -9.1972084e-05 -0.00019429048
-4.574541e-05 -0.00015281717 -0.0004588754 -0.00027997795 -0.00010333682 8.32622e-05 -0.00014139802 -4.7534893e-05
-0.00050159445 0.00015300549 -4.478871e-05 0.00022580259 -2.0189324e-05 -0.00017441162 -0.00031353952 -0.00013357119
0.0006041728 0.000104102815 -0.00013076402 1.18011785e-05 -0.00020457213 0.0002608827 0.00034629033 0.00052736496
-8.272309e-05 -0.00014877136 0.00019486972 0.0002201679 0.00020595196 0.00033685 0.00011988619 0.00020033686
9.619649e-05 0.00025361383 0.00047226498 0.00028927915 0.00026674694 -3.6246973e-05 0.0001470846 0.00021191264
0.00051456946 4.274066e-05 4.3999135e-05 -3.418824e-05 2.031531e-05 0.00017952388 0.00032203287 0.00013813884
00000000: 2481 dcb9 e6ed 81b8 ffbd 4739 de60 7ab6
00000010: 1298 9e39 780e 23b9 280f 7fb9 27bd b9b9
00000020: 8087 5839 26d5 6739 e78b 0eb9 7ab7 84b8
00000030: f30b 17b9 33fc 54b9 e973 8ab8 3d41 12b9
00000040: 99c8 09b8 90e8 e5b8 b7af acb9 cbb9 52b9
00000050: 5369 9bb8 399b 7a38 1fd4 d4b8 47bf 0eb8
00000060: aac0 bcb9 6667 e638 b010 07b8 3ef6 2939
00000070: 3e07 73b7 af41 03b9 00fb 6bb9 f91c c9b8
00000080: f038 b8b9 f535 59b8 b9d8 2639 38e3 52b6
00000090: d580 8439 b42d 08b9 7313 55b9 5023 9bb9
000000a0: 46f2 3439 f8ad 4139 a42f eeb8 c473 5db8
000000b0: 9a71 fcb8 c7da 31b9 5d55 67b8 2270 f4b8
000000c0: dc40 e6b7 12e9 bfb8 9749 90b9 3710 30b9
000000d0: 7aa1 81b8 ee5f 5138 d7ca b1b8 4b75 edb7
000000e0: 6fb1 9db9 15ad c038 2318 e2b7 340e 0e39
000000f0: 8fef 4ab7 224b dbb8 782b 45b9 0513 a8b8
00000100: 8b99 b639 c6ca 7238 cb53 aeb8 53bc d036
00000110: af91 07b9 be51 1839 ab1e 5139 d0fc 9b39
00000120: a898 76b8 fc22 c5b8 ffbc e838 cf01 f438
00000130: 944b fa38 3609 4539 90f9 8a38 1577 f238
00000140: 7012 5738 5a2a 1039 1309 8f39 9543 2e39
00000150: a89f 1339 e2a5 c5b7 e5bd af38 b7cb e538
00000160: cd37 9b39 caea 4637 72cb d237 7fb6 02b8
00000170: 94f9 4837 f2e2 d638 c46c 4339 37e6 a638
00000180: 0d69 093a 9e73 b538 7769 05b9 70df 1637
00000190: 22d1 4eb9 991f 6439 2f64 9d39 9029 ea39
000001a0: ca5e beb8 9e55 16b9 fac0 2e39 7333 3539
000001b0: 444f 3c39 acac 9339 25d3 cf38 265f 3639
000001c0: 64d9 9f38 6a17 5739 8840 d739 e21c 8339
000001d0: 2d70 5b39 bb94 17b8 de0f 0439 d139 2a39
000001e0: fd95 e939 7e29 8037 2002 1d38 caa6 4eb8
000001f0: 4c52 9737 2977 2139 190e 9339 4d0a fb38
00000200: 73ba c5b9 181d 69b8 0014 3339 0100 62b6
00000210: 1136 8e39 fb2d 12b9 90b3 64b9 8386 a6b9
00000220: c730 4239 c9df 4f39 ffa6 ffb8 34d0 6db8
00000230: 4177 07b9 3aec 3eb9 d54e 78b8 ff2b 03b9
00000240: aa28 f7b7 1d0b ceb8 46dc 9ab9 1cf8 3cb9
00000250: 2137 8bb8 96b5 6038 e2d5 beb8 5a44 ffb7
00000260: 8841 a9b9 dab9 ce38 d691 f2b7 4e71 1839
00000270: e7d9 59b7 b761 ebb8 2e9e 53b9 6362 b4b8
00000280: 5045 ed39 f5fd a038 849d d8b8 281a 0637
00000290: 7083 29b9 f060 4939 106c 8839 a174 cb39
000002a0: 0013 96b8 6841 f6b8 8f17 1739 1fe2 2339
000002b0: 9996 2239 da41 8139 29bb b638 198a 1d39
000002c0: 7041 9038 4af4 3e39 77d8 b939 6e89 6239
000002d0: cd29 4639 cd07 fdb7 cf9c e338 97ea 1839
000002e0: ed2e ca39 c50d a937 7083 0a38 eefe 16b8
000002f0: 56a1 8237 e15d 0b39 41ed 7d39 2bc0 d838
00000300: 949c 19ba 45ed b4b8 8c30 8b39 e0e6 acb6
00000310: 63fb dc39 013b 63b9 dbb1 b1b9 a369 01ba
00000320: e0d4 9639 0586 a139 8a97 46b9 2707 b9b8
00000330: f26a 52b9 a86b 94b9 23e1 c0b8 74ba 4bb9
00000340: c3de 3fb8 8c3d 20b9 3795 f0b9 01ca 92b9
00000350: 88b6 d8b8 0e9d ae38 3e44 14b9 3460 47b8
00000360: 6f7d 03ba 1970 2039 83db 3bb8 6cc5 6c39
00000370: 3e5c a9b7 43e2 36b9 9062 a4b9 3e0f 0cb9
00000380: 5a61 1e3a c651 da38 b31d 09b9 adfd 4537
00000390: 6a82 56b9 15c7 8839 4d8e b539 dd3e 0a3a
000003a0: 9f7b adb8 82ff 1bb9 f155 4c39 dfdc 6639
000003b0: cff4 5739 3e9b b039 686b fb38 8411 5239
000003c0: 19bd c938 79f7 8439 559a f739 64aa 9739
000003d0: 2bda 8b39 e407 18b8 b93a 1a39 de34 5e39
000003e0: 2ce4 063a 6f44 3338 b68b 3838 5865 0fb8
000003f0: cc6a aa37 933e 3c39 85d6 a839 5dd9 1039

exp_avg_sq f4 [32, 32]
2.1660888e-05 7.0644724e-06 1.5945669e-05 1.8939651e-06 1.4425678e-05 6.6127145e-06 7.987334e-06 1.0177571e-05
6.5717645e-06 9.735453e-06 3.8533526e-06 9.597427e-06 1.2275723e-05 3.6502388e-06 2.7941694e-06 5.7148586e-06
5.7616835e-06 4.9364985e-06 2.2351685e-05 6.528167e-06 1.0780906e-05 1.1888002e-06 1.4651097e-06 7.593462e-06
2.405238e-05 8.0760565e-06 6.0115467e-06 8.9757605e-06 7.3457284e-07 2.6867558e-06 1.5973039e-05 4.2666484e-06
1.452612e-05 4.408368e-06 9.737279e-06 1.2232263e-06 8.704882e-06 4.256914e-06 5.1975435e-06 6.6086836e-06
4.14456e-06 5.7007064e-06 2.5484776e-06 6.2214076e-06 8.123378e-06 2.282081e-06 1.7948682e-06 3.8377398e-06
3.5649077e-06 3.1919728e-06 1.4852422e-05 4.3753034e-06 6.8604404e-06 7.5562855e-07 9.3652676e-07 4.725947e-06
1.5964746e-05 5.1572165e-06 3.852546e-06 5.6637537e-06 4.8852473e-07 1.6680127e-06 1.0514934e-05 2.8069062e-06
1.32178275e-05 4.209097e-06 9.357309e-06 1.1471659e-06 8.409437e-06 3.926021e-06 4.8128363e-06 6.2038594e-06
3.8561375e-06 5.6600734e-06 2.3476691e-06 5.6304543e-06 7.4262125e-06 2.1876772e-06 1.6756508e-06 3.485067e-06
3.4134196e-06 2.909233e-06 1.3566787e-05 3.984222e-06 6.2954455e-06 7.1206256e-07 8.8346076e-07 4.4741937e-06
1.4663546e-05 4.7259937e-06 3.6127253e-06 5.284168e-06 4.434091e-07 1.6172086e-06 9.668488e-06 2.5803283e-06
3.089044e-05 9.865892e-06 2.1961223e-05 2.670229e-06 1.9757244e-05 9.180056e-06 1.1265031e-05 1.44025735e-05
9.026032e-06 1.3310368e-05 5.4772786e-06 1.32053065e-05 1.7418153e-05 5.045028e-06 3.9243932e-06 8.163881e-06
8.013691e-06 6.783724e-06 3.181063e-05 9.3305225e-06 1.4775834e-05 1.655138e-06 2.0557238e-06 1.03381935e-05
3.421261e-05 1.1072399e-05 8.442338e-06 1.23779255e-05 1.0427012e-06 3.740261e-06 2.26486e-05 6.028198e-06
1.7017781e-05 5.5613064e-06 1.2518187e-05 1.4933992e-06 1.128682e-05 5.1973316e-06 6.2917875e-06 7.94689e-06
5.165664e-06 7.596289e-06 3.0383558e-06 7.5660696e-06 9.69043e-06 2.8104412e-06 2.2077663e-06 4.520524e-06
4.5366155e-06 3.8666667e-06 1.7658722e-05 5.1617017e-06 8.483437e-06 9.3453446e-07 1.1467292e-06 5.870648e-06
1.887085e-05 6.365143e-06 4.7375465e-06 7.062811e-06 5.7958954e-07 2.0707755e-06 1.2605761e-05 3.3521985e-06
2.3189781e-05 7.447703e-06 1.6646698e-05 2.0055468e-06 1.4996166e-05 7.035369e-06 8.514496e-06 1.0964943e-05
6.8489803e-06 1.0106404e-05 4.110001e-06 1.0123216e-05 1.3057521e-05 3.942204e-06 2.9618475e-06 6.099961e-06
6.0676266e-06 5.2390583e-06 2.383895e-05 6.977834e-06 1.1348661e-05 1.2507342e-06 1.55622e-06 8.042413e-06
2.572792e-05 8.428133e-06 6.339968e-06 9.379241e-06 7.8186366e-07 2.862767e-06 1.701943e-05 4.5254146e-06
4.352588e-05 1.4216605e-05 3.208415e-05 3.7770003e-06 2.9073906e-05 1.3335623e-05 1.6125678e-05 2.0415946e-05
1.322005e-05 1.9642692e-05 7.690026e-06 1.9266714e-05 2.4744135e-05 7.3588108e-06 5.603572e-06 1.1452399e-05
1.1596471e-05 9.896713e-06 4.5020723e-05 1.3093045e-05 2.1689759e-05 2.3792238e-06 2.922268e-06 1.5237269e-05
4.8230035e-05 1.6215214e-05 1.2036121e-05 1.8040517e-05 1.4828945e-06 5.3832664e-06 3.2229847e-05 8.5229485e-06
4.2413783e-05 1.37973675e-05 3.0934832e-05 3.6947658e-06 2.7913033e-05 1.2936624e-05 1.5669964e-05 1.997337e-05
1.2758311e-05 1.8788276e-05 7.5593575e-06 1.8790131e-05 2.410168e-05 7.0672822e-06 5.484413e-06 1.12582065e-05
1.1262288e-05 9.627247e-06 4.400895e-05 1.2882391e-05 2.1120388e-05 2.3098205e-06 2.8483175e-06 1.4611405e-05
4.6976937e-05 1.5735059e-05 1.1706404e-05 1.7472927e-05 1.4417815e-06 5.149925e-06 3.1406238e-05 8.301334e-06
00000000: 67b4 b537 5b0b ed36 10c3 8537 2534 fe35
00000010: d105 7237 c9e2 dd36 5701 0637 56c0 2a37
00000020: 0783 dc36 7455 2337 0c4c 8136 a304 2137
00000030: d4f3 4d37 a0f6 7436 7783 3b36 43c2 bf36
00000040: 7c54 c136 33a4 a536 e17f bb37 870c db36
00000050: a4df 3437 dd8e 9f35 c9a4 c435 58cb fe36
00000060: 18c4 c937 667e 0737 cbb6 c936 9996 1637
00000070: 762f 4535 1d4e 3436 d7fd 8537 3b2a 8f36
00000080: 36b5 7337 98eb 9336 4b5d 2337 bc2d a435
00000090: 2f0b 1237 9dd6 8e36 8f66 ae36 29c0 dd36
000000a0: 8011 8b36 b248 bf36 8306 2b36 7cc1 d036
000000b0: a549 0837 da25 1936 34e7 f035 efc5 8036
000000c0: a63c 6f36 ad35 5636 ab2e 7937 92cf 9236
000000d0: bc32 e636 66d6 4a35 a165 7b35 9393 9e36
000000e0: 08ec 8537 270c ad36 1e45 8136 460b be36
000000f0: 2a23 0335 7be0 df35 4c69 3037 485e 3c36
00000100: 23c2 5d37 de3b 8d36 56fd 1c37 52f8 9935
00000110: 4216 0d37 43bc 8336 f37d a136 bf2a d036
00000120: f863 8136 a9eb bd36 a68c 1d36 3ced bc36
00000130: ae2e f936 02d0 1236 ece6 e035 ffe0 6936
00000140: 1a12 6536 3e3c 4336 e89c 6337 35b0 8536
00000150: 773d d336 9124 3f35 f626 6d35 0821 9636
00000160: 7303 7637 fa93 9e36 2672 7236 a84e b136
00000170: af0d ee34 dd0e d935 d735 2237 b429 2d36
00000180: 5b90 0138 af85 2537 5e39 b837 2f32 3336
00000190: 5cbc a537 0a04 1a37 f1fe 3c37 95a2 7137
000001a0: 836e 1737 984f 5f37 77c9 b736 5c8c 5d37
000001b0: 331d 9237 7648 a936 48ae 8336 9af7 0837
000001c0: 8a72 0637 bf9f e336 676c 0538 4a8a 1c37
000001d0: b9e5 7737 1c26 de35 11f5 0936 3472 2d37
000001e0: 837f 0f38 97c3 3937 91a3 0d37 c9aa 4f37
000001f0: f1f2 8b35 3201 7b36 80fd bd37 d445 ca36
00000200: 68c1 8e37 429b ba36 3405 5237 ce70 c835
00000210: 865c 3d37 bd64 ae36 0b1e d336 a253 0537
00000220: b754 ad36 a0e3 fe36 8ee6 4b36 0be0 fd36
00000230: 1494 2237 039b 3c36 2329 1436 01af 9736
00000240: 3b39 9836 6abe 8136 d121 9437 ae32 ad36
00000250: 1654 0e37 b8dc 7a35 51e9 9935 7bfc c436
00000260: d84c 9e37 2994 d536 37f7 9e36 16fd ec36
00000270: 1795 1b35 a7f7 0a36 557d 5337 55f6 6036
00000280: ad87 c237 48e7 f936 83a4 8b37 0897 0636
00000290: 0b98 7b37 5c11 ec36 7bd9 0e37 12f6 3737
000002a0: 4bd0 e536 ad8e 2937 a4e8 8936 e2d6 2937
000002b0: a011 5b37 4647 8436 27c4 4636 44ae cc36
000002c0: 8498 cb36 2bcb af36 c1f9 c737 2323 ea36
000002d0: 2166 3e37 e6de a735 50df d035 e7ed 0637
000002e0: 4ad2 d737 8e66 0d37 e9bb d436 895b 1d37
000002f0: 43e1 5135 f61d 4036 f3c4 8e37 04d9 9736
00000300: 8f8f 3638 db83 6e37 1892 0638 5f78 7d36
00000310: bde3 f337 11bc 5f37 a145 8737 e942 ab37
00000320: afcb 5d37 5cc6 a437 6904 0137 f49e a137
00000330: a091 cf37 b4eb f636 5106 bc36 ae23 4037
00000340: 778e 4237 0f0a 2637 a2d4 3c38 33aa 5b37
00000350: 67f2 b537 c1aa 1f36 2f1c 4436 92a3 7f37
00000360: 9b4a 4a38 e805 8837 bfee 4937 b755 9737
00000370: de07 c735 e8a1 b436 892e 0738 c9fd 0e37
00000380: 74e5 3138 3e7b 6737 06c0 0138 98f3 7736
00000390: c826 ea37 610a 5937 fe72 8337 7c8c a737
000003a0: 870c 5637 849b 9d37 63a6 fd36 809f 9d37
000003b0: f72d ca37 7e23 ed36 c006 b836 a1e1 3c37
000003c0: 29f3 3c37 b684 2137 4096 3838 7321 5837
000003d0: b02b b137 6a02 1b36 b925 3f36 8223 7537
000003e0: 1a09 4538 c8fe 8337 9f66 4437 d392 9237
000003f0: 3c83 c135 85cd ac36 31ba 0338 f545 0b37

exp_avg f4 [32]
-0.0006072462 -0.00050710124 0.00067161664 0.0010030334 -0.0005443763 0.000886461 -0.0008462107 0.0012261248
0.00082227454 0.0005621867 0.00075855304 0.0 3.7360737e-28 -0.00069177017 0.00042081508 0.00079357077
0.00061291974 0.00025714014 -0.00066147785 0.00060521136 0.0006579883 0.00041020752 6e-45 -0.0007853438
0.0007199654 -0.0005901943 0.0003978455 -0.00047012538 -0.00087057304 -0.0005425461 0.0010033485 0.00045272577
00000000: 9a2f 1fba fdee 04ba 6e0f 303a 3778 833a
00000010: 7ab4 0eba 6461 683a 3dd4 5dba ecb5 a03a
00000020: e98d 573a b65f 133a a2d9 463a 0000 0000
00000030: 43cd ec11 e957 35ba d8a0 dc39 a207 503a
00000040: 59ac 203a c4d0 8639 0767 2dba 0ca7 1e3a
00000050: d97c 2c3a 1f11 d739 0400 0000 88df 4dba
00000060: 0fbc 3c3a 45b7 1aba eb95 d039 297b f6b9
00000070: 2b37 64ba a739 0eba ca82 833a d35b ed39

exp_avg_sq f4 [32]
0.00017504806 0.00011479847 0.00010443432 0.00024433856 0.00013814353 0.00018584264 0.0003504327 0.0003434983
0.00017241912 0.00019950379 0.00012811001 0.0 1.2210535e-07 0.0002220341 9.221886e-05 0.00013262585
0.00018050657 3.1410946e-05 0.0002081821 7.885566e-05 0.00023985941 8.624455e-05 2.895562e-12 0.00030132965
0.000105519764 0.00016603596 8.8171575e-05 0.00010394638 0.00036841322 0.0001328767 0.00019348253 4.296414e-05
00000000: 1b8d 3739 f6bf f038 c003 db38 911a 8039
00000010: 9fda 1039 c1de 4239 48ba b739 9017 b439
00000020: 68cb 3439 e431 5139 4555 0639 0000 0000
00000030: 101c 0334 d3d1 6839 a065 c138 7b11 0b39
00000040: 5d46 3d39 3fbf 0338 754b 5a39 4f5f a538
00000050: c582 7b39 31de b438 cfc1 4b2c c8fb 9d39
00000060: 7e4a dd38 f019 2e39 c1e8 b838 cafd d938
00000070: 9627 c139 d154 0b39 92e1 4a39 6534 3438
