notebooks/runs/cartpole_onnx/nn/cartpole_vel_info_ep_486_rew_402.37134.pth (torch, 42032 bytes, 36 tensors)

running_mean_std.running_mean f8 [4]
00000000: f652 8967 d029 afbf b237 6bec 6375 49bf
00000010: d219 2722 3818 633f 0eac 3aea ec3a 703f
-0.060865891112063794 -0.0007769334705132107 0.002330884585919104 0.003962445687345285

running_mean_std.running_var f8 [4]
00000000: 8d2b 9288 23bf e23f dd33 1c3e 184e e63f
00000010: 6bab 7f5d f84e 783f 638b 9636 d968 cb3f
0.585832373371305 0.697033044155997 0.005934686829258999 0.21413722196038085

running_mean_std.count f8 []
00000000: 0000 0000 0260 2e41
995329.0

a2c_network.actor_mlp.0.weight f4 [32, 4]
00000000: 1024 75be 51ba d33c 9db4 263f 6dab 92be
00000010: 7215 df3d d316 4fbe 787f c5bd c37e 4b3e
00000020: b388 963c 854b e6be 1ed5 eabd e3bf 8fbe
00000030: 3779 0c3e e4e5 a3be c4ab 93be 4bfc 0c3c
00000040: da80 86be f184 90be 0aa2 c53e 52c0 b9be
00000050: 1b0b 85be 2888 c9be b9bb a43e 20c9 b4be
00000060: fbb8 b1be 9a6d 183f 5890 bf3e 82ce a53e
00000070: 93a1 813e 26cc 123c 4b8c 063e 36f1 863e
00000080: 1593 1bbf 3853 b3be 2c46 4bbe 9a77 9abe
00000090: 59e6 14bf d68e 213e 874e 8bbd 9aad 8abe
000000a0: 1679 ac3e 139b 5e3e fb95 ae3e 3aaf b73e
000000b0: 7ae3 67be e038 1dbf a999 3dbd 231c 93be
000000c0: 2212 8fbe 56e0 2dbe 2174 e23e 5fbe 0e3f
000000d0: 95fd 85be b80d 08be e4f8 a4be 07a9 1fbe
000000e0: ccc0 e2be dacc 46be 45c1 a03d 0145 0d3f
000000f0: 797e 85be ec55 8fbe 8c76 d4bc 4ccd 91bd
00000100: d4eb a73e bffe 623e 48b4 683e 4c5c 70be
00000110: b9a5 a0bc b330 15bc d65d 5f3e 0315 c93d
00000120: d055 3abe eed0 cd3e 21fb 083f 04b8 ab3d
00000130: 98b3 93be ef52 4ebe 60f9 aa3e d410 1a3e
00000140: 6a2b b5be 422f 44be 8b6a e3be a510 0cbe
00000150: c337 c1be 61be 89be 4841 05bf 578c c3be
00000160: 521f 9bbe fa8c 29be 656b 08bf adc3 903e
00000170: f73f 90bd 21d5 5c3d 16d3 2b3e e26f cabe
00000180: 3e50 d43d be56 823e d6a8 fdbd 82e4 8c3e
00000190: 84d3 94be 387f fc3d b4c4 c3be 1007 2bbd
000001a0: 70c8 06be a668 113e 647f 18bf 1f72 ccbd
000001b0: 641e 7e3e 48ee 85be cca7 a1bc 8502 f0be
000001c0: 5a5c b93e a860 85be 289f c53e 40b3 f5be
000001d0: 98b4 c03e 2f22 803c 20ff 303d b098 913e
000001e0: 49da 923e 4b74 a8bd 4073 68be a701 16bf
000001f0: 12e8 bb3e b341 873e 74bb fb3e 66db ce3e
-0.23939538 0.025845679 0.65119344 -0.28646412 0.10892762 -0.2022355 -0.09643453 0.19872575
0.01837573 -0.44979492 -0.1146643 -0.28076085 0.13718115 -0.3201133 -0.28841984 0.008605073
-0.2627018 -0.28226426 0.38600188 -0.3627954 -0.25985035 -0.3936169 0.3217447 -0.35309696
-0.3471144 0.5954224 0.37414813 0.32384115 0.25318584 0.008959806 0.13139455 0.26355904
-0.60771304 -0.35024428 -0.19850987 -0.30169374 -0.5816398 0.15777144 -0.06802087 -0.27085572
0.3368613 0.21738844 0.340988 0.35875875 -0.22645369 -0.6141491 -0.04628912 -0.28732404
-0.27943522 -0.16980109 0.44229224 0.55759233 -0.2617003 -0.13286483 -0.32221138 -0.15591823
-0.44287717 -0.19414082 0.07849363 0.55183417 -0.26073053 -0.2799524 -0.025935434 -0.071192354
0.3279711 0.2216749 0.22725022 -0.23472708 -0.019610273 -0.009105849 0.2181314 0.09818461
-0.18196797 0.40198463 0.5350819 0.083847076 -0.28847957 -0.20148824 0.33393383 0.15045482
-0.35384685 -0.19158652 -0.44417223 -0.13678224 -0.37737855 -0.2690306 -0.52052736 -0.38193008
-0.30297333 -0.16557685 -0.5328887 0.2827429 -0.0704345 0.053914193 0.16779742 -0.39538485
0.103668675 0.25456804 -0.123857185 0.27518088 -0.29067624 0.123289526 -0.3823601 -0.041754782
-0.13162398 0.14200076 -0.5956938 -0.09982704 0.2481628 -0.26158357 -0.019733332 -0.46876922
0.3620327 -0.26050305 0.3859799 -0.4798832 0.37637782 0.0156413 0.043212056 0.28436804
0.28682163 -0.08225306 -0.22700214 -0.5859627 0.36700493 0.26417312 0.49166453 0.40401763

a2c_network.actor_mlp.0.bias f4 [32]
00000000: 87ac 733d 0df8 483d 076b c43d 5216 4b3c
00000010: 57dc be3d 9a90 2c3e 264a 233e 58de 7b3e
00000020: a969 003e 00ff 113e d3bc 673e e8bc 8c3d
00000030: 0d92 523e aae2 a43d 9525 863e 9834 2c3d
00000040: 5007 463d 9483 863e 1fc3 d93d 49e0 563e
00000050: 9012 cd3d 62d1 e73d 8ad7 b93d 2806 803d
00000060: 5125 133e d01d b83c 37bd e83c a2b9 893d
00000070: ddd0 053e e30c 903e 6f95 9fb9 bb56 943e
0.059490707 0.049064685 0.09590726 0.012395458 0.0931937 0.16852036 0.15946254 0.24596536
0.12540306 0.14257431 0.22630624 0.068719685 0.20563526 0.08051045 0.26200548 0.042042345
0.048346817 0.2627226 0.106329195 0.20983995 0.10013306 0.113192335 0.09074314 0.06251174
0.14369704 0.022475153 0.028410537 0.0672486 0.13067956 0.28134832 -0.0003043818 0.2897242

a2c_network.actor_mlp.2.weight f4 [32, 32]
00000000: b370 a43d 4a7f d9bd 4f05 433c fa7e b43d
00000010: e957 8ebc cb57 46be 2ae5 30be 9849 f6bd
00000020: dede 8e3c 1ff4 c1bd d81a fd3d f39f d03d
00000030: 9056 d43d a9d8 a4bd dd9a 3ebd a06d 113e
00000040: ccba 0bbe 2398 2fbe e3aa 9f3d 31d9 903d
00000050: 478c 19be e870 90bd 8b46 0bbe ba1f 58bd
00000060: 3a92 5d3d 6f1f fc3d 9f4d 97bd 2530 04bd
00000070: 2e8f 54bd 7d04 863d 4524 283e fbdb 19be
00000080: ac70 38be 1cd0 b1bd 1a99 023e e268 64bd
00000090: fa38 5f3d 54ff 29bd 9943 bfbd e1a2 ba3c
000000a0: fc21 a73c e04e 6ebd be0f d13c 4996 223e
000000b0: 01ff 46bd ac4c 02be 6d85 f5bd f698 9c3d
000000c0: cc6b 8ebd e817 693d 409d 37bd 4406 85bb
000000d0: f9a2 42be 52e9 7fbd 2fe7 2cbe f45f 663c
000000e0: 59cf 0dbe b254 24be 9a41 373e 91c8 b43d
000000f0: 61bf fcbd 6241 98bc 9c5c eabc f68d a83d
00000100: 5339 793e 9234 40bd 702a 133d f3c2 27be
00000110: 5e2f 373e a161 86bd b3ff 883d 9754 15bd
00000120: cf59 34be bc53 613d c0d1 b23d aca3 753d
00000130: e074 c03d a2db 963b 3852 0f3e b5dd 72be
00000140: 12e5 893d 997c 9f3e 8eaa 753d daea 2c3e
00000150: e22f 2f3d 7559 9ebd b10f e63d a9df 75ba
00000160: 2289 ddba 7fdd a4bd 2073 48bd affa 9dbd
00000170: 2d8a 21bd 0b88 833e 2273 89bd c011 c93e
00000180: 571b cb3d f33f 6a3d c572 b2bd 44b2 143e
00000190: 7e7f cd3d 2218 3d3e 6857 ac3e 3a83 113e
000001a0: 44da 1abe 36a5 36bd 4e82 543e 1924 8dbe
000001b0: 5bf9 b63d b3a3 80be 5c82 0d3e 7138 95bd
000001c0: b581 7fbd 8c0f f53d d7d1 4d3e 07f1 233e
000001d0: 80de 8cbd 2024 ec3b 391b ab3d d6c7 81bb
000001e0: 7678 113e ec6d 8cbd 17a5 313e 9bb8 54bd
000001f0: 1ed6 663c 8bc4 823e 00f8 cabc 4606 023e
00000200: 2aa5 9bbc be1e 503e a1e7 aa3d 549d 923d
00000210: c441 2e3e 3782 12be 1920 0a3d f1fa 343e
00000220: adbb 983d 6d76 0a3e 89a8 853e e678 09be
00000230: f0ee 293e cc5b d1bd 6e5b 273e 285d a0bc
00000240: 5ca9 1e3e ad43 763e 43f6 543e cf72 e5bd
00000250: 38a9 12be f197 33be 8a09 0b3e 98ce ffbd
00000260: e3cb 363e f4f4 0bbe 36d8 e13d 5848 28be
00000270: 55e2 10be 3011 763e 1db7 b93c fbad 1e3e
00000280: e93a 31be db43 c83c 478a 5e3e d63d 0fbe
00000290: eb5c 283e 9696 97bc e5d0 a8bd e841 923c
000002a0: e75e 6b3d 761b 823e f875 94be 2c9d 0a3e
000002b0: 7ac8 5cbd bfb2 6aba 23e5 8a3d 264d 7f3e
000002c0: 4f1f 833d c2e6 17bd 85e4 273d db66 1c3d
000002d0: cefc 18bb 409f 983e 6911 143e 8f19 893d
000002e0: 4210 6dbe 3b82 403d 40ff 85bd 0222 4c3e
000002f0: 27eb 203e 53ea 7e3d a207 903d cb28 07bd
00000300: ce89 3d3b 6e5c 2b3e d42e 553c 9ae6 5b3e
00000310: 13e7 223d 2a4f 3cbe 7a7d bcbc c9e0 4f3d
00000320: c6e3 5c3d 1373 03be da5f b03d cdb4 cf3c
00000330: ad8a 323e 7b5e 803d 8d65 b8bc 6834 7b3d
00000340: 0e29 083e 7cc1 27bb 1e61 97bd ac86 ab3d
00000350: b992 c0bb bdc4 05be ad96 bbbd 6435 c0bd
00000360: af22 103e 70e9 c83b 120f 0f3e 0aae 45bd
00000370: fd1f 803d 534f 013e 002c 1d3e 7992 f03d
00000380: 9c3e d0bd 56d9 dc3d 61e1 b23d b6d1 453d
00000390: 541f 433e d173 323e 4ef4 d5bc 2ef4 413d
000003a0: cf93 473e e190 7cbc 0b29 63be 680d 503e
000003b0: 4296 593a 81c4 8f3e 3061 adbc 64ab b23d
000003c0: 3327 20bd 48ec 26be 883f 18be 724d 9c3d
000003d0: 4c86 553e 861a 2a3e 1c92 95bc e49b 883e
000003e0: f9c7 db3d d83b 8ebc ffda 373d fe5c 8e3e
000003f0: a255 6e3c 7f1e 22be ebd5 513e 07c1 3fbe
0.08029308 -0.106199816 0.011903121 0.08813281 -0.017375903 -0.19369428 -0.17274919 -0.12025756
0.017440256 -0.094703905 0.12358636 0.10186758 0.10368073 -0.08049137 -0.046534408 0.14201975
-0.13645476 -0.1714788 0.07796266 0.07072676 -0.14994918 -0.07052785 -0.13601129 -0.05276463
0.05409453 0.12310683 -0.07387852 -0.032272477 -0.05189436 0.06543825 0.16420086 -0.15025322
-0.18011731 -0.08682272 0.12753716 -0.055764087 0.054497696 -0.041503266 -0.09339065 0.022782745
0.020401947 -0.05818069 0.025520202 0.15877642 -0.048583034 -0.1272456 -0.119883396 0.076463625
-0.06954154 0.056907564 -0.0448277 -0.004059585 -0.19007482 -0.06247837 -0.16885065 0.014060963
-0.13848628 -0.16047934 0.17896119 0.088273175 -0.1234119 -0.018585864 -0.028608613 0.08230202
0.24338274 -0.046925135 0.035929143 -0.16382961 0.17889163 -0.0656159 0.06689396 -0.036457624
-0.17612384 0.055011496 0.08731413 0.059970543 0.09397292 0.004603819 0.13996208 -0.23717387
0.06733145 0.31149748 0.059977107 0.16886464 0.042770274 -0.07731906 0.11233462 -0.0009379336
-0.0016901831 -0.080500595 -0.048937917 -0.0771383 -0.039438415 0.2568973 -0.06711413 0.39271355
0.09917324 0.057189893 -0.08713297 0.14521128 0.10034083 0.18466237 0.33660436 0.14210215
-0.15122324 -0.04459115 0.20752832 -0.27566603 0.089342795 -0.25124893 0.1381926 -0.07286156
-0.062379558 0.11965856 0.20099579 0.16009913 -0.06878376 0.007206455 0.08354802 -0.00396059
0.14206108 -0.068569034 0.17348133 -0.051933866 0.014089135 0.25540575 -0.024776459 0.12697706
-0.018999655 0.20324227 0.08344961 0.07158914 0.17017275 -0.14307486 0.033722017 0.17673852
0.07457671 0.13521738 0.26105145 -0.13425025 0.16595054 -0.10222587 0.16343471 -0.01957567
0.15494293 0.24049254 0.20797066 -0.112035386 -0.14322364 -0.1753843 0.13577858 -0.124905765
0.17851214 -0.13667661 0.11027567 -0.16433847 -0.14148839 0.24029994 0.022670323 0.15496056
-0.17307629 0.024446419 0.21732436 -0.13988432 0.16441695 -0.018504422 -0.082429685 0.017853692
0.057463553 0.25411576 -0.28996253 0.13536519 -0.053902127 -0.0008953027 0.067819856 0.24931774
0.06402456 -0.037085302 0.040989418 0.038184028 -0.0023344043 0.29808998 0.14459766 0.06694328
-0.23150733 0.046999197 -0.06542826 0.19934848 0.15714704 0.062235188 0.07032706 -0.032997888
0.002892125 0.16734478 0.013011653 0.21474686 0.03977115 -0.18389574 -0.02300905 0.05075148
0.05392816 -0.12836866 0.08612032 0.025354767 0.17435713 0.06268021 -0.02250936 0.061329275
0.13296911 -0.0025597503 -0.073915705 0.08375296 -0.0058768657 -0.13063331 -0.091595985 -0.093851835
0.1407573 0.0061313435 0.13970593 -0.04826168 0.06256101 0.12627916 0.15348816 0.117466874
-0.10168192 0.10783641 0.08734394 0.0482957 0.1905492 0.17426993 -0.02611747 0.04735201
0.19489978 -0.015415401 -0.22183625 0.20317614 0.0008300283 0.28079608 -0.021164507 0.087240964
-0.039099883 -0.16301072 -0.14867985 0.07631959 0.20852011 0.1661168 -0.018258147 0.26681435
0.10731501 -0.01736252 0.044886585 0.27805322 0.014546784 -0.15831946 0.2049176 -0.18725978

a2c_network.actor_mlp.2.bias f4 [32]
00000000: 6a75 2fbd f7ad c5bc 2253 fc3d fe3f 043e
00000010: 5528 183e 90e3 9ebc 07df 1c3e 5718 913d
00000020: bc2d 643d fae5 34bb 79d9 b93d ee05 89bc
00000030: 258f 803d e0c3 503e 37eb 12bc 626f 543c
00000040: 6fce f93c d966 dcbc dd43 363e 1d84 9d3c
00000050: 6d75 543e cae7 f43d 4371 5b3d db73 183e
00000060: 0000 0000 1477 d23b d3a3 313e ef10 173e
00000070: 58b9 303e f416 a53c dff2 d03c e59b 283d
-0.042836584 -0.024130804 0.12320544 0.12915036 0.14859135 -0.01939562 0.15319453 0.070847206
0.05570768 -0.0027602897 0.09074683 -0.01672646 0.06277303 0.2038722 -0.008967212 0.012966009
0.030493943 -0.02690451 0.17799325 0.019228036 0.2074792 0.11958273 0.05357481 0.14887945
0.0 0.0064228866 0.1734765 0.14752553 0.17258203 0.020152546 0.025506435 0.041164298

a2c_network.critic_mlp.0.weight f4 [32, 4]
00000000: 51b4 81be cbff c03e 2cd0 77be ae3a 68bd
00000010: 9b6a 05be 95fb fdbc 227a 2a3d 654f 1ebd
00000020: 0f7a e93d d1f5 0fbe cc7b 20be f6dc c83d
00000030: 58ce 5b3e 67cc 193f f787 94be b349 a9be
00000040: 7c48 0a3f 3f44 683e 75c3 85be 3761 8c3e
00000050: 93f3 0fbe 0b91 063e 6dfc 95be c522 2e3e
00000060: 35f6 e23e bc85 c8be a12f 7bbe ab73 94be
00000070: 9ad0 243e 6cf4 a3be 5e33 97be 0269 753d
00000080: a53a 123f 6fe1 123f 7e65 72bd 7dc7 c9bc
00000090: 4502 b43e e46a e4be 611b b2bd 1496 ccbd
000000a0: 2af6 193e e4ed e6be fd04 4b3e 948a bbbe
000000b0: b57d 2fbe 338d 5fbe 4a23 a43e 1b3c 97bd
000000c0: 8c08 c9bd aa46 c33b 23b5 c53c 08df b2bd
000000d0: be16 82bd aa8e 2d3e 9581 bdbe 2282 303e
000000e0: 2ee6 2c3e 6117 b4be 925a 753e 2250 a5be
000000f0: 35b8 c5be 0bfe f2be 13eb c9be 6c1e afbe
00000100: 5fc0 87be 595b febe b114 fa3e 8668 023f
00000110: ee9f 9ebe e247 f6be 6c9a 063f 305f ce3d
00000120: adf5 e6be cdd0 893e 6101 523e e99c 15be
00000130: 2c37 5d3e feab 9bbe 6dc3 94be 5f2f 8fbe
00000140: a016 88be 1ccb e43c 5d6f b3bd f0ee acbd
00000150: 3ddf 81be c644 a4be 0d25 bc3d a6c7 23be
00000160: 2558 5ebe 7af6 8e3e 2eea b03d ccb3 853e
00000170: e107 bb3e 0e0b 473e 3512 4d3d b93e 563e
00000180: c7a9 063f b49f c93e fd8d b8be e468 16bd
00000190: ced5 b13e 1088 083f 9164 72be 1e6f b0bd
000001a0: ddda 0fbf c4cd 57be 036f 11bd 2f52 a3bc
000001b0: 332f 573e 0036 ef3d 592f 3f3e ae0d 44be
000001c0: b736 babe 4982 043f 9dfe 9ebe 418b 4e3e
000001d0: aa9b 0b3f d4a6 a4be 6acb 9b3e 789c b23e
000001e0: 3d9b 01bf 248b eeb8 8547 a4be 0a35 8e3e
000001f0: b018 9b3e a765 ba3e 400f 76be 7681 3c3e
-0.25332883 0.37695155 -0.24200505 -0.056696586 -0.13028948 -0.031003753 0.04162038 -0.038649935
0.11400234 -0.14058615 -0.15672225 0.0980777 0.21465433 0.6007752 -0.29009983 -0.3306404
0.5401685 0.22682284 -0.26125684 0.2741792 -0.1405776 0.13141267 -0.29294148 0.17005451
0.44328466 -0.3916453 -0.24529888 -0.28994498 0.160952 -0.32022417 -0.29531378 0.059914596
0.57120734 0.57375234 -0.05917882 -0.024631256 0.35157982 -0.446128 -0.08696628 -0.09989563
0.1503531 -0.4510337 0.19826122 -0.36629164 -0.17137797 -0.21831207 0.32058173 -0.07384511
-0.09816083 0.0059593515 0.024134224 -0.08733946 -0.06351994 0.16948953 -0.37012926 0.17237142
0.16884682 -0.35174087 0.23960331 -0.322877 -0.386171 -0.47459444 -0.3943716 -0.34202898
-0.26513955 -0.49679068 0.4884391 0.5094074 -0.30981392 -0.48101717 0.5257938 0.10076749
-0.4510931 0.26917115 0.20508339 -0.14610638 0.21603078 -0.30404657 -0.29055348 -0.2796583
-0.26579762 0.027928881 -0.08761475 -0.08444011 -0.2536563 -0.3208372 0.091867544 -0.15994129
-0.21713312 0.27922422 0.08638416 0.26113737 0.3652945 0.19437811 0.05006619 0.20922364
0.5260281 0.39379656 -0.36045828 -0.036721125 0.34733433 0.53332615 -0.23671176 -0.08614944
-0.56193334 -0.21074587 -0.03550626 -0.01993665 0.21014099 0.116802216 0.18670405 -0.19145843
-0.3636987 0.517613 -0.3105363 0.20170309 0.545344 -0.3215853 0.3042863 0.34885
-0.506275 -0.00011374641 -0.32085815 0.2777484 0.30292273 0.3640568 -0.24029255 0.1840876

a2c_network.critic_mlp.0.bias f4 [32]
00000000: 604f fa3e eea1 f83e 54ca 0c3f fdb7 c73e
00000010: de06 b73e 565f 113f c6e2 f73e 74dd e13e
00000020: 8336 c03e 16a6 f23e f9e3 003f 824a 023f
00000030: 5f1e fd3e 7bf2 0a3f 6c9c 013f 3535 cebc
00000040: fa63 6d3e ed6b b23e dc51 f53e d420 0f3f
00000050: 1d76 42be 85f2 4bbe e014 f93e 97e5 db3e
00000060: fca4 ae3e 483a 60be fc4d e9bd a626 e03e
00000070: 0f31 fd3e 5ca8 b83e f6f7 5cbe 774a d8bd
0.48888683 0.48561043 0.5499623 0.3900756 0.35747427 0.56786096 0.48415202 0.44114268
0.3754159 0.4739234 0.5034786 0.5089494 0.49437234 0.54276246 0.50629306 -0.025171855
0.2318267 0.34847966 0.47914016 0.55909467 -0.18990369 -0.19916733 0.4864874 0.429486
0.34110248 -0.21897233 -0.113918275 0.43779486 0.4945149 0.36065948 -0.21578965 -0.10561078

a2c_network.critic_mlp.2.weight f4 [32, 32]
00000000: f3c1 2bbe dfbf f4bd 48fe 943b ff60 f4bd
00000010: ab56 24be 3e56 41bc 6678 28be fe62 ebbd
00000020: 5aa3 44bc f6ea 093e d3cd 49be 8e0c c739
00000030: 8004 ad3d 5393 1b3e bb93 d33a 2dd2 8fbd
00000040: 9586 97bd 696b d03d ac94 2abd 4316 15be
00000050: 5aa6 083e 0930 cabd dad1 02bd 0a00 113e
00000060: 0245 94bd 5a4f 153e 4fc8 ffba 168b ec3d
00000070: 1e19 34be 1eb4 cfbd c513 58bd 3f8d 103e
00000080: a846 d43d 8b22 e13e 45d1 993e 2ad8 65bd
00000090: cfaa 483e 8d11 873e 3896 3f3e cc13 533d
000000a0: 00bb 0dbe f394 eb3d a88d 193e fa28 143e
000000b0: 6dd8 663e 6f71 ce3e d110 d63d de91 63be
000000c0: dbb0 a0bc 8d04 9abd 6541 233e 2982 613e
000000d0: 7a75 01be 8d49 38be bf92 fc3d 9edb f53b
000000e0: 3cf4 8e3d 0aa4 6abd e850 c73d ca9e 103e
000000f0: 2596 923e 8d39 feb9 08f7 313e 057c 46be
00000100: 84d5 0fbc 612f ad3c 6e2c 33be ea8a 4b3d
00000110: a554 973c 7b75 c4bd 3ff8 9d3b 0e10 b93d
00000120: be41 da3d 5c6f 2bbe 2292 00be beb4 673d
00000130: 1128 68be 9b0b 01be d3f6 3e3d b175 5f3d
00000140: 8a00 223e 3f52 553d c131 8c3c ee73 b9bd
00000150: 580e 8e3e 8e09 603e ba53 eebd 713b 51bd
00000160: 018e 5d3e 09d1 193d cc4a d83d 03ad 2e3e
00000170: 88aa 0fbc 04fb adbd db5f 853e 7297 8abd
00000180: dbf7 9b3d 9c73 bcbd 99d2 843d f348 80bd
00000190: fb32 f43d 74d0 c6bd 7427 9abd 11ad a83d
000001a0: 625c e63c f2e6 1cbe 65de d9bd ab76 c0bd
000001b0: cb48 f9bd 82c4 07bd 999e dd3c c0dc e7bd
000001c0: 0630 2ebe 9088 7c3c 1586 fdbd 1a3a 9cbd
000001d0: 9281 bfbd 2aea 243b fec1 e6bc df8f 85bd
000001e0: 3ba4 18be e17a b1bd 1d34 2dbe b4a0 843d
000001f0: 9d2e 113d 1372 cc3d 647a fbbd ba13 e0bd
00000200: 787e cebd d4e8 103e baca d3bd cb8b debd
00000210: 09c2 49bd ffa1 31be 9404 ecbd 2492 cebd
00000220: ba26 7abd 57b0 25be f8cc d3bd 340a 24be
00000230: ec95 15be a1c1 843c e495 263e 356c 20be
00000240: 8eac ecbd 1e91 2abd 0887 0bbe 35a0 0abe
00000250: efd4 acbb 0f36 c0bd 55fa fb3c 1150 b0bd
00000260: 0d8d d53d 5eab 493d 20fd 9f3c 5c1e d93d
00000270: fe64 d5bd 5089 2bbe acf8 113d 8017 08be
00000280: 6d49 a03d 9d77 42bd edf8 03be 9d8c 7abc
00000290: 4cb8 33be 6d3c 273e dd5e 3a3e cbf3 443d
000002a0: dce4 15be 9638 253e f9e9 433d c014 b53d
000002b0: 1d24 a3be 4897 0bbd 9f33 60bc ad67 0b3e
000002c0: f62c 94bd 5fd2 fa3d 686c fbbd b2b5 fd3d
000002d0: 3c13 1c3e a106 123e 0ad6 0cbe bbdc 62bd
000002e0: 2152 20bd 1fb6 47be 5714 803e f352 00be
000002f0: 7a35 fb3d f0ff 883c a53b 58bc 0064 fd3b
00000300: 31c4 b43d b32b 303e 1ba6 193e c025 293e
00000310: d72a e0bd 0acb e33d 2fbd e33d 632e 473e
00000320: 68bb 183c bfb6 6f3e ca2c c23e 2e07 8b3e
00000330: fc2e eb3e cbba a03e 1fae 873e b4a8 9fbd
00000340: db4d fbbc e646 9c3d e119 6d3e c0ee 503d
00000350: ee5a c2bd f661 70be a7de 5f3e a420 753e
00000360: 7fae 143e f71d 06be a747 04be 5ee0 753e
00000370: ce16 653e 0707 9cbd b7ce 92bd e575 12bd
00000380: b2c5 8b3c 3e0b 2fbe 813d 46be 52d6 ea3d
00000390: 8383 d23d bbb6 9cbe 79c0 03be f6bb dcbd
000003a0: 528a 8e3e ac69 f63d 4093 4abe 348e f13d
000003b0: 6ad7 543d d28a 90bc 2d0d 06be fa90 4e3e
000003c0: 7474 573d aa88 013e 81d8 9abd 34e2 18be
000003d0: 4c41 993e 9542 1b3e 50a8 113e 782b f73d
000003e0: 7f91 fe3a 6063 a63e 27a4 483d 9a24 9a3e
000003f0: 97a7 c7bc 1f15 1f3e 3eea 2b3e 7f80 a63e
-0.16773205 -0.11950659 0.0045469142 -0.11932563 -0.16048686 -0.011800347 -0.16452178 -0.11493491
-0.012001837 0.13468537 -0.19707422 0.00037965592 0.08448124 0.15192918 0.001614205 -0.0702251
-0.07398716 0.10176737 -0.04164569 -0.14559273 0.13344708 -0.09872443 -0.03193841 0.14160171
-0.07239725 0.14581051 -0.0019514653 0.11549966 -0.17587706 -0.101417765 -0.05275323 0.14116381
0.10365039 0.43971667 0.30042472 -0.056114353 0.19596408 0.26380578 0.18709648 0.05153255
-0.13840866 0.11503019 0.14995444 0.14468756 0.22543497 0.40320918 0.10452426 -0.22223613
-0.019615581 -0.07520399 0.15942915 0.22022308 -0.1264247 -0.17996807 0.12332677 0.007502987
0.06980178 -0.057285346 0.097322285 0.14123073 0.28630176 -0.00048489534 0.17379391 -0.19383247
-0.008778933 0.021140756 -0.17497417 0.049693026 0.018472979 -0.0959272 0.004820853 0.09036265
0.106570706 -0.16741699 -0.12555745 0.056568854 -0.22671534 -0.12602083 0.04662211 0.0545556
0.15820518 0.05208039 0.017113568 -0.09055315 0.27745318 0.21878645 -0.11637063 -0.05108208
0.21636201 0.037552867 0.10561141 0.17058186 -0.008768685 -0.08495143 0.26049694 -0.06767167
0.07615634 -0.09201738 0.06485481 -0.06263914 0.11923786 -0.09707728 -0.07527056 0.08236135
0.028120223 -0.15322474 -0.106381215 -0.09397634 -0.12172087 -0.03314639 0.027053164 -0.113214016
-0.17010507 0.015413418 -0.1237909 -0.076282695 -0.093508855 0.0025163987 -0.028168675 -0.06521582
-0.14906399 -0.086660154 -0.16914411 0.06475964 0.035444845 0.099826954 -0.122792035 -0.109412625
-0.10082716 0.14151317 -0.103414014 -0.10866507 -0.049257312 -0.17346953 -0.11524311 -0.10086468
-0.06107209 -0.1618055 -0.10341829 -0.16019517 -0.14607972 0.01620561 0.16268116 -0.15666278
-0.1155635 -0.0416423 -0.13625729 -0.13537677 -0.005274407 -0.09385311 0.030759016 -0.086090215
0.10427294 0.049235694 0.01952988 0.10601494 -0.10419653 -0.167516 0.035637543 -0.13290215
0.07826505 -0.047477353 -0.12887926 -0.015292314 -0.17550772 0.16331644 0.1820025 0.04808406
-0.14638084 0.16134867 0.047830556 0.088418484 -0.3186349 -0.03407982 -0.013684182 0.13613768
-0.07235138 0.12247156 -0.12276536 0.12388171 0.15241712 0.14260341 -0.13753524 -0.055386286
-0.039140824 -0.19503067 0.25015518 -0.12531643 0.12266059 0.016723603 -0.013197814 0.007732868
0.08826483 0.1720417 0.1500477 0.16518307 -0.10945671 0.11122711 0.11120068 0.19451289
0.009322025 0.23409556 0.37924796 0.27153915 0.45934284 0.31392512 0.2650003 -0.077958494
-0.030676773 0.0763071 0.23154403 0.05100894 -0.0949 -0.23474869 0.21862279 0.23938233
0.1451969 -0.13097368 -0.12917958 0.2401137 0.2237198 -0.07618528 -0.07168334 -0.035756964
0.017062042 -0.17094132 -0.193594 0.114666596 0.1027899 -0.30608162 -0.12866391 -0.10778038
0.27839905 0.12031874 -0.19782734 0.11794701 0.051963247 -0.01764432 -0.13090964 0.20172492
0.052601293 0.1264979 -0.07560826 -0.1493004 0.2993263 0.15162118 0.14224362 0.12068838
0.0019422023 0.32497692 0.048984673 0.3010605 -0.024371905 0.15535401 0.16788575 0.3251991

a2c_network.critic_mlp.2.bias f4 [32]
00000000: 06a8 08bd a6b3 af3e 4670 fabd 0af4 88ba
00000010: 7a02 e8bb befa 28be 606c a83e c685 6bbe
00000020: caf2 b8bb 0000 0000 dc86 bf3e f23f aa3e
00000030: 0f6c a73e cc70 e7bd 0916 36be 6ea0 a13e
00000040: 2525 a23e 63af 00be 4005 29be f422 d93e
00000050: 00d0 bd3e a83a fcbd ea12 dbbd 47cc dd3e
00000060: 825e 7ebd 2777 0bbe 555b c73e c119 3ebd
00000070: db4e 24be 68f4 fbbd 05b3 af3e 5948 a63e
-0.033363365 0.34316748 -0.12228446 -0.0010448706 -0.0070803734 -0.165019 0.32895184 -0.2300025
-0.005644177 0.0 0.37407577 0.3325191 0.3269963 -0.11300811 -0.17781843 0.3156771
0.31668964 -0.12566905 -0.16505909 0.4240948 0.37072754 -0.12315875 -0.10696967 0.43319914
-0.06210185 -0.13619672 0.38936868 -0.04641128 -0.16045706 -0.12302476 0.3431627 0.32477072

a2c_network.value.weight f4 [1, 32]
00000000: 6b99 77bd 6f35 c33e ef1d bbbe 2d0b 75bc
00000010: 39a5 18bd 7b11 9ebe 36ef b93e f6b8 d3be
00000020: 7edf c1bd cd51 2e3e bc15 823e f14d 903e
00000030: ff39 d93e 74e5 85be 0041 78be 72ee a13e
00000040: dbb1 b83e 0a52 8dbe e9d5 fcbe 006d 863e
00000050: bdae ae3e 37ee c5be 2421 6dbe dfb1 9b3e
00000060: 68de d9be 898f 72be 74d1 a43e 3eb4 8cbe
00000070: eaa4 c6be a144 c3be 6d72 e43e 6d12 db3e
-0.060449045 0.38126704 -0.36546275 -0.014956278 -0.037266944 -0.30872712 0.36315316 -0.41352051
-0.09466456 0.17023392 0.25407207 0.28184465 0.4242706 -0.2615162 -0.24243546 0.31627232
0.36073193 -0.27601653 -0.4938195 0.26255035 0.3411769 -0.38658306 -0.23157173 0.30409142
-0.42552495 -0.23687567 0.3219105 -0.27481264 -0.38797694 -0.38138297 0.4461855 0.42787495

a2c_network.logits.weight f4 [2, 32]
00000000: 5c00 203e 7bc2 dc3d c210 95be 2cf1 85be
00000010: 9ee8 6cbe 3754 503e 62fc 073d a3a2 913e
00000020: b391 973e 46b3 753e e431 87bc 8e2c 683e
00000030: 08fd cc3d c0b2 78be ef40 c03d 9096 9b3e
00000040: dbd9 703e 2ccd 1a3e 06cf fabd 5ea5 443d
00000050: 3218 55be ac1f 74bd 597b b13e f400 b8be
00000060: c1e3 87bd d349 273e 3b11 80be f202 bebd
00000070: 30d6 a2be 819c a43e 85b0 273e eae6 963e
00000080: a84b 00be 014e d4bd b79a 963e a87d ae3d
00000090: 0720 553d 6569 81be a1c5 263e 4245 15be
000000a0: e590 22be 2518 92be 491c 793e a451 20be
000000b0: e20c 43be 98ec 593e 1478 0ebe 7895 f8bd
000000c0: b374 9fbe 4d1c 7f3c d092 453e 2275 92be
000000d0: 1395 fe3d 1de3 7c3e 15f5 18bd 8443 bd3e
000000e0: 99f6 08be 4e47 07bd 4500 cf3d 2674 553e
000000f0: a3d1 983e 27ff f9bd 1c91 13be 1d60 e0bd
0.15625137 0.10779282 -0.29114348 -0.26160562 -0.23135611 0.20344625 0.033199675 0.28444394
0.29603347 0.23994169 -0.016503282 0.22673246 0.100091994 -0.24286938 0.09387385 0.30388308
0.23520605 0.1511733 -0.12246518 0.04800927 -0.20810011 -0.059600517 0.3466442 -0.35938227
-0.066352375 0.16336755 -0.25013146 -0.092779055 -0.31804037 0.32150653 0.1637593 0.29473048
-0.1252886 -0.103664406 0.29414913 0.08520061 0.052032497 -0.25275722 0.16286327 -0.14577201
-0.15875585 -0.28534046 0.24327196 -0.15656143 -0.19047883 0.2128166 -0.13912994 -0.12137884
-0.31143722 0.015570712 0.19294286 -0.2860499 0.124307774 0.24696012 -0.037343103 0.36965573
-0.1337532 -0.033026986 0.10107473 0.20845088 0.2984744 -0.122068696 -0.14410824 -0.10955832

a2c_network.logits.bias f4 [2]
00000000: 256a 71bd 276a 713d
-0.058939118 0.058939125

exp_avg f4 [32, 4]
00000000: 9c61 2e39 c2a8 ae39 8e91 dcb8 76dd 38ba
00000010: 68bc 3739 131a a438 5c2e 6d39 8dbf cfb8
00000020: 1300 1bba a268 48ba 7c69 96ba 2a35 ab3a
00000030: 1a1b 1238 05e4 0a37 d9c3 9838 ac12 2b37
00000040: 726e 9eb8 65c8 4db8 f3b7 30b8 3a25 9938
00000050: 50d7 1fb9 291e 77b9 0c52 ceb9 37ce b139
00000060: d82b df39 e409 723a ce54 8b3a 909f cfba
00000070: dd66 a93a bb44 b239 6d9f 8c3a 4217 ecb9
00000080: 8e83 02ba 0396 4fba 97be 9eba 9a80 a43a
00000090: 7ea6 bab9 c61a 07ba 0c7b 5cba 0d40 513a
000000a0: f8e7 cd3a c60a 723a 08f7 ce3a e57c ceba
000000b0: 5862 3dba 3ad2 91ba c6d2 e1ba 1d4c e53a
000000c0: 96a6 023a 08b2 003a 367c 223a 9738 58ba
000000d0: 861e 08ba 3f63 56ba 9951 a2ba e9e1 a93a
000000e0: 6128 a538 0809 0639 23d4 4339 3cac 5ab9
000000f0: fb35 f5b9 ea42 4dba e8b0 93ba 9b51 a63a
00000100: 1aca 20b8 c899 40b5 bb37 4837 b5b7 53b7
00000110: 70cf f039 992b 523a 50c9 a43a 910e a6ba
00000120: 0199 29b8 d22f a239 86f7 3a38 420e 30ba
00000130: 1c45 ec38 b537 6739 0195 b239 04c7 beb9
00000140: bae1 23ba 1051 6fba c61d b5ba d10d bb3a
00000150: 49dc 41ba 2c52 93ba 874f e1ba 101a e83a
00000160: c8ca 87b9 dca6 5bb9 8195 98b9 b6de aa39
00000170: bb76 fcb7 d6d4 bab8 7004 12b8 4837 b338
00000180: e110 d13a 1e69 333a f280 983a 06bf 47ba
00000190: 945c d3b9 44ae 1bba e9d2 69ba b7a2 723a
000001a0: 3b7d 9538 6d72 04b8 87b9 2fb8 ea4d 8438
000001b0: 0f20 e439 4896 afb9 e239 30ba 5d92 d639
000001c0: e8d3 c739 19b3 60b9 3860 85b9 d5ba 6939
000001d0: cf92 103b 1ab3 5f3a 5b4e c63a f171 6eba
000001e0: 3da4 3e3a 488b 6ab9 71d9 26ba e47a ed39
000001f0: 59fd 423b 73cc 583a 03b1 613a 31c0 7eba
0.00016630295 0.000333136 -0.00010517529 -0.0007052043 0.00017522427 7.824986e-05 0.00022619352 -9.906208e-05
-0.0005912792 -0.0007644986 -0.0011475529 0.0013062109 3.4834353e-05 8.278531e-06 7.284404e-05 1.0196742e-05
-7.554599e-05 -4.906244e-05 -4.2132986e-05 7.3025425e-05 -0.00015243632 -0.00023566991 -0.00039352512 0.00033913713
0.0004256654 0.0009233041 0.0010630132 -0.00158404 0.0012924332 0.00034002014 0.0010728665 -0.00045030756
-0.00049787096 -0.0007918777 -0.0012111244 0.0012550533 -0.0003560073 -0.0005153831 -0.00084106694 0.00079822616
0.0015709391 0.0009233173 0.0015790174 -0.0015753774 -0.0007224432 -0.0011125274 -0.0017228953 0.0017493997
0.00049839297 0.0004909341 0.00061983184 -0.00082481786 -0.00051925366 -0.0008178241 -0.0012383937 0.0012961003
7.875334e-05 0.000127826 0.00018675676 -0.00020854262 -0.0004677026 -0.00078301004 -0.0011267932 0.0012689115
-3.8335194e-05 -7.1749355e-07 1.1933905e-05 -1.2619353e-05 0.0004593092 0.0008017361 0.0012572203 -0.0012669136
-4.0435236e-05 0.00030934677 4.457638e-05 -0.0006715992 0.000112662296 0.00022050629 0.00034061822 -0.00036387902
-0.00062515924 -0.0009129206 -0.0013818077 0.0014271085 -0.0007395191 -0.0011239699 -0.0017189839 0.0017707963
-0.0002590029 -0.00020947627 -0.00029103088 0.0003259086 -3.009603e-05 -8.908815e-05 -3.4813245e-05 8.545682e-05
0.0015950465 0.0006843972 0.0011635108 -0.0007619712 -0.00040314032 -0.00059387484 -0.00089196727 0.0009255814
7.1282e-05 -3.157782e-05 -4.1896037e-05 6.308763e-05 0.00043511434 -0.0003349057 -0.00067224924 0.0004092631
0.0003811412 -0.00021429024 -0.00025439425 0.00022290212 0.002206016 0.0008533463 0.0015129553 -0.0009095958
0.0007272398 -0.00022367865 -0.0006364799 0.00045295723 0.0029753058 0.00082702114 0.00086094456 -0.000971797

exp_avg_sq f4 [32, 4]
00000000: 156d f838 eb5d cf37 13d4 9437 2045 6638
00000010: 6a35 bb36 c646 7036 8657 6336 6a8a 8b36
00000020: 35f6 2a39 7657 3838 8592 2d38 67b5 0c39
00000030: 65f4 8536 962b 2236 ed14 2936 aadd b535
00000040: b489 ee36 e53b 6e36 bca8 1536 dd95 db35
00000050: b4a0 bb37 3bee d336 1832 a236 54cd 6337
00000060: 9bf3 a939 cfc3 8d38 6046 6538 608f 4c39
00000070: 134e 0139 cb7c 1938 d6dd 1438 d117 b438
00000080: db67 9739 c383 9938 5e70 9438 4f11 5a39
00000090: 1579 0b39 58ab 0f38 ff71 0a38 9c0f b738
000000a0: d3d7 e039 e1fc 3939 8ca7 2639 9d0f c339
000000b0: 84b2 023a 66cc f138 9638 e538 5ed4 ad39
000000c0: a966 0839 7bc0 1738 899f 0538 f376 8938
000000d0: 82af b939 11da c838 fdd4 bd38 b6a8 8639
000000e0: 7e69 4237 6d7e 9536 7818 5f36 1dc3 8a36
000000f0: 0975 7339 d644 6938 5bcc 5e38 ee15 2a39
00000100: 00ba ef36 7595 5536 c93d d435 ca19 8435
00000110: 13ba b539 a866 ca38 8014 ab38 a0f4 5c39
00000120: 544a b439 9831 7e38 691d 2f38 d7b0 3a39
00000130: 2ce0 2838 6774 6037 f131 3237 7637 c137
00000140: cfae e839 5c07 f738 0e02 eb38 2e14 a539
00000150: bc8b 263a 7a90 3239 090d 2839 6619 df39
00000160: f2e2 d637 9858 0237 8ee1 0237 b2b1 9e37
00000170: d88d 2a37 1b0b 6636 0209 2236 58eb 6536
00000180: 54ca 1439 edf9 3738 9d64 2338 5464 d338
00000190: fab4 7839 dfd2 8838 14d6 8238 8a92 2139
000001a0: db33 7d37 2dc3 cf36 9b97 9e36 3697 3d37
000001b0: b311 8239 c7c1 c438 2456 9e38 6cbe 4539
000001c0: a0e2 8a38 f04e d037 3b4c 9c37 ea5a 3338
000001d0: 2fb1 8439 0536 cf38 6ac8 c738 270d 6739
000001e0: 44fe e938 4863 5538 0627 1c38 2a23 bb38
000001f0: 2cf9 123a 85b6 3939 eed5 2539 d81b cc39
0.000118458796 2.4720057e-05 1.774173e-05 5.490065e-05 5.5792525e-06 3.5803982e-06 3.3876581e-06 4.1586363e-06
0.00016304183 4.3950473e-05 4.138287e-05 0.00013419018 3.99216e-06 2.4165251e-06 2.5195143e-06 1.3550064e-06
7.1089835e-06 3.5499627e-06 2.2300947e-06 1.6360387e-06 2.236697e-05 6.3160237e-06 4.833808e-06 1.3578061e-05
0.00032415692 6.759876e-05 5.4663396e-05 0.00019508367 0.00012331484 3.6594265e-05 3.549255e-05 8.587505e-05
0.00028878343 7.320151e-05 7.07812e-05 0.00020796548 0.0001330118 3.4253433e-05 3.300793e-05 8.7290275e-05
0.0004288541 0.0001773718 0.0001589341 0.0003720493 0.00049857073 0.00011529848 0.00010930111 0.00033155357
0.00013008215 3.6180467e-05 3.185825e-05 6.554825e-05 0.00035416713 9.577361e-05 9.0518944e-05 0.0002568417
1.1587863e-05 4.455264e-06 3.3243832e-06 4.1354347e-06 0.00023217885 5.5615637e-05 5.3119245e-05 0.00016220633
7.1444083e-06 3.1826469e-06 1.5813213e-06 9.842272e-07 0.00034661646 9.651232e-05 8.157734e-05 0.00021071965
0.00034387654 6.0604507e-05 4.175064e-05 0.0001780422 4.0263098e-05 1.33785425e-05 1.0621255e-05 2.3033219e-05
0.0004438073 0.000117792486 0.00011206056 0.00031486287 0.00063532195 0.00017029225 0.00016026584 0.00042552798
2.5616468e-05 7.769231e-06 7.80112e-06 1.8917814e-05 1.0165815e-05 3.4279135e-06 2.4145124e-06 3.4260647e-06
0.00014189753 4.386336e-05 3.895593e-05 0.000100799516 0.00023718542 6.524263e-05 6.238758e-05 0.00015408747
1.5092049e-05 6.191802e-06 4.726416e-06 1.1300484e-05 0.0002480872 9.382102e-05 7.550072e-05 0.00018858322
6.622565e-05 2.483229e-05 1.8632147e-05 4.2761596e-05 0.00025309014 9.880591e-05 9.5263895e-05 0.00022034776
0.000111576664 5.087562e-05 3.722964e-05 8.923405e-05 0.00056065875 0.00017710969 0.00015815321 0.00038930657

exp_avg f4 [32]
00000000: 351b c3b9 7663 1bba 9808 473b fba5 2cb9
00000010: 68ba 8439 bb4c 853a 58cb 30bb f64d 7fbb
00000020: ef01 4c3b a5f0 0c3b 4b0f a9bb 6a38 903b
00000030: 2993 ebba 4e1d 513b d1e2 e4b9 f788 373b
00000040: 83bb 8437 a7df 49bb 880c bab9 712b 4eba
00000050: 17e5 713b 500e 923b f696 753a 44b8 8839
00000060: 65bd 9abb be88 1f3b 1215 5cb8 5701 963a
00000070: 8242 e537 6cef c8bb ba51 82b9 778a e1bb
-0.0003721357 -0.00059276016 0.0030370113 -0.00016465031 0.00025315885 0.0010169962 -0.002697667 -0.003895638
0.0031129082 0.002150574 -0.0051592938 0.0044012563 -0.0017972934 0.0031908336 -0.0004365654 0.0028005221
1.5822943e-05 -0.0030803473 -0.0003548602 -0.00078647496 0.003691023 0.0044572726 0.0009368503 0.0002607723
-0.0047222846 0.002434298 -5.247171e-05 0.0011444491 2.7329897e-05 -0.006132057 -0.00024856423 -0.0068829614

exp_avg_sq f4 [32]
00000000: 5802 da39 c644 d937 fec5 7a3a 0660 1a37
00000010: a113 6137 6caa f938 0870 d23a 8b2a 663a
00000020: e84a d43a 4fa9 4f3a 3f07 5b3b a9d0 353b
00000030: 0874 233a b8ab ff3a 673f 1538 5568 ac3a
00000040: d111 9436 f870 e03a 965d bc3a 92c3 2d39
00000050: 6e76 213b 0eca 673b 4e0c 3d39 53c3 2438
00000060: 07ab 863a 8f33 a63a dddf 8838 b79d 853a
00000070: ea7e 8139 da02 0a3b 09d1 ab39 e156 6e3b
0.00041581946 2.5900441e-05 0.00095662463 9.2014725e-06 1.3415615e-05 0.00011904989 0.0016055116 0.0008780143
0.001619664 0.0007921652 0.0033421067 0.002774278 0.00062352465 0.0019506132 3.5583416e-05 0.0013153652
4.412818e-06 0.0017123511 0.0014371153 0.00016571421 0.002463724 0.0035368237 0.00018029028 3.9282557e-05
0.0010274359 0.001268016 6.526683e-05 0.0010194097 0.00024699356 0.0021058829 0.00032771405 0.0036367702

exp_avg f4 [32, 32]
00000000: 0400 0000 0400 0000 0400 0000 0400 0000
00000010: 0400 0000 0400 0080 0400 0080 0400 0000
00000020: 0400 0000 0400 0000 0400 0000 0400 0000
00000030: 0400 0000 0400 0000 0400 0000 0400 0000
00000040: 0400 0000 0400 0000 0400 0080 0400 0080
00000050: 0400 0000 0400 0000 0400 0000 0400 0000
00000060: 0400 0000 0400 0080 0400 0000 0400 0000
00000070: 0400 0000 0400 0000 0400 0000 0400 0000
00000080: 0400 0000 0400 0000 0400 0000 0400 0000
00000090: 0400 0000 0400 0000 0400 0000 0400 0000
000000a0: 0400 0000 0400 0000 0400 0000 0400 0000
000000b0: 0400 0000 0400 0000 0400 0000 0400 0000
000000c0: 0400 0000 0400 0000 0400 0000 0400 0000
000000d0: 0400 0000 0400 0000 0400 0080 0400 0000
000000e0: 0400 0000 0400 0000 0400 0000 0400 0000
000000f0: 0400 0000 0400 0000 0400 0000 0400 0000
00000100: f882 c638 1e6d 4bb9 6043 71b9 2b9a 7bb9
00000110: 2050 e737 21c2 bfb8 e21a a1b8 135a b9b9
00000120: aada edb9 646a 56b9 eb9f 03b9 9b5f 90b9
00000130: ae8a 21ba 9514 c0b9 da68 7dba 1eb0 71b9
00000140: 0fa2 f1b7 7695 beb9 6f6d df37 d24f d2b9
00000150: 16e1 0cba 7223 00ba 91c6 57ba 9a08 f638
00000160: 8216 aab9 8762 94b9 2017 beb9 5f3c 39b8
00000170: 11db ae36 2cda d1b9 c8a4 a4b8 edb6 45b9
00000180: 62b4 6b38 87f4 f0b8 9d65 10b9 7666 15b9
00000190: 2ca7 8237 39a0 68b8 b232 3eb8 4387 5bb9
000001a0: 0e4f 8eb9 b4d1 01b9 cee2 9bb8 8d60 2cb9
000001b0: 4149 bfb9 20b2 65b9 0810 16ba 2cde 0fb9
000001c0: 3f2e 90b7 0589 62b9 c30b 8537 2917 79b9
000001d0: 8934 a8b9 b5a3 99b9 d12d 00ba 191c 8f38
000001e0: c9eb 49b9 f694 31b9 9b9c 63b9 2801 e7b7
000001f0: 613b 2836 a6be 78b9 1212 4bb8 1c28 eab8
00000200: e82c 4238 e0be c4b8 0637 e7b8 b1e5 f2b8
00000210: 9b73 6d37 7ad7 34b8 99c2 1ab8 9d3d 33b9
00000220: 7dd0 63b9 ea4f cab8 948d 7eb8 cabd 0ab9
00000230: 282d 9cb9 041e 38b9 1904 f5b9 3de8 e8b8
00000240: 094b 61b7 cedd 37b9 52c2 5b37 ed3c 4bb9
00000250: 5e47 87b9 b0ee 74b9 8869 d0b9 96bf 7338
00000260: 9f49 24b9 480e 0eb9 fae6 35b9 3400 a8b7
00000270: 8b9a 5b36 bedb 4ab9 2ae7 16b8 dd2e bfb8
00000280: 3ad6 9ab8 ba2e 2239 e2f7 3b39 9632 4639
00000290: fd8f b6b7 b947 9438 2507 8038 55b6 9339
000002a0: d3aa b839 fb69 2539 9988 d838 930e 6139
000002b0: be2a ff39 1739 9539 eb9e 473a 45cc 3c39
000002c0: 82ad b537 e5cd 9639 5f68 b3b7 d2fa a539
000002d0: d259 db39 4d90 c639 de34 293a 7fc1 c2b8
000002e0: a686 8639 fd03 6639 8019 9339 cf67 0838
000002f0: c662 b1b6 b15e a739 0437 7538 9fb9 2039
00000300: 4ecf 18b8 9377 33b8 690c 80b8 7891 5db8
00000310: 5871 3fb8 ccc6 99b8 26ce 7ab8 9971 a3b8
00000320: 5677 24b9 e985 f4b8 5a0f e8b7 a2d0 adb8
00000330: 8859 18b9 bf2a d9b8 8100 70b9 46d7 8fb8
00000340: 7e7c 80b7 23d8 dbb8 5a01 14b8 6e75 fdb8
00000350: ce41 16b9 b9da 19b9 d8ff 3db9 8c4b 80b7
00000360: f5d1 95b8 d25a a7b8 14d8 b3b8 a97a b2b7
00000370: 9c4c a7b7 4a02 b9b8 3ccf dfb7 b64a 2eb8
00000380: e051 92b8 8e7e 1839 8f2d 3139 d4ba 3a39
00000390: 1d41 adb7 fc50 8b38 a237 6f38 8feb 8a39
000003a0: 0c04 ae39 bbf5 1b39 73c5 ca38 bf02 5439
000003b0: afe4 ef39 7baf 8c39 abd9 3b3a d0c5 3139
000003c0: 0163 aa37 4ede 8d39 6ff1 aab7 4d10 9c39
000003d0: aac0 ce39 2d46 bb39 2f60 1f3a 66da b7b8
000003e0: dc4c 7d39 80e5 5839 fbbc 8a39 d743 0038
000003f0: ce51 aeb6 b471 9d39 9b2d 6738 cdb0 1639
6e-45 6e-45 6e-45 6e-45 6e-45 -6e-45 -6e-45 6e-45
6e-45 6e-45 6e-45 6e-45 6e-45 6e-45 6e-45 6e-45
6e-45 6e-45 -6e-45 -6e-45 6e-45 6e-45 6e-45 6e-45
6e-45 -6e-45 6e-45 6e-45 6e-45 6e-45 6e-45 6e-45
6e-45 6e-45 6e-45 6e-45 6e-45 6e-45 6e-45 6e-45
6e-45 6e-45 6e-45 6e-45 6e-45 6e-45 6e-45 6e-45
6e-45 6e-45 6e-45 6e-45 6e-45 6e-45 -6e-45 6e-45
6e-45 6e-45 6e-45 6e-45 6e-45 6e-45 6e-45 6e-45
9.4657706e-05 -0.00019400238 -0.0002300865 -0.00023994657 2.7574657e-05 -9.143749e-05 -7.6820856e-05 -0.0003535306
-0.0004536708 -0.00020448264 -0.00012552708 -0.00027537052 -0.00061623275 -0.0003663643 -0.0009666808 -0.0002304916
-2.8804903e-05 -0.0003635098 2.663463e-05 -0.00040113792 -0.00053741166 -0.0004888094 -0.0008231188 0.00011731796
-0.00032441696 -0.00028302168 -0.00036256853 -4.4163662e-05 5.211107e-06 -0.00040026137 -7.850822e-05 -0.00018855529
5.619636e-05 -0.000114896386 -0.00013770764 -0.00014247917 1.5575053e-05 -5.546233e-05 -4.5346744e-05 -0.00020935856
-0.0002714325 -0.00012380519 -7.4332216e-05 -0.00016439166 -0.00036484937 -0.00021905499 -0.0005724435 -0.00013720308
-1.7187673e-05 -0.00021604083 1.5860312e-05 -0.00023755118 -0.000320826 -0.00029304405 -0.00048896397 6.824005e-05
-0.0001925669 -0.00016935528 -0.00021706747 -2.7537884e-05 2.5068514e-06 -0.00023722145 -4.84158e-05 -0.000111654605
4.6295027e-05 -9.3815615e-05 -0.00011025187 -0.000115822426 1.4153217e-05 -4.3116022e-05 -3.6897694e-05 -0.00017093723
-0.00021726075 -9.646996e-05 -6.0690174e-05 -0.00013231408 -0.00029788283 -0.00017558789 -0.00046733094 -0.0001110588
-1.3428516e-05 -0.00017534869 1.3098661e-05 -0.00019382285 -0.0002580238 -0.00023358571 -0.00039751478 5.8114143e-05
-0.00015667685 -0.00013547495 -0.0001734755 -2.0027255e-05 3.2723499e-06 -0.00019346082 -3.5978075e-05 -9.116319e-05
-7.383195e-05 0.00015466931 0.00017926053 0.00018901596 -2.176314e-05 7.070549e-05 6.1048464e-05 0.00028173873
0.0003522249 0.00015775107 0.00010325126 0.00021463101 0.00048669236 0.0002846203 0.0007614928 0.00018005173
2.1657677e-05 0.00028763633 -2.1387064e-05 0.00031658128 0.00041837856 0.00037873015 0.0006454716 -9.286682e-05
0.00025658793 0.00021935995 0.00028057024 3.2521606e-05 -5.28651e-06 0.00031923273 5.846379e-05 0.00015327938
-3.643269e-05 -4.2788288e-05 -6.105827e-05 -5.2825984e-05 -4.564351e-05 -7.332637e-05 -5.9796635e-05 -7.793605e-05
-0.00015684715 -0.000116597694 -2.7663704e-05 -8.288144e-05 -0.00014529203 -0.000103553284 -0.00022888371 -6.858869e-05
-1.531676e-05 -0.000104829924 -3.528721e-05 -0.00012085853 -0.00014329629 -0.00014672698 -0.00018119754 -1.5293968e-05
-7.143981e-05 -7.980097e-05 -8.575633e-05 -2.1276372e-05 -1.9943625e-05 -8.821914e-05 -2.6680173e-05 -4.1554413e-05
-6.977073e-05 0.00014542995 0.00016897007 0.00017807941 -2.0653528e-05 6.643121e-05 5.7033852e-05 0.00026496916
0.0003319088 0.00014873494 9.6688884e-05 0.00020218919 0.00045756015 0.00026833624 0.0007165919 0.00016953726
2.0311682e-05 0.00027059246 -2.0378006e-05 0.00029766784 0.00039434928 0.00035719704 0.0006079701 -8.7668e-05
0.00024156593 0.0002068486 0.00026462213 3.058076e-05 -5.1951274e-06 0.0003003009 5.5117165e-05 0.00014370978

exp_avg_sq f4 [32, 32]
00000000: 5db0 ba2c 8c31 3d30 b8e6 f630 3c45 0c31
00000010: 8175 382c faa0 882c f353 8a2c b83b 1d31
00000020: b389 182c 96bd e42c fbd5 6631 5041 512e
00000030: 9344 912e ed87 b02d 4ee4 542e c0bd 4b2c
00000040: c246 ae31 5a2f 0c2d 7b9e 3e2e 1349 912d
00000050: ab63 9f2d a08c 1f2f b669 402e 64cd 782f
00000060: 6fba 2d30 b5b2 9d2d 0bd8 9830 dd50 c031
00000070: 3da0 d631 4974 ee31 8151 1132 efb9 8231
00000080: c387 da26 3b99 5829 4f49 8b29 1810 0628
00000090: ae45 8527 28fd bc27 de08 4827 cb50 972a
000000a0: a4b7 1525 f31c f426 1821 6e2b a323 f826
000000b0: 458d 8b29 4340 4b27 cd36 9f26 ec86 8c22
000000c0: 398d a82b b9df 5029 fab6 db28 934f 0527
000000d0: fd32 5226 4908 9f28 afa6 a327 20f4 6729
000000e0: 7e1f b529 8a0b 1229 688f ca2a 0e21 db2a
000000f0: be2e 4f2b 3546 262b 9589 812b 1e34 bb2b
00000100: e76f 1438 88fa c736 33e8 fa36 e5ad c136
00000110: 28ce 1838 0415 5738 d028 4838 644e 9137
00000120: 7577 aa38 f0b6 b138 7b09 4737 3f8e b237
00000130: f66c 9038 ad78 b437 5d85 fa38 49ee 5e37
00000140: b1fa 1037 650c 1b38 03aa cf37 89a1 7238
00000150: a71c 1d38 ec27 4838 1529 3e38 a080 9f37
00000160: 96c5 0437 af7e 5837 6742 3237 6087 c936
00000170: 4124 5c37 f838 b137 f08c eb36 eab9 af37
00000180: a688 3f37 e4b8 f435 2702 1c36 599f de35
00000190: 45e3 4337 a3d9 8937 4e98 8137 3f88 b236
000001a0: c9b7 db37 4b7d e837 a6df 5736 8ccd df36
000001b0: 80e3 b637 2a0a e836 4ca6 1f38 f478 8f36
000001c0: 490a 0936 893d 4737 b88d 0437 6b48 9b37
000001d0: e7d9 4837 62f7 7f37 b7e3 7037 e050 cb36
000001e0: 1537 2736 5192 8c36 6dc9 5f36 ad99 e835
000001f0: db19 7436 a0a3 d436 a803 0636 e424 c236
00000200: d30c f836 32b4 9b35 07a8 ca35 fd80 8b35
00000210: 4cfc fd36 8806 3337 925d 2737 6d9d 6336
00000220: 2233 8e37 9b1d 9737 e001 0436 e96a 9036
00000230: 6194 6a37 d727 9636 4ac5 cc37 276b 3936
00000240: 3b06 9e35 e4d2 0037 5dbb aa36 3a09 4837
00000250: 568b 0137 bea9 2537 ac01 1a37 c1b5 8336
00000260: e9e3 d635 65c6 3536 9cef 0f36 e9f1 9235
00000270: f578 1736 1ec5 8636 3afa a535 2d35 6f36
00000280: bc40 af37 e312 5336 1790 8f36 aa58 2736
00000290: cae3 ae37 fbbf f637 f040 e837 c59c 2337
000002a0: ed68 3b38 a9de 4f38 6606 e536 16c9 3a37
000002b0: 7bc2 2238 942a 4837 3120 8b38 e2c3 fc36
000002c0: 96e6 b536 afe7 b237 664c 7637 4305 0938
000002d0: 05ab a937 75fb d637 3c2b cf37 b9cb 3e37
000002e0: 640c 9336 d7c3 f536 cd3d c736 ac79 7036
000002f0: ec11 0637 9af6 4637 fb10 8d36 d4c0 4b37
00000300: 5002 9435 5a8d 5634 7392 8b34 2819 4c34
00000310: 2fea 9e35 5bfb e535 1acc d135 97b8 1835
00000320: 3eb6 3d36 252a 3f36 a261 9e34 54a3 4635
00000330: 3587 1d36 04f8 4b35 747a 8b36 bebb f834
00000340: f136 0f34 5f94 ab35 84da 4735 7291 0536
00000350: e401 b235 1440 e235 d33a d535 dad1 1b35
00000360: 58f6 9434 f4d9 f234 8b4d c734 a48e 3b34
00000370: 9f41 ab34 36bc 3335 b958 5434 b121 1035
00000380: 6456 9c37 e3c0 4936 b073 8236 9fc9 3236
00000390: b20f 9f37 8f38 e037 e6d7 cd37 346b 1437
000003a0: 356a 2e38 4e5c 3a38 2eea bf36 6137 3337
000003b0: 595f 1438 dcda 3937 3988 8038 226d e736
000003c0: 6bcd 9136 c161 a137 02df 5737 fc21 fa37
000003d0: fa05 a037 700f cb37 a833 c337 aaf1 2837
000003e0: 0d41 8736 45db e036 4f92 b836 1520 5036
000003f0: bab5 e336 28ca 3337 b821 7236 4e3d 2b37
5.306018e-12 6.882821e-10 1.796443e-09 2.0412037e-09 2.62132e-12 3.8832245e-12 3.931516e-12 2.2880453e-09
2.1676938e-12 6.501198e-12 3.3591039e-09 4.7579107e-11 6.606018e-11 2.0069247e-11 4.8405994e-11 2.8953367e-12
5.0721107e-09 7.968593e-12 4.3341757e-11 1.6517043e-11 1.8120469e-11 1.4510926e-10 4.3749636e-11 2.2628438e-10
6.320197e-10 1.7928195e-11 1.1120859e-09 5.5971285e-09 6.2464367e-09 6.9399317e-09 8.458643e-09 3.804636e-09
1.5163587e-15 4.809454e-14 6.185557e-14 7.441984e-15 3.6990462e-15 5.2454955e-15 2.7760383e-15 2.687905e-13
1.298591e-16 1.6938748e-15 8.460051e-13 1.7218116e-15 6.1973464e-14 2.8206746e-15 1.1047695e-15 3.808993e-18
1.1976315e-12 4.6379326e-14 2.4393238e-14 1.8500595e-15 7.292749e-16 1.765614e-14 4.5422307e-15 5.150405e-14
8.043478e-14 3.242852e-14 3.5981916e-13 3.892515e-13 7.360604e-13 5.907248e-13 9.204188e-13 1.3301615e-12
3.5390167e-05 5.959828e-06 7.477612e-06 5.772092e-06 3.6431622e-05 5.1279567e-05 4.7721725e-05 1.732185e-05
8.128482e-05 8.4740925e-05 1.1863532e-05 2.1285492e-05 6.8867506e-05 2.1513866e-05 0.0001194577 1.3287711e-05
8.6414375e-06 3.6966423e-05 2.475549e-05 5.7847737e-05 3.74584e-05 4.7720896e-05 4.533779e-05 1.9014173e-05
7.913817e-06 1.2904099e-05 1.0625087e-05 6.0060265e-06 1.3121463e-05 2.1126572e-05 7.019953e-06 2.0948199e-05
1.1416303e-05 1.8233227e-06 2.3247064e-06 1.6586665e-06 1.1675821e-05 1.6433018e-05 1.544892e-05 5.3206745e-06
2.6192416e-05 2.77149e-05 3.2167677e-06 6.6698467e-06 2.1802029e-05 6.915322e-06 3.806343e-05 4.275813e-06
2.0420578e-06 1.1875652e-05 7.90081e-06 1.8511162e-05 1.1971663e-05 1.5256783e-05 1.4358134e-05 6.0592865e-06
2.4917001e-06 4.1893586e-06 3.3346835e-06 1.7330073e-06 3.6373883e-06 6.337141e-06 1.9969684e-06 5.785945e-06
7.392469e-06 1.1600844e-06 1.5099075e-06 1.0393848e-06 7.569359e-06 1.0670752e-05 9.975762e-06 3.391727e-06
1.695153e-05 1.8014389e-05 1.9670624e-06 4.3039804e-06 1.3982034e-05 4.4749863e-06 2.4410565e-05 2.762952e-06
1.1773731e-06 7.678496e-06 5.0882068e-06 1.1923077e-05 7.721441e-06 9.874288e-06 9.179505e-06 3.925263e-06
1.6010573e-06 2.7086583e-06 2.1448132e-06 1.0948253e-06 2.257116e-06 4.0164587e-06 1.2366283e-06 3.5644728e-06
2.089177e-05 3.1452444e-06 4.2785064e-06 2.4936548e-06 2.0848489e-05 2.9414883e-05 2.7686794e-05 9.752058e-06
4.4681994e-05 4.9560014e-05 6.8254767e-06 1.1133283e-05 3.8804934e-05 1.1930842e-05 6.6340326e-05 7.532989e-06
5.421064e-06 2.132714e-05 1.46805305e-05 3.2668246e-05 2.0226007e-05 2.5627882e-05 2.4696456e-05 1.1372315e-05
4.382384e-06 7.3243677e-06 5.9378567e-06 3.583361e-06 7.991195e-06 1.1859136e-05 4.2041042e-06 1.2144639e-05
1.1027532e-06 1.9981726e-07 2.5997323e-07 1.9008132e-07 1.1840074e-06 1.7134984e-06 1.5631115e-06 5.6893026e-07
2.8269274e-06 2.848575e-06 2.950083e-07 7.399842e-07 2.3473524e-06 7.5984303e-07 4.1567782e-06 4.63302e-07
1.33379e-07 1.2783674e-06 7.445126e-07 1.9903205e-06 1.3262584e-06 1.6856961e-06 1.5886857e-06 5.8047374e-07
2.7746387e-07 4.5234594e-07 3.7123058e-07 1.7467625e-07 3.1898978e-07 6.695658e-07 1.9776316e-07 5.369321e-07
1.8636878e-05 3.0063609e-06 3.8877697e-06 2.6641426e-06 1.8961586e-05 2.6729218e-05 2.453844e-05 8.846448e-06
4.1583746e-05 4.443182e-05 5.7195057e-06 1.0682125e-05 3.537475e-05 1.1077816e-05 6.128889e-05 6.897041e-06
4.3452505e-06 1.9238216e-05 1.2866922e-05 2.9818148e-05 1.907627e-05 2.4206674e-05 2.3269866e-05 1.0069847e-05
4.0308864e-06 6.7012465e-06 5.50066e-06 3.101309e-06 6.786283e-06 1.07163e-05 3.6080437e-06 1.0206668e-05

exp_avg f4 [32]
00000000: 0400 0000 0400 0000 9a42 d7ba ee4b 80ba
00000010: 550a 4fba f259 a93a 60d0 edb9 4e77 9f3a
00000020: 969c a83a 7c05 c33a 33b5 4fba 61fa 8d3a
00000030: 99d4 573a 687a a7ba 1dcf 2c3a 16fc 9d3a
00000040: 79c6 ca3a 0400 0080 8a19 69ba a663 783a
00000050: 45c8 74ba 66ae 62ba 9688 8e3a 9d91 07bb
00000060: 0000 0000 8843 123a f06e 77ba 9d01 62ba
00000070: 5f04 d7ba 00b4 a43a aaac b4b8 0474 973a
6e-45 6e-45 -0.0016423047 -0.0009788254 -0.0007897963 0.0012920483 -0.00045359414 0.0012166293
0.0012864049 0.0014878954 -0.0007923424 0.0010832065 0.00082332786 -0.0012777569 0.00065921416 0.0012053277
0.0015470526 -6e-45 -0.000889205 0.0009475298 -0.0009337704 -0.0008647203 0.0010874446 -0.0020686158
0.0 0.0005579521 -0.0009438833 -0.0008621456 -0.0016404501 0.0012565851 -8.61523e-05 0.0011554961

exp_avg_sq f4 [32]
00000000: dc11 4632 2429 862c 91f0 0c3a 135b 3439
00000010: 289d e938 e1cb a339 e0f5 9b37 7a81 9339
00000020: 8b33 a739 4953 e739 01cb b238 3107 6539
00000030: bb7e 0439 e69f 9b39 4454 9538 9ee5 9539
00000040: 117c fb39 a3d8 2a34 a095 1439 cc07 3b39
00000050: d422 2939 996b 1039 9ac1 6a39 71b2 3f3a
00000060: 0000 0000 d639 6a38 c444 3f39 9783 ed38
00000070: 1bc6 123a 2da6 a239 e042 1838 525e 7839
1.1529178e-08 3.8130766e-12 0.00053764234 0.00017200065 0.000111395784 0.00031241684 1.8591934e-05 0.00028134492
0.00031891125 0.00044121806 8.525514e-05 0.00021841821 0.00012635712 0.00029683037 7.120569e-05 0.00028590573
0.00047966887 1.5911296e-07 0.0001417012 0.00017836614 0.0001613007 0.00013772993 0.00022388101 0.00073126616
0.0 5.584381e-05 0.00018240797 0.00011325551 0.0005598978 0.00031022858 3.6301906e-05 0.0002368626
