notebooks/runs/cartpole_onnx/nn/cartpole_vel_info_ep_435_rew_400.72015.pth (torch, 41081 bytes, 33 tensors)

a2c_network.actor_mlp.0.weight f4 [32, 4]
0.24398634 0.35994813 0.6224967 0.47887707 -0.23613937 0.3028711 -0.4054475 -0.45553303
0.4439033 -0.2888025 -0.21520448 0.47026113 0.43559456 -0.31376734 -0.26196164 -0.33263856
0.44553173 0.08210571 -0.4898991 -0.4851529 -0.081168406 0.32035267 0.8293088 0.37687784
-0.00949777 0.23144987 -0.79835826 -0.25186765 -0.38844645 0.5178168 0.33487946 -0.45849237
-0.10324243 -0.56673634 -0.38597813 -0.36808896 -0.101606645 -0.5294117 -0.7252917 -0.5125486
-0.2648962 -0.45918137 -0.27255464 -0.21591143 0.35174257 0.2812079 -0.17652684 -0.42326358
-0.571663 -0.23956409 -0.63991004 -0.049719736 -0.047806036 0.18753177 -0.69661325 -0.5263242
0.2821113 -0.0627682 0.49671328 -0.0980184 0.1682979 -0.528846 -0.020119779 -0.23875524
0.08388781 -0.3729105 -0.13892958 -0.25090036 -0.39121932 0.5698443 0.286864 0.06591182
-0.18504637 -0.29747784 0.21778561 -0.19750547 -0.088950336 0.02975626 0.25808898 0.43198788
-0.40492207 0.014348235 -0.29708695 -0.47237045 -0.28357574 0.22699761 0.115894146 -0.4013284
-0.099420235 0.44434348 0.9205035 0.34600753 -0.08136318 0.5077079 0.38681287 0.37592995
-0.25658265 -0.25729072 0.44066185 0.45778346 0.2791338 -0.31795704 -0.7902949 -0.2958852
0.3516048 -0.098922655 0.58541507 0.45330682 0.05313025 0.18437077 -0.8282914 -0.45847982
0.01996547 0.06429692 -0.54463685 -0.28520015 0.05290826 -0.6163159 0.17429967 -0.22626048
0.3398677 0.058863346 0.63878936 0.17519799 0.1238144 -0.12063425 0.6597618 0.36408165
00000000: 8ed7 793e 1f4b b83e f25b 1f3f 602f f53e
00000010: 85ce 71be ec11 9b3e d196 cfbe a03b e9be
00000020: 4b47 e33e ecdd 93be 905e 5cbe 11c6 f03e
00000030: 4006 df3e 1da6 a0be d61f 86be 9a4f aabe
00000040: bc1c e43e 0a27 a83d 0ed4 fabe f665 f8be
00000050: 9f3b a6bd 4405 a43e 954d 543f 22f6 c03e
00000060: 899c 1bbc 3201 6d3e 3561 4cbf ccf4 80be
00000070: 74e2 c6be a48f 043f 5275 ab3e 83bf eabe
00000080: c470 d3bd a215 11bf ed9e c5be 2876 bcbe
00000090: 2517 d0bd 8687 07bf b8ac 39bf 6336 03bf
000000a0: 7aa0 87be d219 ebbe 488c 8bbe e317 5dbe
000000b0: 9a17 b43e 7bfa 8f3e 74c3 34be 01b6 d8be
000000c0: 8258 12bf 4a50 75be 25d1 23bf eca6 4bbd
000000d0: 43d0 43bd 5408 403e 3f55 32bf 2fbd 06bf
000000e0: e470 903e 9d8c 80bd 3451 fe3e dfbd c8bd
000000f0: 4956 2c3e 7462 07bf 3cd2 a4bc 417c 74be
00000100: 5fcd ab3d 20ee bebe 8e43 0ebe 0376 80be
00000110: e64d c8be 51e1 113f d7df 923e c7fc 863d
00000120: cc7c 3dbe 044f 98be 3103 5f3e e03e 4abe
00000130: 982b b6bd 66c3 f33c 3d24 843e 842d dd3e
00000140: f251 cfbe dc14 6b3c c81b 98be 8ada f1be
00000150: d730 91be 1072 683e e959 ed3d eb7a cdbe
00000160: d69c cbbd fd80 e33e 1ea6 6b3f e627 b13e
00000170: bda1 a6bd 25f9 013f 560c c63e e479 c03e
00000180: cd5e 83be 9cbb 83be 6e9e e13e 9862 ea3e
00000190: a0ea 8e3e 44cb a2be c450 4abf 447e 97be
000001a0: 8b05 b43e f697 cabd c3dd 153f d517 e83e
000001b0: 1b9f 593d b1cb 3c3e e80a 54bf debd eabe
000001c0: a08e a33c 1bae 833d 526d 0bbf c105 92be
000001d0: 55b6 583d e1c6 1dbf 9d7b 323e d4b0 67be
000001e0: 2403 ae3e b11a 713d b387 233f 1a67 333e
000001f0: 6792 fd3d 170f f7bd 26e6 283f e968 ba3e

a2c_network.actor_mlp.0.bias f4 [32]
0.16214152 0.18693332 -0.10014276 0.14460842 0.104483366 0.16695027 0.14352438 0.14990138
0.11892525 0.12804401 0.105072975 0.060032997 0.10600577 0.16011588 -0.03801011 0.0843276
0.08132582 0.093143076 0.041180663 0.20515458 0.10528538 -0.03792419 0.15699598 0.12427695
0.15644673 0.18274353 0.16612102 0.15777291 0.1021992 0.1832432 0.17962612 0.12627278
00000000: 6d08 263e 736b 3f3e a617 cdbd 3b14 143e
00000010: 60fb d53d 03f5 2a3e 0ef8 123e bf7f 193e
00000020: 158f f33d f81d 033e 8030 d73d 29e5 753d
00000030: 8e19 d93d 6bf5 233e 7db0 1bbd f3b3 ac3d
00000040: 278e a63d ccc1 be3d 0ead 283d 0b14 523e
00000050: dc9f d73d 6556 1bbd 8ec3 203e ea84 fe3d
00000060: 9233 203e 1f21 3b3e a11b 2a3e 398f 213e
00000070: d04d d13d 1ba4 3b3e e9ef 373e a74d 013e

a2c_network.actor_mlp.2.weight f4 [32, 32]
-0.16058287 0.13185894 -0.09497134 0.1451281 0.17208716 -0.27700227 0.13335557 0.17848895
0.2756255 0.09835479 0.18170947 0.0407739 0.10887059 -0.053183336 0.067394555 0.1645222
0.29400414 -0.04803145 0.06982498 0.112602845 0.1077134 -0.0765362 -0.23910955 -0.21131895
-0.011783608 0.2981967 0.06322699 0.16679266 -0.090704046 0.0012416971 0.065710254 -0.043934226
-0.121088624 0.23094806 0.040566266 0.31277332 -0.08934738 -0.20396502 0.0075505306 0.16883871
0.38788584 0.259459 0.16633491 -0.0147224385 0.34065676 0.046003092 0.10101294 0.0942464
0.21998407 -0.11398134 -0.024231324 -0.12548734 0.018516956 0.16298735 -0.17357576 0.0047966475
-0.037702277 0.098605454 -0.13232309 0.2275857 0.00968973 0.21050547 -0.23267332 0.07656928
0.20948127 0.093690015 0.11287146 -0.24923079 0.16275556 0.323329 0.07522686 0.14037417
-0.026200248 -0.27905887 0.04129936 -0.0018807903 -0.068582475 -0.05883612 0.20756301 -0.021209273
-0.1516909 0.17356932 -0.19564274 0.24992879 0.09139929 0.07759661 0.15677506 0.39707392
0.15565279 -0.06534303 0.015984148 -0.17435235 -0.1769993 -0.066792995 0.06725122 0.2014351
0.05467436 0.034479156 -0.05053919 -0.20576417 -0.16664936 0.30942127 -0.031436823 0.17809549
-0.18010454 -0.049543854 -0.030339424 -0.049512878 -0.15728974 0.07680948 -0.10457345 -0.21756078
-0.24558267 0.051978454 -0.22912635 0.21205446 -0.08572776 -0.09753345 0.30208167 0.24150361
0.053463142 -0.17002851 0.29928792 0.13578771 -0.0377332 0.032728486 0.17123485 0.13793306
0.16278343 -0.1834656 -0.00819582 -0.0020898758 0.10392745 0.0061668986 0.032293387 0.117580734
-0.14502703 -0.044146482 0.037934296 -0.16194052 0.1224978 -0.021849664 0.103881046 -0.13391851
-0.14969991 -0.18261828 0.16056842 0.027941244 0.11538772 -0.14219105 -0.118411765 0.03333481
-0.11229746 0.015860494 -0.14635123 -0.15200837 -0.13659863 -0.10241947 -0.006628145 0.0985008
-0.048036117 -0.09448998 0.08841444 0.07167935 -0.07373802 -0.086700246 -0.17353784 0.011652508
0.09716955 0.069308385 -0.14913632 0.119471736 -0.1376184 0.14378677 -0.10897784 -0.13598776
-0.026444362 -0.18758823 -0.018763047 -0.05962436 -0.054502733 -0.021042375 0.12906717 -0.065968364
0.029602928 -0.044037875 -0.13629188 0.10769217 -0.01908973 -0.03698274 -0.003697351 -0.04899437
0.123526916 0.043539144 0.07097062 -0.19303142 0.08815925 0.22838521 -0.023745228 0.17042038
-0.2960619 -0.09684009 -0.12642959 0.064876914 -0.11952702 0.095416516 0.12407303 -0.26756912
-0.13986139 0.14578505 0.03256837 0.071804486 -0.21894974 0.023383223 0.35087332 0.2589462
0.102032125 -0.059646986 -0.025890788 -0.101113096 -0.06728832 0.031104717 0.17061974 0.057653926
-0.028179545 0.22991942 -0.05386942 0.044586733 0.021486567 -0.2103513 0.04380029 -0.039071143
0.17335589 0.33950552 0.19435114 0.05889212 0.27065542 0.08474592 -0.16973428 0.31074208
0.18409762 -0.03340365 0.18626302 -0.16377237 0.05342509 0.15216888 -0.10736881 -0.3151788
0.101325154 0.30777234 -0.14471959 0.21606284 -0.007659055 -0.029831393 0.037320428 0.08824078
00000000: d66f 24be 0806 073e 5580 c2bd 769c 143e
00000010: 9e37 303e 3ed3 8dbe 5d8e 083e cfc5 363e
00000020: c91e 8d3e 3c6e c93d 0c12 3a3e 8802 273d
00000030: 8bf7 de3d c5d6 59bd 2806 8a3d 8278 283e
00000040: b687 963e a0bc 44bd 6600 8f3d 529c e63d
00000050: d898 dc3d 03bf 9cbd 22d9 74be ff63 58be
00000060: 0910 41bc 3dad 983e 277d 813d b2cb 2a3e
00000070: 0bc3 b9bd 71c0 a23a 1993 863d 60f4 33bd
00000080: 50fd f7bd a67d 6c3e d028 263d d323 a03e
00000090: c2fb b6bd 35dc 50be 716a f73b 0ee4 2c3e
000000a0: f998 c63e cfd7 843e b353 2a3e 6236 71bc
000000b0: 906a ae3e bd6d 3c3d dfdf ce3d 4204 c13d
000000c0: 8143 613e 0c6f e9bd c580 c6bc c17f 00be
000000d0: dfb0 973c 28e6 263e d8bd 31be 322d 9d3b
000000e0: b46d 1abd a8f1 c93d b47f 07be 3a0c 693e
000000f0: acc1 1e3c bf8e 573e ea41 6ebe 5bd0 9c3d
00000100: 4282 563e 8de0 bf3d 2729 e73d 5b36 7fbe
00000110: 65a9 263e 618b a53e 8a10 9a3d 3fbe 0f3e
00000120: e7a1 d6bc cee0 8ebe 8529 293d da84 f6ba
00000130: f874 8cbd 25fe 70bd 668b 543e 12bf adbc
00000140: dc54 1bbe 28bc 313e 9256 48be 55ed 7f3e
00000150: 8d2f bb3d f9ea 9e3d a489 203e 464d cb3e
00000160: 7263 1f3e 91d2 85bd 30f1 823c 6c89 32be
00000170: 4e3f 35be c4ca 88bd 02bb 893d 0145 4e3e
00000180: 39f2 5f3d 043a 0d3d 2f02 4fbd d8b3 52be
00000190: 21a6 2abe 776c 9e3e e6c3 00bd aa5e 363e
000001a0: 536d 38be 7fee 4abd 628a f8bc 04ce 4abd
000001b0: 9010 21be 4a4e 9d3d 9b2a d6bd 41c8 5ebe
000001c0: 067a 7bbe 5ce7 543d 19a0 6abe ce24 593e
000001d0: 0992 afbd 9ebf c7bd 73aa 9a3e b94c 773e
000001e0: 2bfc 5a3d f41b 2ebe 443c 993e ef0b 0b3e
000001f0: 218e 1abd 4e0e 063d 3058 2f3e 533e 0d3e
00000200: b3b0 263e 68de 3bbe c347 06bc 4cf6 08bb
00000210: ead7 d43d b213 ca3b 1246 043d 2bce f03d
00000220: f781 14be f1d2 34bd fe60 1b3d bcd3 25be
00000230: 20e0 fa3d 11fe b2bc 96bf d43d ef21 09be
00000240: ef4a 19be 4900 3bbe 0c6c 243e 09e5 e43c
00000250: 6650 ec3d 889a 11be de81 f2bd 158a 083d
00000260: 36fc e5bd deed 813c 19dd 15be 15a8 1bbe
00000270: 83e0 0bbe 4dc1 d1bd e930 d9bb caba c93d
00000280: 85c1 44bd f683 c1bd a112 b53d a0cc 923d
00000290: f603 97bd e68f b1bd e7b3 31be 29ea 3e3c
000002a0: d400 c73d 8ef1 8d3d 31b7 18be 99ad f43d
000002b0: d6eb 0cbe d73c 133e c62f dfbd 6040 0bbe
000002c0: d9a1 d8bc 2117 40be f6b4 99bc ac38 74bd
000002d0: 423e 5fbd 0f61 acbc 2f2a 043e 6c1a 87bd
000002e0: d781 f23c 0f61 34bd 1990 0bbe b68d dc3d
000002f0: 1162 9cbc 377b 17bd 424f 72bb 52ae 48bd
00000300: aefb fc3d 1a56 323d 0b59 913d 07aa 45be
00000310: d68c b43d d0dd 693e 5a85 c2bc ae82 2e3e
00000320: 6d95 97be 1954 c6bd c276 01be 30de 843d
00000330: 95ca f4bd bc69 c33d 001a fe3d d2fe 88be
00000340: d337 0fbe ad48 153e 6966 053d 3b0e 933d
00000350: 5c34 60be 2c8e bf3c aba5 b33e 9994 843e
00000360: 38f6 d03d 6650 74bd eb18 d4bc 6214 cfbd
00000370: 75ce 89bd 52cf fe3c f1b6 2e3e 8626 6c3d
00000380: cad8 e6bc ff6f 6b3e 2ea6 5cbd 94a0 363d
00000390: 9904 b03c 5566 57be ef67 333d 1009 20bd
000003a0: 3584 313e abd3 ad3e fc03 473e dd38 713d
000003b0: 5993 8a3e 458f ad3d d3ce 2dbe 9619 9f3e
000003c0: 1684 3c3e 44d2 08bd bcbb 3e3e f2b3 27be
000003d0: 44d4 5a3d 29d2 1b3e 2ee4 dbbd 1e5f a1be
000003e0: 9083 cf3d 5694 9d3e 5f31 14be 943f 5d3e
000003f0: cff8 fabb f760 f4bc 4edd 183d 95b7 b43d

a2c_network.actor_mlp.2.bias f4 [32]
0.11084297 0.11713731 0.03697956 0.094989896 -0.024672521 -0.04888292 0.06822354 0.112418674
0.08381718 0.08284544 0.11154461 0.17916413 0.1481851 0.10523726 0.09097909 0.11215889
0.07555849 0.14600246 0.12126716 0.10809644 0.08530096 0.072350875 0.08953567 0.061414033
0.035661705 0.09815809 0.073142886 0.035347592 0.17319512 0.0375644 0.060021423 0.020553151
00000000: a401 e33d b0e5 ef3d e177 173d 108a c23d
00000010: 071e cabc 7539 48bd c9b8 8b3d c33b e63d
00000020: 57a8 ab3d dfaa a93d 8071 e43d cd76 373e
00000030: d6bd 173e a286 d73d 3f53 ba3d 8fb3 e53d
00000040: 69be 9a3d ab81 153e eb5a f83d ab61 dd3d
00000050: 45b2 ae3d b22c 943d 7a5e b73d 488d 7b3d
00000060: 0212 123d 1c07 c93d f0cb 953d a3c8 103d
00000070: 105a 313e 21dd 193d 06d9 753d 155f a83c

a2c_network.critic_mlp.0.weight f4 [32, 4]
-0.18206993 0.19565172 -0.53203064 0.033078827 0.30353618 -0.26617935 0.24969089 -0.39979655
0.071690015 0.46305272 -0.20522633 -0.17145942 -0.059839167 0.08590455 0.038806364 0.15493824
-0.13936701 0.14511235 -0.07368023 -0.05993842 -0.42190388 -0.32174584 -0.38369977 -0.1634972
0.31320912 -0.36831042 -0.35572335 -0.33959207 -0.15697558 -0.0008108893 -0.113577254 0.021525195
0.58975327 0.32675418 0.13923278 0.13613504 -0.21170306 -0.5809903 0.22302666 0.39067015
0.03820169 0.17009738 -0.27374718 -0.061693344 -0.20640557 -0.17650877 0.2925679 -0.21205255
0.058552742 -0.11664266 0.34132442 -0.14432926 -0.25041527 0.004375835 -0.63047457 -0.2130584
-0.08815087 -0.018532837 -0.2841619 0.26281625 0.22582844 0.03611042 0.14382683 0.29480803
-0.049921677 -0.16246185 0.2502628 -0.12230779 0.17997876 -0.3453548 0.29193416 -0.34826908
-0.45332283 0.38365975 0.34953216 0.17573306 0.10513142 0.36172795 0.18521276 0.34187856
-0.5242363 -0.17622772 -0.2937157 -0.15113924 -0.4703533 -0.2472736 0.37032458 0.18123971
0.37384853 -0.20455171 -0.2806514 -0.16130002 -0.45900315 -0.0029621709 -0.7243302 -0.3832576
-0.48301786 -0.28866953 0.4342205 0.28563756 0.4792934 -0.44036397 -0.032095645 0.4989547
0.2975728 -0.35715157 -0.6637032 -0.21692924 -0.069415286 -0.21029049 0.15335324 0.34732875
-0.38184062 -0.29471305 -0.37841904 -0.12715712 0.3961758 0.51376724 0.38250804 -0.23528746
0.16036607 -0.1593275 -0.1818757 -0.31039476 0.0037199196 -0.50767404 -0.21946573 -0.38286027
00000000: 8a70 3abe ed58 483e 2933 08bf aa7d 073d
00000010: 1869 9b3e a948 88be f8ae 7f3e 22b2 ccbe
00000020: 37d2 923d 3f15 ed3e da26 52be 0f93 2fbe
00000030: ea19 75bd baee af3d 6cf3 1e3d 21a8 1e3e
00000040: 3ab6 0ebe 5598 143e a9e5 96bd fd81 75bd
00000050: c903 d8be dfbb a4be 4c74 c4be cf6b 27be
00000060: f25c a03e 2f93 bcbe 5f21 b6be 03df adbe
00000070: 35be 20be dc91 54ba 319b e8bd 9b55 b03c
00000080: 12fa 163f 534c a73e 0a93 0e3e fc66 0b3e
00000090: b0c8 58be c8bb 14bf 1a61 643e eb05 c83e
000000a0: 6079 1c3d 022e 2e3e 9728 8cbe 29b2 7cbd
000000b0: fb5b 53be b7be 34be 76cb 953e 4e24 59be
000000c0: 00d5 6f3d 59e2 eebd 13c2 ae3e 0dcb 13be
000000d0: 6e36 80be 2a63 8f3b c866 21bf fb2b 5abe
000000e0: 7188 b4bd 2dd2 97bc ab7d 91be da8f 863e
000000f0: 923f 673e 85e8 133d 5747 133e 14f1 963e
00000100: ac7a 4cbd 665c 26be 7222 803e 827c fabd
00000110: 5a4c 383e 58d2 b0be 6578 953e 5350 b2be
00000120: ee19 e8be 0d6f c43e e1f5 b23e 5ef3 333e
00000130: 244f d73d 6834 b93e 6aa8 3d3e b50a af3e
00000140: 5a34 06bf 0a75 34be e761 96be 3fc4 1abe
00000150: 26d2 f0be 4a35 7dbe 2f9b bd3e e796 393e
00000160: 1369 bf3e 0176 51be 8ab1 8fbe d52b 25be
00000170: 7602 ebbe fb20 42bb b46d 39bf 573a c4be
00000180: 1e4e f7be 7ecc 93be 2652 de3e 163f 923e
00000190: f265 f53e 6377 e1be b976 03bd fe76 ff3e
000001a0: 765b 983e 92dc b6be 74e8 29bf b322 5ebe
000001b0: 9a29 8ebd 6456 57be a208 1d3e 13d5 b13e
000001c0: 9d80 c3be a1e4 96be 24c0 c1be 7a35 02be
000001d0: 8ed7 ca3e 4086 033f 18d8 c33e 32ef 70be
000001e0: 0137 243e c026 23be a03d 3abe 10ec 9ebe
000001f0: e5c9 733b edf6 01bf a0bb 60be 4306 c4be

a2c_network.critic_mlp.0.bias f4 [32]
0.3732109 0.35082245 0.2966649 0.35571674 0.369794 -0.02701137 0.3791573 0.4677932
-0.124357946 0.2805562 0.35140008 0.3614063 0.34342307 -0.13031225 0.35179362 0.32276943
0.39387098 0.37280476 0.36106956 0.4067803 -0.006582205 -0.2125786 0.3090483 -0.12145504
-0.043913726 0.24702121 0.4094588 0.32096797 0.33793738 0.25744525 0.2739047 0.008402167
00000000: 8015 bf3e 009f b33e 76e4 973e 8120 b63e
00000010: a455 bd3e f346 ddbc e820 c23e 9782 ef3e
00000020: 61af febd 10a5 8f3e b6ea b33e 3f0a b93e
00000030: 26d5 af3e 9370 05be 4b1e b43e 0942 a53e
00000040: 75a9 c93e 44e0 be3e 1cde b83e 8245 d03e
00000050: 8aaf d7bb 34ae 59be 943b 9e3e 6cbd f8bd
00000060: e1de 33bd 21f3 7c3e 95a4 d13e ea55 a43e
00000070: 2106 ad3e ddcf 833e 3d3d 8c3e 3ea9 093c

a2c_network.critic_mlp.2.weight f4 [32, 32]
-0.18816298 0.1678638 -0.10580745 -0.24237844 0.117762394 0.072368756 0.036370985 0.034722805
-0.07267832 0.20937413 0.14493322 0.028433532 0.17158234 -0.08126979 -0.066471055 -0.11372029
0.12872317 0.28617212 -0.21669199 -0.29976407 0.26281562 -0.1281016 0.025042677 0.055424288
0.021646611 0.11291557 0.32456988 -0.05090081 0.01260103 -0.21453178 0.21605317 0.19997898
-0.09724497 -0.06107855 0.18604466 0.09183888 -0.07762004 -0.06968617 -0.45559087 -0.21684664
0.17040808 -0.25164002 0.05359487 -0.042001136 0.19966392 -0.012854308 -0.05928839 0.06905552
0.066920295 -0.20107524 0.25576314 0.2925713 -0.15798712 -0.23055032 -0.022196483 -0.2488197
-0.18266076 0.21945769 -0.11031479 -0.04297326 -0.1505517 0.022412226 -0.13576278 -0.3245749
0.1803468 -0.013981574 -0.03961748 0.17738974 0.3657101 -0.07198167 0.26145202 0.13762763
-0.20827161 -0.09357924 0.29062763 0.14291078 0.39390683 0.16425651 0.34148908 0.09663568
0.3453187 0.16966696 0.3829076 0.012807441 -0.0024033762 -0.18050155 0.08714155 -0.1883579
0.20063245 -0.016030634 0.41524982 0.1833873 0.21562803 -0.0958694 0.10080274 -0.18552935
-0.092656896 0.075356044 0.11483129 0.041077167 -0.14010186 0.13781032 0.14464347 -0.19836546
0.2915066 0.14211732 0.02305335 -0.047843464 0.10948545 0.012723758 0.12319771 0.21504253
-0.15846728 -0.015413514 -0.2826531 0.10232742 0.15932766 0.1003751 -0.0091686705 0.111979835
0.026952572 -0.021847486 -0.017042816 0.2327056 -0.1028025 0.2883743 0.23292474 0.24752884
-0.38367286 -0.11457603 -0.12851587 0.037270967 -0.18365027 0.08518846 -0.14880583 0.17601407
0.11526256 -0.06643453 -0.18380469 -0.19882514 -0.16224903 -0.009711239 -0.14068913 0.051369626
0.10740789 0.046850465 0.0028280383 -0.0018297342 0.07849926 0.25188947 -0.0947087 0.043217175
0.15341802 0.08927894 0.09873267 0.09104406 0.029350659 -0.075508654 0.090746984 0.07637408
0.31302246 0.21108398 -0.023965131 0.32154244 0.3142128 -0.13994643 0.060014572 0.32805547
-0.16008532 0.14593327 0.13402766 0.072538085 0.30284387 -0.047829103 0.2943006 0.047112714
0.1572471 -0.0044403463 0.23519252 0.20061299 -0.29981938 -0.16885126 0.1297624 -0.1827586
0.1787502 0.17068654 0.38228303 0.15617459 0.22465484 0.083793096 0.24128623 -0.36565673
0.29335302 0.19859363 -0.0019648303 0.30307803 0.30232045 -0.13891686 0.09384913 0.23073564
-0.33437726 0.045202214 0.257455 0.36260313 0.20191802 -0.0048225946 0.27671003 -0.047111783
0.19503194 0.01827349 0.23492607 -0.06767683 -0.28542292 -0.16760401 0.35074535 0.006188757
0.076624244 0.17949799 0.34690624 0.21112548 0.26574332 0.11552055 0.021448024 -0.23203124
-0.13309814 -0.020633692 0.014890759 -0.08622155 0.03858147 0.2800644 0.18416427 -0.012811655
0.27747092 0.18699108 0.17484279 -0.09123831 0.025450587 0.17152448 -0.15127768 -0.065363824
-0.06332364 -0.015768467 -0.121005334 -0.010329484 -0.007034197 0.07592757 0.21564032 0.15668017
-0.045177687 0.08988397 -0.124370486 -0.11562827 0.12622935 0.268103 0.13444492 0.21047823
00000000: ccad 40be 7de4 2b3e 94b1 d8bd 0e32 78be
00000010: 692d f13d 1236 943d bef9 143d 8039 0e3d
00000020: 5fd8 94bd 2c66 563e 6069 143e 70ed e83c
00000030: 48b3 2f3e c770 a6bd fa21 88bd 2fe6 e8bd
00000040: 02d0 033e 2785 923e 81e4 5dbe ad7a 99be
00000050: c58f 863e 112d 03be 4d26 cd3c 9404 633d
00000060: 3c54 b13c 4740 e73d 062e a63e 5e7d 50bd
00000070: 8d74 4e3c 38ae 5bbe 0b3d 5d3e 4ac7 4c3e
00000080: 5f28 c7bd 802d 7abd 7e82 3e3e 0616 bc3d
00000090: 41f7 9ebd 9fb7 8ebd 3543 e9be 0c0d 5ebe
000000a0: 757f 2e3e f6d6 80be 4b86 5b3d 6209 2cbd
000000b0: b374 4c3e e09a 52bc 62d8 72bd fb6c 8d3d
000000c0: 820d 893d abe6 4dbe 63f3 823e e8cb 953e
000000d0: 60c7 21be 6215 6cbe 66d5 b5bc 97ca 7ebe
000000e0: 6c0b 3bbe 84b9 603e b8ec e1bd bb04 30bd
000000f0: 3a2a 1abe d899 b73c 6605 0bbe ae2e a6be
00000100: d5ac 383e f912 65bc f045 22bd a8a5 353e
00000110: 5b3e bb3e 206b 93bd 0add 853e 42ee 0c3e
00000120: 2745 55be 79a6 bfbd 25cd 943e 3457 123e
00000130: 28ae c93e dc32 283e a8d7 ae3e ede8 c53d
00000140: 9dcd b03e 2dbd 2d3e 770c c43e 4dd6 513c
00000150: f681 1dbb 66d5 38be 4577 b23d e5e0 40be
00000160: 9872 4d3e ad52 83bc a09b d43e e1c9 3b3e
00000170: 98cd 5c3e 2d57 c4bd ab71 ce3d 68fb 3dbe
00000180: e6c2 bdbd 4554 9a3d ab2c eb3d 8840 283d
00000190: dd76 0fbe 261e 0d3e 6b1d 143e 5120 4bbe
000001a0: 5a40 953e 3487 113e 61da bc3c 82f7 43bd
000001b0: e839 e03d 4f77 503c 154f fc3d 1c34 5c3e
000001c0: 3f45 22be f788 7cbc e8b7 90be 0a91 d13d
000001d0: ca26 233e 7691 cd3d 3138 16bc af55 e53d
000001e0: a4cb dc3c 80f9 b2bc 609d 8bbc 604a 6e3e
000001f0: 1e8a d2bd cca5 933e d383 6e3e 3378 7d3e
00000200: c570 c4be d6a6 eabd aa99 03be 71a9 183d
00000210: d10e 3cbe 4a77 ae3d 8e60 18be 083d 343e
00000220: c70e ec3d d40e 88bd 4c37 3cbe d198 4bbe
00000230: 9c24 26be e31b 1fbc d010 10be f568 523d
00000240: abf8 db3d 46e6 3f3d 9c56 393b b1d3 efba
00000250: 38c4 a03d a8f7 803e a3f6 c1bd 7e04 313d
00000260: 9d19 1d3e e0d7 b63d 5b34 ca3d 4f75 ba3d
00000270: cb70 f03c 48a4 9abd 8ed9 b93d 036a 9c3d
00000280: 7b44 a03e 6626 583e 8652 c4bc 36a1 a43e
00000290: 80e0 a03e 1e4e 0fbe d7d1 753d e3f6 a73e
000002a0: 68ed 23be 886f 153e 8c3e 093e d98e 943d
000002b0: 5a0e 9b3e 73e8 43bd 91ae 963e 43f9 403d
000002c0: 6205 213e 5380 91bb 4fd6 703e 7e6d 4d3e
000002d0: ed81 99be 58e7 2cbe 6fe0 043e 1225 3bbe
000002e0: 4b0a 373e 74c8 2e3e 9aba c33e 3bec 1f3e
000002f0: eb0b 663e b79b ab3d bd13 773e 5c37 bbbe
00000300: 5e32 963e 215c 4b3e 62c4 00bb 0b2d 9b3e
00000310: bfc9 9a3e 3940 0ebe f933 c03d f745 6c3e
00000320: 7f33 abbe f525 393d 24d1 833e 1ea7 b93e
00000330: 99c3 4e3e db06 9ebb f0ac 8d3e 49f8 40bd
00000340: 74b6 473e 49b2 953c 7690 703e 269a 8abd
00000350: f422 92be 63a0 2bbe e594 b33e 0ecb ca3b
00000360: 2ced 9c3d 52ce 373e b29d b13e 4731 583e
00000370: 820f 883e 0a96 ec3d c4b3 af3c 9999 6dbe
00000380: e14a 08be fd07 a9bc 5ff8 733c ed94 b0bd
00000390: 9a07 1e3d 9a64 8f3e 8f95 3c3e fae7 51bc
000003a0: ab10 8e3e 977a 3f3e fd09 333e 27db babd
000003b0: c07d d03c 1da4 2f3e 89e8 1abe 78dd 85bd
000003c0: d3af 81bd df2c 81bc a5d1 f7bd ff3c 29bc
000003d0: 1f7f e6bb ea7f 9b3d d1d0 5c3e c470 203e
000003e0: 3d0c 39bd 1615 b83d f4b5 febd 84ce ecbd
000003f0: 4442 013e cc44 893e eeab 093e 9b87 573e

a2c_network.critic_mlp.2.bias f4 [32]
0.011258167 0.004091202 0.25540704 -0.07171925 -0.07268936 0.28249893 0.21033101 -0.037904892
0.30257744 -0.012370811 0.2491743 -0.020113759 0.25265393 -0.012105241 0.26025292 0.22784424
0.005256068 0.21566167 0.25698927 0.29705068 0.0004900131 -0.11991385 0.023389757 0.24539864
0.25130007 0.24450164 0.23766851 0.018123666 -0.010404842 0.25206408 -0.08524778 0.26500124
00000000: 2d74 383c 7d0f 863b b6c4 823e 8be1 92bd
00000010: 29de 94bd b3a3 903e 0361 573e 2942 1bbd
00000020: 6eeb 9a3e f1ae 4abc 8c27 7f3e 9cc5 a4bc
00000030: db5b 813e 1055 46bc df3f 853e 0050 693e
00000040: 183b ac3b 6ad6 5c3e 1994 833e 0717 983e
00000050: 3974 003a 6595 f5bd e09b bf3c c849 7b3e
00000060: 67aa 803e a35e 7a3e 605f 733e 1578 943c
00000070: 1279 2abc 8b0e 813e 6396 aebd 3eae 873e

a2c_network.value.weight f4 [1, 32]
-0.35897255 -0.34788534 0.34315133 -0.45279458 -0.2156973 0.21601161 0.37930906 -0.2930794
0.24655141 -0.0017743357 0.2607212 -0.03702538 0.47423965 -0.14686432 0.39718786 0.34963226
-0.30292886 0.4046764 0.38550934 0.2683941 -0.36918744 -0.31810045 -0.105014466 0.43513486
0.3566351 0.44835585 0.36571556 -0.27799824 -0.05820507 0.34217027 -0.26903716 0.3743658
00000000: 40cb b7be 071e b2be 88b1 af3e b1d4 e7be
00000010: c1df 5cbe 2632 5d3e cc34 c23e 810e 96be
00000020: f977 7c3e d490 e8ba 407d 853e eda7 17bd
00000030: 8acf f23e 9a63 16be 355c cb3e 0003 b33e
00000040: 7e19 9bbe bf31 cf3e 7b61 c53e f46a 893e
00000050: 2306 bdbe 10de a2be d311 d7bd ffc9 de3e
00000060: e098 b63e e68e e53e 123f bb3e c955 8ebe
00000070: 7168 6ebd f130 af3e 3dbf 89be e0ac bf3e

a2c_network.logits.weight f4 [2, 32]
0.20862694 0.1385021 -0.03986032 -0.34598193 0.09736767 -0.1098846 -0.39505395 0.06289104
-0.42562187 0.32470992 -0.106278315 0.23545958 0.13989228 -0.34374598 0.13192856 -0.432701
-0.27870232 0.043264385 -0.29107228 0.14355731 -0.19923817 0.36303174 0.2901042 -0.31949577
-0.31877777 0.0948665 -0.27798426 0.1457215 0.19306102 0.07777865 -0.18931969 -0.25172094
-0.20846517 -0.35550097 0.28878003 0.32178038 -0.13019933 -0.027364397 0.18666652 -0.27028665
0.21708673 -0.28068185 0.44712645 -0.38437498 -0.20228161 0.39547452 -0.28871518 0.42568126
0.06085286 -0.32513022 0.27299693 -0.18841913 0.33199728 -0.2970544 -0.35525596 0.39531523
0.38570964 -0.30390048 0.13905163 -0.20861095 -0.2833837 -0.2963541 0.292793 0.18495683
00000000: 4da2 553e 7fd3 0d3e 9344 23bd 8b24 b1be
00000010: b368 c73d 2d0b e1bd 8344 cabe 05cd 803d
00000020: 1ceb d9be 6140 a63e 72a8 d9bd 511c 713e
00000030: ec3f 0f3e 79ff afbe 4818 073e fc8a ddbe
00000040: 12b2 8ebe ff35 313d 6d07 95be b000 133e
00000050: 1705 4cbe 4cdf b93e 8a88 943e f394 a3be
00000060: d736 a3be 5e49 c23d f453 8ebe 0438 153e
00000070: cab1 453e 6a4a 9f3d 05dd 41be 91e1 80be
00000080: e577 55be 3904 b6be fada 933e 66c0 a43e
00000090: f952 05be 4d2b e0bc 8225 3f3e 0363 8abe
000000a0: fc4b 5e3e 88b5 8fbe c2ed e43e cccc c4be
000000b0: e922 4fbe a37b ca3e 7ad2 93be e5f2 d93e
000000c0: d940 793d 7877 a6be 41c6 8b3e f2f0 40be
000000d0: 8cfb a93e 8417 98be 1ce4 b5be c266 ca3e
000000e0: bc7b c53e d898 9bbe 8d63 0e3e 1c9e 55be
000000f0: ab17 91be b9bb 97be f7e8 953e 5365 3d3e

a2c_network.logits.bias f4 [2]
0.013940677 -0.013940677
00000000: 7067 643c 7067 64bc

exp_avg f4 [32, 4]
0.00070601946 -0.0034523073 -0.00046826064 0.0041307346 -8.9779765e-05 0.00034860978 4.8919956e-05 -0.000424734
-8.666181e-07 -1.9353106e-06 -7.059186e-07 1.5695676e-06 -0.0005055704 0.0025822998 0.00034681594 -0.003085548
-7.668331e-05 0.00037953167 4.9241797e-05 -0.00046869903 0.0008569371 -0.0042405855 -0.0005805644 0.0050556283
-0.00010207207 0.00041550392 5.7312638e-05 -0.0004977772 0.00017664245 -0.0008266513 -0.00010098956 0.0009926994
-0.0007022464 0.0034768106 0.00047574352 -0.004145457 -0.0008223525 0.0038124477 0.0005481825 -0.0044445223
-0.00051919353 0.0024461127 0.0003456954 -0.0029008435 2.91511e-05 -0.00015041795 -1.7091006e-05 0.00018402681
-0.00048090453 0.0022919 0.00032407945 -0.0027183264 -0.00015641954 0.0006713699 8.569682e-05 -0.0008227351
5.200803e-06 -8.741834e-05 -9.421937e-06 0.00011032209 -0.0005723742 0.0026592826 0.00037558645 -0.003160103
-0.000775448 0.0038593544 0.0005336209 -0.004607839 0.00031621565 -0.0013591883 -0.00018208702 0.0016060845
-0.00036626763 0.0018277959 0.00024219086 -0.002180292 0.00026423478 -0.0013453098 -0.00016757927 0.0016184086
-0.0004499803 0.0020165977 0.00025283603 -0.0024255041 -5.778546e-05 0.0001636787 3.5674253e-05 -0.00019995475
0.00089839037 -0.004447839 -0.00060874055 0.0053031207 0.0007177314 -0.0035535782 -0.00048636075 0.004236861
0.00018793767 -0.0007448795 -0.00010088231 0.00093226484 -0.0007102034 0.0035162007 0.0004812803 -0.004192105
0.00028626836 -0.0011910102 -0.00015846429 0.001438882 -0.0002949258 0.0012355117 0.0001636794 -0.0014969886
-0.000115101895 0.00047539675 6.7583445e-05 -0.00057788537 -0.00026123063 0.0012775557 0.00017533223 -0.0015178161
0.00048001643 -0.0023762805 -0.00032504616 0.0028334833 0.00028501527 -0.0012122432 -0.00015309283 0.0014793721
00000000: 2a14 393a 1b40 62bb e180 f5b9 1d5b 873b
00000010: 2548 bcb8 9dc5 b639 672f 4d38 d5ae deb9
00000020: 8ba1 68b5 62e0 01b6 5b7e 3db5 efa9 d235
00000030: 4188 04ba cd3b 293b d9d4 b539 e836 4abb
00000040: 0ad1 a0b8 e1fb c639 fa88 4e38 b8bb f5b9
00000050: 13a4 603a 9cf4 8abb 0431 18ba afa9 a53b
00000060: 860f d6b8 fed7 d939 fa62 7038 437d 02ba
00000070: 1939 3939 a1b3 58ba 5bca d3b8 771d 823a
00000080: f516 38ba 34db 633b 376d f939 9dd6 87bb
00000090: 2493 57ba 42da 793b e8b3 0f3a 5ba3 91bb
000000a0: 7d1a 08ba f64e 203b 733e b539 141c 3ebb
000000b0: 8389 f437 83b9 1db9 a85e 8fb7 52f7 4039
000000c0: ea21 fcb9 b433 163b 35e9 a939 f325 32bb
000000d0: 8d04 24b9 dffe 2f3a 21b8 b338 d1ac 57ba
000000e0: 8f82 ae36 5d54 b7b8 e912 1eb7 b95c e738
000000f0: 620b 16ba 5c47 2e3b 5cea c439 bb19 4fbb
00000100: 6f47 4bba 39ed 7c3b b1e2 0b3a 5bfd 96bb
00000110: bfc9 a539 cb26 b2ba 9dee 3eb9 4183 d23a
00000120: 9c07 c0b9 a792 ef3a 9df4 7d39 3be3 0ebb
00000130: fe88 8a39 1b55 b0ba 38b8 2fb9 c820 d43a
00000140: 55eb ebb9 e528 043b 148f 8439 35f5 1ebb
00000150: aa5e 72b8 2ba1 2b39 f0a0 1538 f2aa 51b9
00000160: f581 6b3a 2ebf 91bb e393 1fba cdc5 ad3b
00000170: 2426 3c3a 26e3 68bb 3cfe feb9 5ed5 8a3b
00000180: 2211 4539 0444 43ba c790 d3b8 3c63 743a
00000190: f22c 3aba 0f70 663b 5954 fc39 ed5d 89bb
000001a0: 4a16 9639 ac1b 9cba 6f29 26b9 de98 bc3a
000001b0: 45a0 9ab9 e5f0 a13a 5ba1 2b39 9a36 c4ba
000001c0: dc62 f1b8 ac3e f939 96bb 8d38 3b7d 17ba
000001d0: c8f5 88b9 a873 a73a 63d9 3739 75f1 c6ba
000001e0: b7aa fb39 5fbb 1bbb f56a aab9 f6b1 393b
000001f0: 1a6e 9539 22e4 9eba 8b87 20b9 7ee7 c13a

exp_avg_sq f4 [32, 4]
0.00016277199 0.0006198868 2.2464605e-05 0.00074288726 1.3123014e-05 1.4616204e-05 4.2772106e-07 7.048671e-06
1.5217529e-06 2.366337e-06 4.419359e-08 1.1312005e-06 9.533178e-05 0.0003692825 1.2323462e-05 0.00044201946
5.784766e-06 9.893329e-06 2.9647595e-07 5.501687e-06 0.00029150618 0.001000449 3.343094e-05 0.0012021459
9.988178e-06 1.3155154e-05 3.944317e-07 7.689242e-06 3.7105158e-06 2.0782005e-05 7.0136315e-07 2.569897e-05
0.00012434233 0.00048361687 1.828102e-05 0.00064368645 0.00020882457 0.00080241467 2.8225912e-05 0.0010371263
4.735709e-05 0.00023272625 9.152591e-06 0.0003093635 2.9063608e-06 3.5410253e-06 5.1671478e-08 8.9822004e-07
2.678508e-05 0.0001998589 7.5430903e-06 0.000263255 1.8691715e-05 2.5560545e-05 8.58733e-07 1.6492813e-05
3.967553e-06 5.442142e-06 1.424637e-07 5.9706986e-06 0.0001091928 0.00034275377 1.5293697e-05 0.00045503417
0.00017182756 0.00069205975 2.6569083e-05 0.0009162224 1.1504102e-05 5.8230533e-05 2.1270653e-06 7.286822e-05
1.6656504e-05 0.000116871735 3.7093891e-06 0.00015481668 4.9784765e-05 8.741286e-05 3.1480804e-06 8.001082e-05
4.67913e-05 0.00015888481 6.3490456e-06 0.00016741068 3.7193906e-06 4.529365e-06 8.564957e-08 1.443713e-06
0.00029483603 0.0010519358 3.4331464e-05 0.0012917551 0.00018189335 0.0006611486 2.3820348e-05 0.0008312006
3.1578704e-05 3.7667574e-05 1.1170487e-06 3.025578e-05 0.00017805431 0.0006765891 2.261726e-05 0.0008072627
3.348368e-05 7.8340185e-05 2.7037045e-06 7.600109e-05 4.164163e-05 7.4794145e-05 2.7870424e-06 6.148778e-05
1.0040077e-05 1.4221833e-05 4.3586428e-07 8.528061e-06 1.631724e-05 6.16179e-05 2.5963136e-06 8.5017324e-05
8.335238e-05 0.00032718215 1.1008766e-05 0.00038783398 4.6511832e-05 7.268559e-05 2.3763225e-06 6.496839e-05
00000000: c6ad 2a39 e67f 223a 5f72 bc37 52be 423a
00000010: ea2a 5c37 1e38 7537 89a1 e534 9f83 ec36
00000020: 083f cc35 5ccd 1e36 5ecf 3d33 c1d3 9735
00000030: dcec c738 429c c139 dec0 4e37 d9be e739
00000040: c31a c236 86fb 2537 582b 9f34 229b b836
00000050: 4cd5 9839 7f21 833a 3338 0c38 5391 9d3a
00000060: e692 2737 f5b4 5c37 48c2 d334 0b01 0137
00000070: 2d02 7936 0455 ae37 4f45 3c35 1e94 d737
00000080: e461 0239 f58d fd39 315a 9937 11bd 283a
00000090: ebf7 5a39 2359 523a afc6 ec37 2ff0 873a
000000a0: 4aa1 4638 fa07 7439 148e 1937 1132 a239
000000b0: e60a 4336 5aa2 6d36 64ed 5d33 361d 7135
000000c0: 85b0 e037 3791 5139 a71a fd36 7d05 8a39
000000d0: 27cc 9c37 da6a d637 af83 6635 0c5a 8a37
000000e0: 0521 8536 a59b b636 20f8 1834 e957 c836
000000f0: 70fe e438 a2b3 b339 f74a 8037 a791 ee39
00000100: 9c2c 3439 586b 353a ace0 de37 a52e 703a
00000110: be01 4137 8f3c 7438 b4be 0e36 d4d0 9838
00000120: 92b9 8b37 0919 f538 d2ee 7836 4956 2239
00000130: fccf 5038 6c51 b738 9c43 5336 7bcb a738
00000140: c741 4438 519a 2639 e309 d536 f68a 2f39
00000150: a59a 7936 f3fa 9736 59ee b733 9ac5 c135
00000160: 3994 9a39 1ce1 893a 21ff 0f38 1c50 a93a
00000170: a0ba 3e39 ee50 2d3a cfd1 c737 eee4 593a
00000180: 6073 0438 40fd 1d38 80ed 9535 cbcd fd37
00000190: 17b4 3a39 205d 313a 32ba bd37 7c9e 533a
000001a0: d470 0c38 914a a438 4a71 3536 c662 9f38
000001b0: 5ca8 2e38 cdda 9c38 0609 3b36 00f3 8038
000001c0: cd71 2837 4f9a 6e37 bb00 ea34 be13 0f37
000001d0: 02e1 8837 dc38 8138 543c 2e36 544b b238
000001e0: 78cd ae38 a589 ab39 4ab2 3837 3256 cb39
000001f0: b315 4338 c76e 9838 e978 1f36 a43f 8838

exp_avg f4 [32]
-0.0125629 0.0012606136 6.33389e-06 0.009200319 0.0011002728 -0.0155021595 0.0016165144 -0.0029474928
0.012708555 0.015257038 0.00932776 -0.00051222305 0.008637954 0.0020365305 -0.00018121491 0.010504489
0.01420364 -0.0052670985 0.006470459 -0.0049103904 0.0076748068 0.00080103404 -0.016257063 -0.012988242
-0.0030062797 0.012855403 -0.004713777 0.004184449 0.0018215916 0.004782366 -0.008683174 -0.0048917257
00000000: 9fd4 4dbc 2c3b a53a b387 d436 efbc 163c
00000010: 0737 903a c5fc 7dbc 39e1 d33a b92a 41bb
00000020: 8b37 503c a8f8 793c 76d3 183c b546 06ba
00000030: 3486 0d3c 5077 053b 8204 3eb9 051b 2c3c
00000040: 62b6 683c a097 acbb 2506 d43b 57e7 a0bb
00000050: f27c fb3b 7cfc 513a 882d 85bc a3cc 54bc
00000060: 0105 45bb 789f 523c 0776 9abb b41d 893b
00000070: 79c2 ee3a 65b5 9c3b df43 0ebc c54a a0bb

exp_avg_sq f4 [32]
0.006178381 9.602206e-05 7.0660985e-06 0.0035001212 6.9577545e-05 0.009818955 0.00010166637 0.00021732204
0.005658589 0.00821603 0.002982905 1.2483457e-05 0.0022599609 0.00020636679 4.2231877e-05 0.0045746043
0.0078049316 0.0007209577 0.001249203 0.0008956801 0.0017253777 1.7302795e-05 0.010598708 0.006804841
0.00033880005 0.0066441894 0.0008260149 0.0007156731 0.000116957934 0.000812601 0.0031888818 0.000739201
00000000: 0474 ca3b 735f c938 5319 ed36 4a62 653b
00000010: 29ea 9138 afdf 203c b735 d538 f1e0 6339
00000020: af6b b93b 879c 063c d77c 433b 0a70 5137
00000030: da1b 143b 2a64 5839 2222 3138 90e6 953b
00000040: 83c0 ff3b a7fe 3c3a 4cbc a33a 13cc 6a3a
00000050: 1226 e23a 7825 9137 34a6 2d3c 25fb de3b
00000060: f9a0 b139 80b7 d93b ec88 583a 029c 3b3a
00000070: 5047 f538 bb04 553a 8ffc 503b f0c6 413a

exp_avg f4 [32, 32]
0.00020482948 0.00076901587 1.7508282e-05 0.00024080994 0.00045292766 0.00030044207 0.00047586628 0.0008719474
0.0001360949 0.00023247897 9.949738e-05 0.00046859792 0.000117454845 0.0006640914 1.0846643e-06 2.0436464e-05
9.311305e-05 0.00047895516 7.597226e-05 0.00015900724 0.00051122566 0.0003468591 0.0003696335 0.00028657677
-3.2344153e-05 0.00026575898 1.9292258e-06 0.0005939515 0.00035094802 0.00016792011 0.00025819085 -5.9413605e-07
0.000241693 0.00091070944 2.023341e-05 0.0002850998 0.0005364186 0.00035496944 0.00056356326 0.0010326013
0.00016100284 0.00027533577 0.00011753982 0.0005549761 0.00013876638 0.00078650983 1.2845001e-06 2.3940527e-05
0.00011015714 0.00056709367 8.987322e-05 0.00018716833 0.0006054658 0.0004107966 0.0004370541 0.00033885907
-3.9601564e-05 0.00031456168 1.1083139e-06 0.00070344063 0.00041564243 0.00019822866 0.00030504243 -1.6980915e-06
-0.00016094011 -0.0006046879 -1.3532227e-05 -0.0001893763 -0.0003561113 -0.00023615501 -0.0003742106 -0.00068556727
-0.000107039305 -0.00018288793 -7.823733e-05 -0.00036840202 -9.2375965e-05 -0.0005221831 -8.50364e-07 -1.6016455e-05
-7.322272e-05 -0.00037658215 -5.9750855e-05 -0.00012488362 -0.00040200105 -0.00027268034 -0.00029058897 -0.00022530259
2.5730824e-05 -0.00020900961 -1.2704842e-06 -0.0004670428 -0.00027597405 -0.00013197634 -0.00020293066 6.8799744e-07
-0.00032736931 -0.0012293834 -2.7824464e-05 -0.00038497327 -0.00072404457 -0.00048024484 -0.0007607522 -0.0013939079
-0.00021756199 -0.00037168362 -0.00015903954 -0.0007490775 -0.00018775256 -0.0010616411 -1.7320646e-06 -3.2617932e-05
-0.0001488477 -0.000765671 -0.00012145676 -0.000254071 -0.00081727514 -0.0005544553 -0.0005908822 -0.00045811242
5.1978375e-05 -0.00042485344 -2.872087e-06 -0.0009495177 -0.0005610474 -0.0002683824 -0.0004126953 1.1377284e-06
6e-45 6e-45 6e-45 6e-45 6e-45 6e-45 -6e-45 6e-45
-6e-45 6e-45 6e-45 6e-45 6e-45 6e-45 6e-45 6e-45
6e-45 6e-45 6e-45 6e-45 6e-45 6e-45 6e-45 6e-45
6e-45 6e-45 6e-45 -6e-45 -6e-45 6e-45 6e-45 6e-45
6e-45 6e-45 6e-45 6e-45 6e-45 -6e-45 6e-45 6e-45
6e-45 6e-45 -6e-45 6e-45 6e-45 6e-45 6e-45 6e-45
6e-45 -6e-45 6e-45 6e-45 6e-45 6e-45 -6e-45 -6e-45
-6e-45 6e-45 6e-45 6e-45 6e-45 6e-45 6e-45 -6e-45
-0.00028487004 -0.0010702464 -2.4162668e-05 -0.00033485208 -0.0006301604 -0.00041809102 -0.000662121 -0.001213738
-0.00018916924 -0.00032332493 -0.00013828251 -0.00065211655 -0.00016330087 -0.00092412246 -1.5076936e-06 -2.8172337e-05
-0.00012941373 -0.000666763 -0.00010574844 -0.00022093474 -0.00071154576 -0.00048286884 -0.0005144893 -0.0003988403
4.549468e-05 -0.00036945782 -2.191368e-06 -0.0008264491 -0.0004883066 -0.00023335888 -0.00035911254 1.1738944e-06
0.00016365477 0.0006144704 1.397339e-05 0.0001924205 0.00036190404 0.00024005445 0.00038023863 0.00069670856
0.000108752545 0.00018577262 7.950761e-05 0.00037442206 9.3859606e-05 0.0005306334 8.6656115e-07 1.6329692e-05
7.440394e-05 0.0003826966 6.070649e-05 0.00012704669 0.00040849 0.00027715074 0.0002953414 0.0002289801
-2.5848482e-05 0.00021236081 1.5341242e-06 0.00047459075 0.00028042297 0.0001341738 0.00020629536 -4.817754e-07
00000000: 7fc7 5639 c897 493a c0de 9237 ed81 7c39
00000010: ec76 ed39 a784 9d39 b17d f939 6693 643a
00000020: b2b4 0e39 99c5 7339 40a9 d038 26ae f539
00000030: 1752 f638 6b16 2e3a c894 9135 f96e ab37
00000040: b045 c338 461c fb39 4c53 9f38 2ebb 2639
00000050: c603 063a a4da b539 5ecb c139 af3f 9639
00000060: 45a9 07b8 9155 8b39 d977 0136 69b3 1b3a
00000070: 72ff b739 b613 3039 ca5d 8739 b87c 1fb5
00000080: f86e 7d39 adbc 6e3a ebba a937 7379 9539
00000090: 719e 0c3a 311b ba39 17bc 133a 5a58 873a
000000a0: dfd2 2839 f15a 9039 b67f f638 d17b 113a
000000b0: d181 1139 c82d 4e3a 1667 ac35 e4d3 c837
000000c0: 2a04 e738 03a9 143a 517a bc38 9e42 4439
000000d0: 1fb8 1e3a 3060 d739 6924 e539 e5a8 b139
000000e0: db19 26b8 c1eb a439 60c1 9435 1a67 383a
000000f0: 95ea d939 9adb 4f39 1aee 9f39 fbe9 e3b5
00000100: 08c2 28b9 eb83 1eba 7908 63b7 5093 46b9
00000110: 73b4 bab9 61a0 77b9 b231 c4b9 a4b7 33ba
00000120: 4a7a e0b8 9bc5 3fb9 5913 a4b8 1526 c1b9
00000130: f8b9 c1b8 1de3 08ba 9244 64b5 135b 86b7
00000140: 268f 99b8 0070 c5b9 fe9c 7ab8 31f3 02b9
00000150: abc3 d2b9 89f6 8eb9 315a 98b9 343f 6cb9
00000160: 86d8 d737 9729 5bb9 8185 aab5 6cdd f4b9
00000170: 9cb0 90b9 2163 0ab9 c9c9 54b9 d3ae 3835
00000180: c4a2 abb9 4323 a1ba 9568 e9b7 3dd6 c9b9
00000190: cfcd 3dba 5fc9 fbb9 376d 47ba cab3 b6ba
000001a0: 5a21 64b9 88de c2b9 dac3 26b9 bd5d 44ba
000001b0: 72df 44b9 c426 8bba 4979 e8b5 3dcf 08b8
000001c0: 0014 1cb9 50b7 48ba 9ab6 feb8 d534 85b9
000001d0: 683e 56ba de58 11ba 6fe5 1aba cf2e f0b9
000001e0: 5b03 5a38 ddbe deb9 14be 40b6 0ee9 78ba
000001f0: 4113 13ba adb5 8cb9 075f d8b9 0db4 9835
00000200: 0400 0000 0400 0000 0400 0000 0400 0000
00000210: 0400 0000 0400 0000 0400 0080 0400 0000
00000220: 0400 0080 0400 0000 0400 0000 0400 0000
00000230: 0400 0000 0400 0000 0400 0000 0400 0000
00000240: 0400 0000 0400 0000 0400 0000 0400 0000
00000250: 0400 0000 0400 0000 0400 0000 0400 0000
00000260: 0400 0000 0400 0000 0400 0000 0400 0080
00000270: 0400 0080 0400 0000 0400 0000 0400 0000
00000280: 0400 0000 0400 0000 0400 0000 0400 0000
00000290: 0400 0000 0400 0080 0400 0000 0400 0000
000002a0: 0400 0000 0400 0000 0400 0080 0400 0000
000002b0: 0400 0000 0400 0000 0400 0000 0400 0000
000002c0: 0400 0000 0400 0080 0400 0000 0400 0000
000002d0: 0400 0000 0400 0000 0400 0080 0400 0080
000002e0: 0400 0080 0400 0000 0400 0000 0400 0000
000002f0: 0400 0000 0400 0000 0400 0000 0400 0080
00000300: 9c5a 95b9 8347 8cba efb0 cab7 168f afb9
00000310: 5931 25ba 3a33 dbb9 3092 2dba 4a16 9fba
00000320: bb5b 46b9 f083 a9b9 eeff 10b9 cdf2 2aba
00000330: be3b 2bb9 cf40 72ba f55b cab5 a253 ecb7
00000340: 3cb3 07b9 b5c9 2eba 43c5 ddb8 b8aa 67b9
00000350: 0787 3aba 8f29 fdb9 cbde 06ba 701b d1b9
00000360: 8ad1 3e38 cab3 c1b9 6a0f 13b6 0fa6 58ba
00000370: b401 00ba ccb1 74b9 4547 bcb9 b48e 9d35
00000380: be9a 2b39 6914 213a 416f 6a37 7cc4 4939
00000390: f0bd bd39 20b7 7b39 c45a c739 52a3 363a
000003a0: 1412 e438 f5cb 4239 53bd a638 144e c439
000003b0: 7ed6 c438 341a 0b3a a19d 6835 bffb 8837
000003c0: 5009 9c38 aba4 c839 199f 7e38 d637 0539
000003d0: 9a2a d639 8b4e 9139 0dd8 9a39 611a 7039
000003e0: 31d5 d8b7 2cad 5e39 1be8 cd35 7ed2 f839
000003f0: bc05 9339 01b1 0c39 fd50 5839 5a53 01b5

exp_avg_sq f4 [32, 32]
5.574486e-06 1.5286285e-05 3.5928997e-06 4.5882157e-06 9.124337e-06 4.853947e-06 7.7833665e-06 1.6861619e-05
2.359394e-06 2.818119e-06 2.2540812e-06 8.582533e-06 2.774635e-06 1.2706475e-05 1.0340545e-07 1.7873978e-06
1.0140985e-06 4.565058e-06 4.1645754e-07 8.642762e-06 6.2715067e-06 3.2284793e-06 4.7905696e-06 3.1928112e-06
1.0761322e-05 6.118294e-06 8.829092e-06 1.1446905e-05 4.0975206e-06 6.1546875e-06 6.107456e-06 5.5930936e-06
7.863754e-06 2.163136e-05 5.118366e-06 6.488936e-06 1.2856783e-05 6.878455e-06 1.1005148e-05 2.3848357e-05
3.3337765e-06 3.980933e-06 3.1841473e-06 1.2080024e-05 3.9106326e-06 1.7978062e-05 1.4417982e-07 2.5391846e-06
1.4377235e-06 6.45236e-06 5.885336e-07 1.2275198e-05 8.880867e-06 4.5753013e-06 6.7735164e-06 4.503067e-06
1.5267902e-05 8.672341e-06 1.255738e-05 1.6186854e-05 5.7961083e-06 8.729466e-06 8.65408e-06 7.9570655e-06
3.2499938e-06 8.717798e-06 2.12542e-06 2.669158e-06 5.1466027e-06 2.8414636e-06 4.3919463e-06 9.737026e-06
1.4169158e-06 1.6457395e-06 1.3582192e-06 4.8409906e-06 1.6735166e-06 7.207967e-06 5.52183e-08 1.0703361e-06
6.0387697e-07 2.6504758e-06 2.4773647e-07 5.1417132e-06 3.580044e-06 1.8570137e-06 2.7811325e-06 1.8397648e-06
6.4020464e-06 3.5625494e-06 5.2444802e-06 6.472479e-06 2.315297e-06 3.6709353e-06 3.6026765e-06 3.3184238e-06
1.4176207e-05 3.928425e-05 9.748408e-06 1.1892831e-05 2.2668815e-05 1.2729917e-05 1.969157e-05 4.3790715e-05
6.473848e-06 7.5185985e-06 6.2269833e-06 2.1182826e-05 7.816951e-06 3.234367e-05 2.29439e-07 4.8559e-06
2.7158385e-06 1.2012459e-05 1.1429322e-06 2.3095901e-05 1.6298889e-05 8.430999e-06 1.2450773e-05 8.217265e-06
2.9125482e-05 1.601161e-05 2.3523622e-05 2.8966555e-05 1.0378219e-05 1.6601296e-05 1.5942582e-05 1.4961685e-05
1.6326379e-10 1.0154799e-12 3.6050742e-11 2.437389e-11 7.9886105e-11 3.336059e-11 2.0129906e-11 1.8488923e-13
2.4532516e-15 3.0134696e-15 4.2893177e-15 9.5676425e-11 4.6915725e-14 2.8529065e-12 1.23684995e-11 1.0487556e-14
4.6755933e-16 3.4043534e-13 1.13161e-15 1.5395687e-12 9.722008e-15 4.9934845e-15 4.655374e-11 5.071924e-11
9.993697e-13 3.672715e-12 4.8565856e-11 1.3279814e-11 5.7440728e-12 7.317955e-15 6.5795584e-11 1.1892558e-11
5.40855e-15 5.422202e-12 3.3395892e-15 5.5339424e-13 5.2092913e-12 1.784571e-15 2.154922e-12 5.537598e-12
6.08422e-14 8.386245e-13 9.4562445e-15 4.394813e-12 1.564495e-15 6.04447e-12 1.2962366e-16 1.2267438e-14
1.1616195e-13 6.415233e-13 5.21401e-13 1.83223e-16 3.910422e-12 3.951985e-12 1.4869535e-14 1.7157435e-14
2.851376e-16 3.9152885e-13 1.884751e-16 5.9012266e-12 2.0009593e-12 2.0700164e-14 3.55592e-15 3.3928987e-17
1.0229835e-05 2.8586646e-05 6.8713903e-06 8.4992935e-06 1.6896425e-05 9.031613e-06 1.4517035e-05 3.1701096e-05
4.297539e-06 5.106461e-06 4.1127096e-06 1.575859e-05 4.925552e-06 2.3862325e-05 1.6057446e-07 3.361332e-06
1.8949353e-06 8.516969e-06 7.604677e-07 1.6288068e-05 1.160697e-05 6.0418274e-06 8.818199e-06 5.8224373e-06
2.0144427e-05 1.13462365e-05 1.6723629e-05 2.1464932e-05 7.671065e-06 1.1499225e-05 1.1415772e-05 1.0603621e-05
3.3484669e-06 9.247757e-06 2.1593987e-06 2.770241e-06 5.47198e-06 2.9413527e-06 4.6947794e-06 1.0216636e-05
1.3936109e-06 1.67451e-06 1.3250454e-06 5.1313637e-06 1.6014116e-06 7.691874e-06 5.6751322e-08 1.0753822e-06
6.133054e-07 2.7532647e-06 2.4500218e-07 5.2291543e-06 3.773112e-06 1.9440447e-06 2.892265e-06 1.9160032e-06
6.441847e-06 3.7037225e-06 5.351819e-06 6.9195175e-06 2.4763915e-06 3.699465e-06 3.700808e-06 3.3865176e-06
00000000: 780c bb36 0c3b 8037 8c1d 7136 79f4 9936
00000010: bb14 1937 16df a236 4e95 0237 0d72 8d37
00000020: 1556 1e36 ea1e 3d36 d244 1736 b3fd 0f37
00000030: de33 3a36 e52d 5537 bf0f de33 85e6 ef35
00000040: 291c 8835 8d2d 9936 7d95 df34 6100 1137
00000050: d56f d236 daa8 5836 aebe a036 1444 5636
00000060: 878b 3437 bf4b cd36 a920 1437 150c 4037
00000070: 6f7d 8936 5d84 ce36 a6ee cc36 4fac bb36
00000080: 91ee 0337 fe74 b537 6ebe ab36 89bb d936
00000090: 76b3 5737 7bcd e636 c0a2 3837 f50d c837
000000a0: d8b9 5f36 f493 8536 3caf 5536 4fab 4a37
000000b0: 1438 8336 98cf 9637 d9cf 1a34 dc66 2a36
000000c0: cef7 c035 5a81 d836 b9fb 1d35 93f1 4d37
000000d0: 09ff 1437 8a85 9936 1048 e336 0d19 9736
000000e0: 9213 8037 6c7f 1137 89ad 5237 01c9 8737
000000f0: 317c c236 c574 1237 fe30 1137 567f 0537
00000100: 781a 5a36 a842 1237 70a2 0e36 c91f 3336
00000110: fbb0 ac36 f9af 3e36 885e 9336 355c 2337
00000120: db2c be35 2ee3 dc35 0e4c b635 cb6f a236
00000130: 989d e035 f7db f136 2a29 6d33 78a8 8f35
00000140: 1c1a 2235 d4de 3136 a400 8534 fb86 ac36
00000150: b040 7036 813e f935 7ea3 3a36 d6ed f635
00000160: 29d1 d636 2214 6f36 bef9 af36 2c2e d936
00000170: 8060 1b36 305a 7636 83c5 7136 16b2 5e36
00000180: 58d6 6d37 24c5 2438 188d 2337 5287 4737
00000190: e928 be37 9492 5537 532f a537 ecab 3738
000001a0: ee39 d936 4548 fc36 61f1 d036 c6b1 b137
000001b0: 8d25 0337 c0a8 0738 b65b 7634 ddef a236
000001c0: c041 3636 1e89 4937 da66 9935 12be c137
000001d0: 99b9 8837 dd72 0d37 aae3 5037 e2dc 0937
000001e0: 7f52 f437 ac50 8637 9854 c537 34fd f237
000001f0: 1c1e 2e37 0343 8b37 6fbc 8537 f303 7b37
00000200: ac82 332f 85ea 8e2b 878d 1e2e 1f65 d62d
00000210: e1ab af2e afb8 122e 8510 b12d b12a 502a
00000220: 81c6 3027 b424 5927 f989 9a27 0a65 d22e
00000230: 264a 5329 65c1 482c c596 592d 51ed 3c28
00000240: cac3 0626 e7a5 bf2a 0a15 a326 cfac d82b
00000250: d922 2f28 c4e8 b327 dabe 4c2e ca10 5f2e
00000260: 17a6 8c2b e038 812c 4b98 552e f79e 692d
00000270: 021a ca2c 1cd4 0328 9faf 902e 5237 512d
00000280: 12dd c227 dbc6 be2c 8ca4 7027 42c4 1b2b
00000290: 2049 b72c 8697 0027 a0a3 172c 40d6 c22c
000002a0: 2401 8929 440d 6c2b 3b59 2a28 f5a0 9a2c
000002b0: ae77 e126 bfab d42c 2772 1525 93fd 5c28
000002c0: 67c9 022a a092 342b e7c2 122b e23d 5325
000002d0: f395 892c 510c 8b2c d0ee 8528 5a8a 9a28
000002e0: e25e a425 4169 dc2a 084c 5925 86a1 cf2c
000002f0: 14ce 0c2c 5473 ba28 931d 8027 4778 1c24
00000300: cfa0 2b37 5bcd ef37 cb90 e636 3098 0e37
00000310: ccbc 8d37 7c86 1737 318e 7337 cbf6 0438
00000320: 9433 9036 2a58 ab36 e8ff 8936 5031 8437
00000330: 2b46 a536 f42b c837 5f6a 2c34 3e93 6136
00000340: 7b55 fe35 1ae4 0e37 f122 4c35 5ca2 8837
00000350: 8ebb 4237 e7ba ca36 e0f1 1337 5b5e c336
00000360: d4fb a837 b75b 3e37 b849 8c37 970f b437
00000370: f9b2 0037 ccec 4037 5e86 3f37 35e6 3137
00000380: 39b6 6036 d026 1b37 30ea 1036 61e8 3936
00000390: f39b b736 0e64 4536 d987 9d36 1e68 2b37
000003a0: 1b0c bb35 babf e035 37d8 b135 142e ac36
000003b0: 15f0 d635 590c 0137 bdbe 7333 da55 9035
000003c0: 07a2 2435 bac4 3836 d888 8334 1876 af36
000003d0: 9235 7d36 6f76 0236 bc18 4236 af94 0036
000003e0: 0b27 d836 788d 7836 c693 b336 342e e836
000003f0: 1530 2636 5344 7836 665b 7836 ee43 6336

exp_avg f4 [32]
0.0018004067 0.002129583 -0.0014156508 -0.0028781171 6e-45 6e-45 -0.0025046347 0.001438599
-0.0027698611 0.0026121251 -0.0023848254 0.0026747517 0.0014775143 -0.003186089 0.0018152117 -0.0037000428
-0.0014631706 0.0015890116 -0.002429671 0.0014333328 -0.0022919872 0.0028480964 0.0027847418 -0.003080601
-0.003036169 0.001721541 -0.0017961513 0.0015291371 0.002055118 0.0016148139 -0.0020793842 -0.0018816947
00000000: a0fb eb3a 7990 0b3b 5c8d b9ba cb9e 3cbb
00000010: 0400 0000 0400 0000 cc24 24bb 5f8f bc3a
00000020: 8f86 35bb 3030 2b3b bb4a 1cbb e34a 2f3b
00000030: 27a9 c13a b4cd 50bb 66ec ed3a 6b7c 72bb
00000040: dcc7 bfba 6246 d03a 1d3b 1fbb abde bb3a
00000050: 2a35 16bb 21a7 3a3b 3780 363b e9e3 49bb
00000060: 77fa 46bb 55a5 e13a d66c ebba 546d c83a
00000070: 29af 063b 2aa8 d33a 4746 08bb 32a3 f6ba

exp_avg_sq f4 [32]
0.00015208112 0.00021551861 8.939087e-05 0.00039941014 1.14938836e-10 9.780037e-12 0.00028502077 9.2433576e-05
0.0003637884 0.0003161939 0.00026050367 0.0003439134 0.00010199915 0.0004874779 0.00015145997 0.00066206674
0.0001011658 0.00011732002 0.00028088727 9.140732e-05 0.00023717026 0.00039488307 0.00037968004 0.0004479645
0.00043320967 0.00013723597 0.00014370965 9.2600894e-05 0.00019671238 0.000111114765 0.0001938357 0.00016195873
00000000: f777 1f39 d6fc 6139 5c77 bb38 ec67 d139
00000010: d0c0 fc2e 5f0d 2c2d d76e 9539 e6d8 c138
00000020: daba be39 d4c6 a539 3694 8839 464f b439
00000030: 60e8 d538 2d94 ff39 3ad1 1e39 8c8e 2d3a
00000040: fa28 d438 b509 f638 0d44 9339 eeb1 bf38
00000050: e8b0 7839 4f08 cf39 cb0f c739 c7dc ea39
00000060: 6b20 e339 00e7 0f39 c4b0 1639 ba32 c238
00000070: 9444 4e39 4906 e938 6040 4b39 77d3 2939
